mww/ahhs_sistant.tflite (tflite, 60808 bytes, 18 tensors)

tfl.pseudo_qconst1 i1 [1, 1088] scale=0.0011273423 zero_point=0
0.043966353 -0.04734838 -0.015782792 -0.0022546847 0.007891396 -0.040584326 0.015782792 -0.02367419
0.077786624 -0.045093693 0.08229599 -0.031565584 0.036074955 0.08342333 -0.02367419 0.10484284
-0.022546846 0.1172436 0.015782792 0.113861576 -0.01916482 0.04734838 0.08567802 0.0045093694
-0.054112434 -0.054112434 0.04734838 0.015782792 0.09356941 -0.01916482 -0.036074955 0.089060046
0.027056217 0.022546846 0.0586218 -0.022546846 0.0293109 0.11160689 0.009018739 0.049603064
0.12062563 0.1172436 0.013528109 -0.04283901 0.066513196 0.101460814 -0.007891396 0.043966353
-0.024801532 -0.013528109 -0.010146081 -0.051857747 -0.027056217 0.031565584 0.087932706 0.056367118
0.016910136 0.0372023 0.011273423 -0.016910136 0.012400766 -0.03494761 0.09920613 0.087932706
0.09131473 0.020292163 0.007891396 0.028183559 -0.025928874 -0.043966353 0.11837094 0.06200383
0.103715494 -0.01916482 0.0056367116 0.080041304 0.09469676 0.010146081 0.043966353 0.064258516
0.020292163 0.12062563 -0.0293109 0.1172436 -0.045093693 -0.04734838 -0.02367419 0.080041304
0.07665928 -0.009018739 0.020292163 -0.0293109 0.11160689 -0.032692928 0.06989522 0.040584326
0.03382027 0.060876485 0.0022546847 0.090187386 -0.022546846 0.090187386 0.14317247 0.011273423
0.0033820271 0.112734236 0.011273423 0.025928874 0.0958241 0.010146081 0.08342333 0.016910136
-0.012400766 -0.025928874 0.103715494 -0.013528109 0.051857747 0.08342333 -0.013528109 0.04283901
-0.01465545 -0.049603064 -0.0033820271 0.06764054 -0.046221036 0.009018739 0.07665928 0.08455068
0.049603064 -0.04734838 -0.009018739 0.043966353 0.049603064 -0.0022546847 0.10597018 0.02367419
0.01465545 -0.05298509 0.05298509 -0.0022546847 0.022546846 0.0056367116 0.030438242 0.06200383
0.0586218 0.12626234 -0.011273423 0.051857747 0.024801532 -0.018037478 0.0022546847 0.06313117
-0.050730407 -0.01465545 0.07553194 0.04847572 0.11611626 -0.0067640543 -0.015782792 0.046221036
-0.0022546847 0.059749145 0.0067640543 -0.031565584 0.028183559 0.018037478 0.08567802 -0.030438242
0.11611626 0.09356941 0.08229599 -0.057494458 -0.0045093694 0.015782792 -0.011273423 0.0958241
0.06200383 -0.04283901 0.066513196 -0.043966353 -0.040584326 0.03494761 -0.057494458 0.022546846
-0.025928874 -0.016910136 0.036074955 -0.01916482 -0.03832964 -0.024801532 0.050730407 0.08116865
-0.0372023 0.013528109 -0.016910136 0.05298509 -0.011273423 0.09131473 0.064258516 -0.02367419
0.027056217 -0.018037478 -0.04283901 0.07102257 0.01916482 -0.039456982 -0.05298509 0.0067640543
-0.0011273423 0.0056367116 0.06200383 0.04734838 0.040584326 0.06989522 -0.013528109 -0.0293109
0.051857747 -0.057494458 0.0067640543 0.078913964 0.01465545 0.11160689 -0.05298509 0.04283901
-0.0372023 0.09356941 0.07665928 0.09356941 -0.051857747 -0.039456982 0.03494761 -0.024801532
0.049603064 0.07102257 0.011273423 -0.043966353 0.08455068 0.032692928 -0.01916482 0.0586218
-0.0067640543 0.0033820271 0.065385856 0.01465545 -0.0056367116 0.064258516 -0.031565584 0.024801532
0.01916482 0.01916482 0.0958241 0.0067640543 0.06313117 -0.0056367116 0.10822487 0.087932706
00000000: 27d6 f2fe 07dc 0eeb 45d8 49e4 204a eb5d
00000010: ec68 0e65 ef2a 4c04 d0d0 2a0e 53ef e04f
00000020: 1814 34ec 1a63 082c 6b68 0cda 3b5a f927
00000030: eaf4 f7d2 e81c 4e32 0f21 0af1 0be1 584e
00000040: 5112 0719 e9d9 6937 5cef 0547 5409 2739
00000050: 126b e668 d8d6 eb47 44f8 12e6 63e3 3e24
00000060: 1e36 0250 ec50 7f0a 0364 0a17 5509 4a0f
00000070: f5e9 5cf4 2e4a f426 f3d4 fd3c d708 444b
00000080: 2cd6 f827 2cfe 5e15 0dd1 2ffe 1405 1b37
00000090: 3470 f62e 16f0 0238 d3f3 432b 67fa f229
000000a0: fe35 06e4 1910 4ce5 6753 49cd fc0e f655
000000b0: 37da 3bd9 dc1f cd14 e9f1 20ef deea 2d48
000000c0: df0c f12f f651 39eb 18f0 da3f 11dd d106
000000d0: ff05 372a 243e f4e6 2ecd 0646 0d63 d126
000000e0: df53 4453 d2dd 1fea 2c3f 0ad9 4b1d ef34
000000f0: fa03 3a0d fb39 e416 1111 5506 38fb 604e

tfl.pseudo_qconst3 i1 [64, 1, 1, 64]
-11 -41 13 -37 -63 -4 -90 65
-81 -53 -98 35 -16 94 19 -35
-6 85 -53 -60 -11 -93 -29 -127
106 -69 -59 -37 -109 -11 48 -47
-102 14 113 -50 25 -12 22 -20
5 66 24 4 73 -63 -77 49
-68 -45 22 -28 -100 -68 54 -83
4 11 -69 48 22 88 48 30
-97 -5 -69 -70 34 55 115 41
59 -26 2 -10 41 20 -105 15
103 31 -98 -10 76 -97 -23 -109
72 -21 85 -69 -28 -41 80 -67
30 18 -77 -21 48 78 -60 -62
-103 -58 127 -13 -12 14 -78 41
119 -5 -63 84 -36 16 15 -97
102 -36 -119 -90 -23 -101 94 14
-110 -15 65 -127 -8 -77 -109 86
-72 -120 24 98 -4 114 87 -87
-32 -14 -46 -106 70 21 -67 -86
-25 -94 60 -96 83 -59 94 -93
99 -32 -39 -95 105 -33 -36 -21
-54 51 -22 10 -18 118 72 -78
76 127 110 62 -54 -74 -11 -61
88 -68 76 98 -70 -115 -23 -38
3 -16 113 -25 -80 -86 33 86
68 8 -27 43 -92 -22 -92 33
0 -104 96 33 19 -31 5 -109
-112 32 -11 -112 -84 -52 -34 -35
-56 -47 18 109 51 12 -90 21
127 63 57 -12 -7 95 61 58
90 -66 -80 40 -70 41 80 -90
-43 -65 71 80 20 -22 65 103
00000000: f5d7 0ddb c1fc a641 afcb 9e23 f05e 13dd
00000010: fa55 cbc4 f5a3 e381 6abb c5db 93f5 30d1
00000020: 9a0e 71ce 19f4 16ec 0542 1804 49c1 b331
00000030: bcd3 16e4 9cbc 36ad 040b bb30 1658 301e
00000040: 9ffb bbba 2237 7329 3be6 02f6 2914 970f
00000050: 671f 9ef6 4c9f e993 48eb 55bb e4d7 50bd
00000060: 1e12 b3eb 304e c4c2 99c6 7ff3 f40e b229
00000070: 77fb c154 dc10 0f9f 66dc 89a6 e99b 5e0e
00000080: 92f1 4181 f8b3 9356 b888 1862 fc72 57a9
00000090: e0f2 d296 4615 bdaa e7a2 3ca0 53c5 5ea3
000000a0: 63e0 d9a1 69df dceb ca33 ea0a ee76 48b2
000000b0: 4c7f 6e3e cab6 f5c3 58bc 4c62 ba8d e9da
000000c0: 03f0 71e7 b0aa 2156 4408 e52b a4ea a421
000000d0: 0098 6021 13e1 0593 9020 f590 accc dedd
000000e0: c8d1 126d 330c a615 7f3f 39f4 f95f 3d3a
000000f0: 5abe b028 ba29 50a6 d5bf 4750 14ea 4167

tfl.pseudo_qconst5 i1 [1, 23, 1, 64]
-26 58 -50 33 127 35 87 -127
44 55 54 29 -29 -21 50 -45
74 -79 35 15 84 98 -41 31
125 127 58 -17 6 -70 -74 -18
-106 66 -66 68 123 -30 -16 85
15 17 123 -4 75 -114 -77 -54
57 60 113 -108 28 -92 49 81
-50 86 62 -93 -13 22 -47 -121
-39 64 -50 -36 12 29 71 -84
17 44 34 49 -40 -48 -71 48
5 53 -3 41 53 -114 -67 -123
-22 64 -28 52 -2 -74 -38 54
36 15 -92 -81 26 44 -24 -118
15 64 119 -61 75 -108 66 53
127 17 44 -81 85 127 -121 29
-54 121 -123 -31 -25 51 57 22
-5 -44 80 41 106 -90 56 -1
-36 -36 -93 -1 -26 26 -2 -80
49 -51 -23 81 -76 113 127 -16
-76 61 -109 -93 42 -101 19 -76
25 69 52 72 127 -30 -94 -127
60 -6 9 -127 114 97 30 -74
24 -48 79 -127 90 114 -38 57
65 81 27 -73 72 5 -10 -105
-91 83 106 -70 -1 -65 37 37
3 4 -23 33 72 115 127 -5
-52 94 -116 79 127 -78 104 -106
-24 -16 -11 53 -86 57 -35 -80
-34 97 -57 85 -56 -41 -26 -46
-41 67 5 -106 -21 -12 34 -29
75 -26 -63 -38 112 77 39 -82
-13 -77 -46 38 -68 37 28 -126
00000000: e63a ce21 7f23 5781 2c37 361d e3eb 32d3
00000010: 4ab1 230f 5462 d71f 7d7f 3aef 06ba b6ee
00000020: 9642 be44 7be2 f055 0f11 7bfc 4b8e b3ca
00000030: 393c 7194 1ca4 3151 ce56 3ea3 f316 d187
00000040: d940 cedc 0c1d 47ac 112c 2231 d8d0 b930
00000050: 0535 fd29 358e bd85 ea40 e434 feb6 da36
00000060: 240f a4af 1a2c e88a 0f40 77c3 4b94 4235
00000070: 7f11 2caf 557f 871d ca79 85e1 e733 3916
00000080: fbd4 5029 6aa6 38ff dcdc a3ff e61a feb0
00000090: 31cd e951 b471 7ff0 b43d 93a3 2a9b 13b4
000000a0: 1945 3448 7fe2 a281 3cfa 0981 7261 1eb6
000000b0: 18d0 4f81 5a72 da39 4151 1bb7 4805 f697
000000c0: a553 6aba ffbf 2525 0304 e921 4873 7ffb
000000d0: cc5e 8c4f 7fb2 6896 e8f0 f535 aa39 ddb0
000000e0: de61 c755 c8d7 e6d2 d743 0596 ebf4 22e3
000000f0: 4be6 c1da 704d 27ae f3b3 d226 bc25 1c82

tfl.pseudo_qconst7 i1 [64, 1, 1, 64]
-22 124 61 107 64 -120 34 102
124 102 74 -56 23 -19 82 -82
13 -25 88 -30 89 46 22 51
119 34 -98 -81 95 22 29 -112
-23 -29 35 63 -65 -87 -27 73
-28 34 -83 -92 -127 29 -4 89
122 116 -12 124 4 42 -84 118
-91 109 -104 -36 -115 -38 86 118
-101 -50 56 7 11 -84 -48 105
-101 -99 -55 -49 -86 63 -99 -27
65 -70 45 -60 -102 13 -127 40
-40 -114 78 40 70 8 87 50
94 -76 -93 105 13 -55 -87 39
50 70 81 27 29 -34 -87 -2
0 50 -67 -51 19 -73 6 -82
45 -16 -97 59 66 32 -42 -12
-49 -81 110 -118 -34 -100 19 -127
103 63 -8 15 26 8 -99 26
48 -78 71 -62 -40 6 102 94
56 -75 -59 88 96 74 -42 -54
82 110 100 73 -29 101 17 42
106 -118 78 -47 116 103 -47 7
75 4 111 -16 15 10 111 -56
94 -113 44 -115 -84 2 29 95
-16 24 -96 60 124 114 -3 82
-92 -122 -93 -12 107 -28 -48 72
-54 120 58 -43 -70 -93 -59 125
-55 9 -37 -109 62 -107 -106 -44
2 78 -127 -77 34 95 58 -78
54 49 5 50 -40 73 116 -46
57 -97 -38 -2 1 36 -43 19
-43 -30 13 40 -104 45 33 -84
00000000: ea7c 3d6b 4088 2266 7c66 4ac8 17ed 52ae
00000010: 0de7 58e2 592e 1633 7722 9eaf 5f16 1d90
00000020: e9e3 233f bfa9 e549 e422 ada4 811d fc59
00000030: 7a74 f47c 042a ac76 a56d 98dc 8dda 5676
00000040: 9bce 3807 0bac d069 9b9d c9cf aa3f 9de5
00000050: 41ba 2dc4 9a0d 8128 d88e 4e28 4608 5732
00000060: 5eb4 a369 0dc9 a927 3246 511b 1dde a9fe
00000070: 0032 bdcd 13b7 06ae 2df0 9f3b 4220 d6f4
00000080: cfaf 6e8a de9c 1381 673f f80f 1a08 9d1a
00000090: 30b2 47c2 d806 665e 38b5 c558 604a d6ca
000000a0: 526e 6449 e365 112a 6a8a 4ed1 7467 d107
000000b0: 4b04 6ff0 0f0a 6fc8 5e8f 2c8d ac02 1d5f
000000c0: f018 a03c 7c72 fd52 a486 a3f4 6be4 d048
000000d0: ca78 3ad5 baa3 c57d c909 db93 3e95 96d4
000000e0: 024e 81b3 225f 3ab2 3631 0532 d849 74d2
000000f0: 399f dafe 0124 d513 d5e2 0d28 982d 21ac

tfl.pseudo_qconst9 i1 [1, 15, 1, 32]
-23 -115 13 -127 -127 -18 -31 -18
46 5 36 93 -34 13 -114 -127
-59 89 -39 -12 48 -93 30 -101
70 108 -3 104 -63 -35 -38 53
-11 97 -71 42 55 99 28 87
-84 40 -92 30 -11 125 9 59
-86 -27 -35 100 -91 -61 -13 -97
-53 55 63 -100 -70 29 -99 -104
-63 -9 127 -58 102 -30 44 -18
-127 -109 33 70 25 53 31 122
-55 41 -122 32 65 0 7 -103
24 80 -100 35 -85 -16 -34 -127
61 66 38 85 29 -31 53 117
82 108 23 -30 -3 68 -34 115
-52 13 -21 -9 102 61 114 37
127 37 -42 55 -112 -9 -10 -77
-85 -46 27 -122 -74 53 37 5
93 69 16 -85 -88 -19 -81 -107
38 -105 104 -16 -105 60 -47 -127
-68 76 -98 0 -67 -92 -48 -78
100 56 86 66 -14 51 -40 -34
-18 -30 125 88 71 127 3 54
120 81 -57 127 -73 -88 127 23
69 -123 45 -99 6 85 -55 26
84 6 -12 -75 7 -57 37 123
125 -50 127 107 -24 81 -74 66
-65 -51 79 103 126 -71 91 -113
17 -44 34 80 -77 -3 19 -70
27 -57 62 12 -82 101 126 -24
-98 -100 79 54 92 65 127 7
99 90 59 6 -78 16 49 70
67 -103 117 -69 -124 -90 11 47
00000000: e98d 0d81 81ee e1ee 2e05 245d de0d 8e81
00000010: c559 d9f4 30a3 1e9b 466c fd68 c1dd da35
00000020: f561 b92a 3763 1c57 ac28 a41e f57d 093b
00000030: aae5 dd64 a5c3 f39f cb37 3f9c ba1d 9d98
00000040: c1f7 7fc6 66e2 2cee 8193 2146 1935 1f7a
00000050: c929 8620 4100 0799 1850 9c23 abf0 de81
00000060: 3d42 2655 1de1 3575 526c 17e2 fd44 de73
00000070: cc0d ebf7 663d 7225 7f25 d637 90f7 f6b3
00000080: abd2 1b86 b635 2505 5d45 10ab a8ed af95
00000090: 2697 68f0 973c d181 bc4c 9e00 bda4 d0b2
000000a0: 6438 5642 f233 d8de eee2 7d58 477f 0336
000000b0: 7851 c77f b7a8 7f17 4585 2d9d 0655 c91a
000000c0: 5406 f4b5 07c7 257b 7dce 7f6b e851 b642
000000d0: bfcd 4f67 7eb9 5b8f 11d4 2250 b3fd 13ba
000000e0: 1bc7 3e0c ae65 7ee8 9e9c 4f36 5c41 7f07
000000f0: 635a 3b06 b210 3146 4399 75bb 84a6 0b2f

tfl.pseudo_qconst11 i1 [1, 9, 1, 32]
1 83 -103 -124 122 106 -118 4
42 -95 -59 -56 31 88 -56 -96
-101 98 127 98 42 -24 40 -45
-22 -28 -81 1 96 -127 -7 127
127 104 -10 91 39 -127 127 84
-35 -116 -91 19 9 85 -127 -92
-47 -113 -38 56 35 -127 -113 -62
98 -102 -99 -127 12 -120 -97 69
-57 -50 91 -18 -13 95 74 -127
-39 -97 41 -116 19 23 35 -35
4 -46 12 52 96 8 -69 -75
102 -103 -84 83 -93 29 66 52
-1 127 81 92 -3 -56 -41 27
-110 -126 -119 -127 80 -127 -40 104
87 127 57 -15 97 -46 -73 49
127 -100 46 -85 80 -73 67 -82
74 -119 -38 -63 -92 -104 72 -125
40 127 -87 -26 -127 -83 -64 127
-127 18 -82 20 -127 29 63 127
95 -68 -95 -99 -94 -53 62 64
-85 42 127 38 127 -80 -38 5
41 77 0 -36 -34 28 65 37
-3 -24 -96 95 111 66 -127 -97
48 -53 -4 96 16 47 45 -106
-115 11 114 60 123 20 48 -89
79 -87 94 2 123 43 -75 6
13 -101 122 119 -93 89 0 8
-22 -127 92 -74 -127 -95 -120 -127
21 97 77 -113 -96 -46 -124 -78
127 7 -85 126 62 41 53 54
-92 67 -97 -99 93 -24 -66 -75
65 30 127 64 -58 -88 -127 -47
00000000: 0153 9984 7a6a 8a04 2aa1 c5c8 1f58 c8a0
00000010: 9b62 7f62 2ae8 28d3 eae4 af01 6081 f97f
00000020: 7f68 f65b 2781 7f54 dd8c a513 0955 81a4
00000030: d18f da38 2381 8fc2 629a 9d81 0c88 9f45
00000040: c7ce 5bee f35f 4a81 d99f 298c 1317 23dd
00000050: 04d2 0c34 6008 bbb5 6699 ac53 a31d 4234
00000060: ff7f 515c fdc8 d71b 9282 8981 5081 d868
00000070: 577f 39f1 61d2 b731 7f9c 2eab 50b7 43ae
00000080: 4a89 dac1 a498 4883 287f a9e6 81ad c07f
00000090: 8112 ae14 811d 3f7f 5fbc a19d a2cb 3e40
000000a0: ab2a 7f26 7fb0 da05 294d 00dc de1c 4125
000000b0: fde8 a05f 6f42 819f 30cb fc60 102f 2d96
000000c0: 8d0b 723c 7b14 30a7 4fa9 5e02 7b2b b506
000000d0: 0d9b 7a77 a359 0008 ea81 5cb6 81a1 8881
000000e0: 1561 4d8f a0d2 84b2 7f07 ab7e 3e29 3536
000000f0: a443 9f9d 5de8 beb5 411e 7f40 c6a8 81d1

tfl.pseudo_qconst13 i1 [64, 1, 1, 64]
-83 -17 123 1 40 -118 0 -118
114 79 -83 102 106 9 101 -64
44 86 -39 88 127 17 83 -6
-94 42 -75 7 -4 78 -63 -41
123 124 101 66 -15 -66 67 -39
111 17 -87 32 5 27 -40 23
120 29 33 100 4 -35 68 -30
-27 29 38 -102 -57 -55 92 -71
55 46 122 37 -69 -66 -124 -50
68 -95 97 9 85 127 -26 -103
70 -17 70 -80 21 -89 60 -89
104 -32 -105 -64 -60 109 -88 79
117 102 126 -66 28 -6 -80 24
75 -1 113 -24 -6 -16 122 111
119 -33 -14 45 -26 17 36 23
110 98 -52 -73 12 11 -51 -96
-110 -62 116 97 -30 97 -100 49
-84 98 41 -34 -9 35 51 -31
-73 -107 10 -101 119 54 -49 -113
-14 96 -116 41 -4 78 114 -102
-7 61 104 44 107 -86 -46 46
-16 -66 -43 120 37 127 34 -24
-31 -69 89 55 -46 61 -90 -25
93 -82 -40 -66 -25 27 93 -67
90 -42 -93 64 100 65 66 -83
-113 104 -71 -63 112 -46 97 9
55 -12 92 -80 51 -16 -49 115
-67 -101 74 81 51 72 114 -10
24 77 -27 29 -95 -107 39 -124
-32 12 -58 -31 -35 -50 -21 -39
36 69 -70 9 127 -100 43 -44
-4 113 -36 -13 -10 -10 20 47
00000000: adef 7b01 288a 008a 724f ad66 6a09 65c0
00000010: 2c56 d958 7f11 53fa a22a b507 fc4e c1d7
00000020: 7b7c 6542 f1be 43d9 6f11 a920 051b d817
00000030: 781d 2164 04dd 44e2 e51d 269a c7c9 5cb9
00000040: 372e 7a25 bbbe 84ce 44a1 6109 557f e699
00000050: 46ef 46b0 15a7 3ca7 68e0 97c0 c46d a84f
00000060: 7566 7ebe 1cfa b018 4bff 71e8 faf0 7a6f
00000070: 77df f22d e611 2417 6e62 ccb7 0c0b cda0
00000080: 92c2 7461 e261 9c31 ac62 29de f723 33e1
00000090: b795 0a9b 7736 cf8f f260 8c29 fc4e 729a
000000a0: f93d 682c 6baa d22e f0be d578 257f 22e8
000000b0: e1bb 5937 d23d a6e7 5dae d8be e71b 5dbd
000000c0: 5ad6 a340 6441 42ad 8f68 b9c1 70d2 6109
000000d0: 37f4 5cb0 33f0 cf73 bd9b 4a51 3348 72f6
000000e0: 184d e51d a195 2784 e00c c6e1 ddce ebd9
000000f0: 2445 ba09 7f9c 2bd4 fc71 dcf3 f6f6 142f

tfl.pseudo_qconst15 i1 [1, 11, 1, 32]
19 27 -52 -52 -72 28 -69 19
99 10 93 -70 122 -127 30 118
-19 44 62 89 27 58 46 41
-50 30 70 -107 57 -60 86 11
70 84 -50 -127 -21 76 25 92
56 -114 -13 34 25 19 -26 -27
-3 -101 110 77 -127 -28 -109 -25
20 -21 -98 -91 39 -15 14 127
-83 11 -25 24 -127 57 -18 118
-53 75 -86 14 41 28 127 -105
71 126 107 -13 -125 -38 -88 -123
42 37 65 -127 -65 -48 77 -48
-6 30 24 -24 56 78 125 116
127 -27 48 127 -127 -100 -23 -23
-120 -23 88 74 -17 -87 -96 50
-108 127 -37 53 47 -28 11 -36
107 69 109 68 2 -109 -53 50
-73 -97 -83 -62 -82 127 -39 69
85 109 127 127 72 -2 -124 77
123 -60 -84 104 -106 -22 96 9
-95 -42 -44 17 -10 56 96 -52
26 -127 11 104 -67 37 73 -81
48 -87 -108 80 -86 127 90 77
-66 100 -90 -30 20 92 116 61
-127 127 -94 54 39 30 -72 45
-16 50 79 -31 -29 -17 -114 -71
-127 9 11 97 81 -58 -127 -77
10 34 29 -103 -51 2 -127 31
-88 19 125 64 -124 127 -127 44
-92 14 127 51 1 -36 -47 14
89 -18 72 -52 90 -112 45 -84
127 118 -105 -115 112 27 43 -71
00000000: 131b cccc b81c bb13 630a 5dba 7a81 1e76
00000010: ed2c 3e59 1b3a 2e29 ce1e 4695 39c4 560b
00000020: 4654 ce81 eb4c 195c 388e f322 1913 e6e5
00000030: fd9b 6e4d 81e4 93e7 14eb 9ea5 27f1 0e7f
00000040: ad0b e718 8139 ee76 cb4b aa0e 291c 7f97
00000050: 477e 6bf3 83da a885 2a25 4181 bfd0 4dd0
00000060: fa1e 18e8 384e 7d74 7fe5 307f 819c e9e9
00000070: 88e9 584a efa9 a032 947f db35 2fe4 0bdc
00000080: 6b45 6d44 0293 cb32 b79f adc2 ae7f d945
00000090: 556d 7f7f 48fe 844d 7bc4 ac68 96ea 6009
000000a0: a1d6 d411 f638 60cc 1a81 0b68 bd25 49af
000000b0: 30a9 9450 aa7f 5a4d be64 a6e2 145c 743d
000000c0: 817f a236 271e b82d f032 4fe1 e3ef 8eb9
000000d0: 8109 0b61 51c6 81b3 0a22 1d99 cd02 811f
000000e0: a813 7d40 847f 812c a40e 7f33 01dc d10e
000000f0: 59ee 48cc 5a90 2dac 7f76 978d 701b 2bb9

tfl.pseudo_qconst17 i1 [1, 7, 1, 32]
2 3 108 127 127 112 -73 -76
2 -25 -127 69 89 -70 -92 -43
-88 -127 3 -21 45 -114 -50 75
51 -89 114 -24 54 -89 -108 -9
53 81 -32 -101 -82 -127 114 39
32 74 -77 68 -62 -107 -127 38
-127 90 -14 116 -36 -120 -12 127
79 117 9 -127 103 -92 45 28
100 -72 78 -47 60 -54 -68 -11
-77 -127 -99 127 -18 -27 -114 -127
-63 2 48 122 -118 25 -25 -94
32 127 -124 -1 127 -30 95 -60
127 71 -127 -104 15 -111 93 -105
17 101 -104 -38 -127 7 70 -72
-40 -68 -27 15 -108 -126 -127 125
-65 24 127 -71 40 1 -29 -25
95 84 -35 -56 122 88 -22 57
39 105 97 -101 -2 71 -54 -10
-127 -52 38 -108 -14 115 103 -94
-127 19 -1 -120 78 8 57 22
-30 6 -51 -53 -24 -79 120 127
-70 49 100 -15 -59 -92 117 -109
125 -36 -127 127 -127 8 28 117
-16 -55 87 0 27 73 -2 10
86 127 -91 6 67 -124 127 111
127 -16 -77 33 -41 127 -29 -32
15 127 -69 9 -8 127 -14 4
-32 -33 -32 8 60 127 -127 127
00000000: 0203 6c7f 7f70 b7b4 02e7 8145 59ba a4d5
00000010: a881 03eb 2d8e ce4b 33a7 72e8 36a7 94f7
00000020: 3551 e09b ae81 7227 204a b344 c295 8126
00000030: 815a f274 dc88 f47f 4f75 0981 67a4 2d1c
00000040: 64b8 4ed1 3cca bcf5 b381 9d7f eee5 8e81
00000050: c102 307a 8a19 e7a2 207f 84ff 7fe2 5fc4
00000060: 7f47 8198 0f91 5d97 1165 98da 8107 46b8
00000070: d8bc e50f 9482 817d bf18 7fb9 2801 e3e7
00000080: 5f54 ddc8 7a58 ea39 2769 619b fe47 caf6
00000090: 81cc 2694 f273 67a2 8113 ff88 4e08 3916
000000a0: e206 cdcb e8b1 787f ba31 64f1 c5a4 7593
000000b0: 7ddc 817f 8108 1c75 f0c9 5700 1b49 fe0a
000000c0: 567f a506 4384 7f6f 7ff0 b321 d77f e3e0
000000d0: 0f7f bb09 f87f f204 e0df e008 3c7f 817f

tfl.pseudo_qconst19 i1 [64, 1, 1, 32]
116 -45 -67 104 -119 -117 100 -73
-52 -84 -75 -63 108 -9 -54 127
61 1 -126 -63 64 66 -61 41
28 81 -89 -24 -32 -6 -24 -101
-31 -29 111 -17 93 -106 -84 105
-93 -95 -59 116 -39 9 47 -80
76 -44 -114 47 61 -89 41 127
101 26 13 -91 -45 118 -48 23
8 -13 -12 -12 2 -62 9 -11
-16 -6 25 -73 127 -16 17 6
-42 48 -91 -104 -50 -7 101 42
84 -53 -58 39 -13 32 115 -49
8 85 -40 90 -75 86 -127 63
-115 117 57 -49 77 76 -18 13
-74 120 27 -16 59 -23 21 118
10 -24 65 -77 -33 21 -8 99
29 35 -71 21 121 113 15 -7
61 25 6 85 -127 -103 -100 23
74 -92 -51 31 -21 25 -106 34
99 -98 -120 121 -91 -27 21 118
111 -10 -12 67 -125 -81 37 -59
-75 -49 -42 -74 -2 -20 122 44
-65 58 -75 30 -69 -54 127 91
-29 31 -12 -9 59 -20 28 17
-73 15 -1 -83 102 60 61 -57
113 -2 -20 -9 -59 89 -90 -62
49 88 -99 -127 108 17 20 -58
-26 2 -108 78 21 -1 58 -59
27 70 -79 21 -97 -119 84 30
121 76 93 -113 64 67 -66 105
120 -124 108 6 32 -13 -78 -81
-5 46 -27 -108 -80 -127 -105 20
00000000: 74d3 bd68 898b 64b7 ccac b5c1 6cf7 ca7f
00000010: 3d01 82c1 4042 c329 1c51 a7e8 e0fa e89b
00000020: e1e3 6fef 5d96 ac69 a3a1 c574 d909 2fb0
00000030: 4cd4 8e2f 3da7 297f 651a 0da5 d376 d017
00000040: 08f3 f4f4 02c2 09f5 f0fa 19b7 7ff0 1106
00000050: d630 a598 cef9 652a 54cb c627 f320 73cf
00000060: 0855 d85a b556 813f 8d75 39cf 4d4c ee0d
00000070: b678 1bf0 3be9 1576 0ae8 41b3 df15 f863
00000080: 1d23 b915 7971 0ff9 3d19 0655 8199 9c17
00000090: 4aa4 cd1f eb19 9622 639e 8879 a5e5 1576
000000a0: 6ff6 f443 83af 25c5 b5cf d6b6 feec 7a2c
000000b0: bf3a b51e bbca 7f5b e31f f4f7 3bec 1c11
000000c0: b70f ffad 663c 3dc7 71fe ecf7 c559 a6c2
000000d0: 3158 9d81 6c11 14c6 e602 944e 15ff 3ac5
000000e0: 1b46 b115 9f89 541e 794c 5d8f 4043 be69
000000f0: 7884 6c06 20f3 b2af fb2e e594 b081 9714

tfl.pseudo_qconst21 i1 [1, 5, 1, 32]
127 -75 -127 -53 112 25 -52 117
127 -35 -4 -74 127 20 -108 7
93 -30 -127 127 90 -6 -122 -67
29 -116 -66 -124 -119 67 -104 -119
47 69 -6 -46 127 -113 111 110
82 -2 127 8 48 -122 26 -77
-4 -1 -27 -116 7 32 -91 38
-103 108 -86 -90 -63 105 -122 -127
-100 -102 -103 30 8 35 -83 37
38 -102 -122 -37 -73 -127 -92 -127
-68 82 -3 8 36 -101 101 27
67 22 -127 -51 35 127 63 -66
42 -92 73 8 -29 127 99 -127
103 -127 39 127 108 -62 95 121
-18 127 104 -111 62 -4 52 127
-92 -69 4 127 -127 -76 48 -80
56 127 84 127 -113 14 127 -36
106 1 -93 73 42 -28 127 -34
-127 -22 118 -75 -127 -127 127 -12
127 -127 24 -63 25 94 127 67
00000000: 7fb5 81cb 7019 cc75 7fdd fcb6 7f14 9407
00000010: 5de2 817f 5afa 86bd 1d8c be84 8943 9889
00000020: 2f45 fad2 7f8f 6f6e 52fe 7f08 3086 1ab3
00000030: fcff e58c 0720 a526 996c aaa6 c169 8681
00000040: 9c9a 991e 0823 ad25 269a 86db b781 a481
00000050: bc52 fd08 249b 651b 4316 81cd 237f 3fbe
00000060: 2aa4 4908 e37f 6381 6781 277f 6cc2 5f79
00000070: ee7f 6891 3efc 347f a4bb 047f 81b4 30b0
00000080: 387f 547f 8f0e 7fdc 6a01 a349 2ae4 7fde
00000090: 81ea 76b5 8181 7ff4 7f81 18c1 195e 7f43

tfl.pseudo_qconst23 i1 [32, 5, 1, 40]
-17 28 5 -90 124 30 -4 -89
5 101 49 -97 -84 101 -49 39
-69 -87 -82 -127 49 -104 44 29
17 8 101 -115 40 80 -49 42
-36 -88 4 -110 -15 50 39 104
77 14 77 86 -61 7 67 82
-37 4 -90 62 100 -60 106 105
1 -35 79 89 86 48 52 16
-40 -66 9 86 -89 96 -16 -1
45 -70 4 76 -96 -72 72 89
78 43 108 34 9 112 -26 102
-8 -4 81 -39 40 50 8 -56
-59 -36 5 -38 31 -99 102 59
9 20 -42 19 53 -34 -45 -3
61 28 -48 16 -15 -103 81 -61
-19 50 122 61 116 -10 -10 -84
81 57 -26 -39 77 92 -73 78
-55 -48 -74 36 82 -79 102 81
12 -104 19 -39 42 67 -24 -115
38 -66 -66 113 -23 34 57 -108
7 -5 -95 -73 -23 102 123 -86
74 49 -14 63 82 -89 12 -89
-66 -35 20 27 -38 -34 22 105
-20 22 68 -16 78 -28 8 -94
-29 -52 -45 81 -58 83 -93 -53
113 29 80 -41 54 59 25 -109
-53 -111 -62 -121 44 -74 -37 -84
116 61 79 -91 59 -79 55 -45
-101 -58 18 -73 99 -50 2 -17
97 2 59 -23 16 -48 -1 -51
115 -92 -81 -98 67 18 32 -106
-106 103 -98 -93 115 -73 -92 -42
00000000: ef1c 05a6 7c1e fca7 0565 319f ac65 cf27
00000010: bba9 ae81 3198 2c1d 1108 658d 2850 cf2a
00000020: dca8 0492 f132 2768 4d0e 4d56 c307 4352
00000030: db04 a63e 64c4 6a69 01dd 4f59 5630 3410
00000040: d8be 0956 a760 f0ff 2dba 044c a0b8 4859
00000050: 4e2b 6c22 0970 e666 f8fc 51d9 2832 08c8
00000060: c5dc 05da 1f9d 663b 0914 d613 35de d3fd
00000070: 3d1c d010 f199 51c3 ed32 7a3d 74f6 f6ac
00000080: 5139 e6d9 4d5c b74e c9d0 b624 52b1 6651
00000090: 0c98 13d9 2a43 e88d 26be be71 e922 3994
000000a0: 07fb a1b7 e966 7baa 4a31 f23f 52a7 0ca7
000000b0: bedd 141b dade 1669 ec16 44f0 4ee4 08a2
000000c0: e3cc d351 c653 a3cb 711d 50d7 363b 1993
000000d0: cb91 c287 2cb6 dbac 743d 4fa5 3bb1 37d3
000000e0: 9bc6 12b7 63ce 02ef 6102 3be9 10d0 ffcd
000000f0: 73a4 af9e 4312 2096 9667 9ea3 73b7 a4d6

tfl.pseudo_qconst24 i1 [1, 22, 1, 64] scale=0.019959334 zero_point=-128
0.0 0.0 0.0 0.0 0.0 0.0 0.0 0.0
0.0 0.0 0.0 0.0 0.0 0.0 0.0 0.0
0.0 0.0 0.0 0.0 0.0 0.0 0.0 0.0
0.0 0.0 0.0 0.0 0.0 0.0 0.0 0.0
0.0 0.0 0.0 0.0 0.0 0.0 0.0 0.0
0.0 0.0 0.0 0.0 0.0 0.0 0.0 0.0
0.0 0.0 0.0 0.0 0.0 0.0 0.0 0.0
0.0 0.0 0.0 0.0 0.0 0.0 0.0 0.0
0.0 0.0 0.0 0.0 0.0 0.0 0.0 0.0
0.0 0.0 0.0 0.0 0.0 0.0 0.0 0.0
0.0 0.0 0.0 0.0 0.0 0.0 0.0 0.0
0.0 0.0 0.0 0.0 0.0 0.0 0.0 0.0
0.0 0.0 0.0 0.0 0.0 0.0 0.0 0.0
0.0 0.0 0.0 0.0 0.0 0.0 0.0 0.0
0.0 0.0 0.0 0.0 0.0 0.0 0.0 0.0
0.0 0.0 0.0 0.0 0.0 0.0 0.0 0.0
0.0 0.0 0.0 0.0 0.0 0.0 0.0 0.0
0.0 0.0 0.0 0.0 0.0 0.0 0.0 0.0
0.0 0.0 0.0 0.0 0.0 0.0 0.0 0.0
0.0 0.0 0.0 0.0 0.0 0.0 0.0 0.0
0.0 0.0 0.0 0.0 0.0 0.0 0.0 0.0
0.0 0.0 0.0 0.0 0.0 0.0 0.0 0.0
0.0 0.0 0.0 0.0 0.0 0.0 0.0 0.0
0.0 0.0 0.0 0.0 0.0 0.0 0.0 0.0
0.0 0.0 0.0 0.0 0.0 0.0 0.0 0.0
0.0 0.0 0.0 0.0 0.0 0.0 0.0 0.0
0.0 0.0 0.0 0.0 0.0 0.0 0.0 0.0
0.0 0.0 0.0 0.0 0.0 0.0 0.0 0.0
0.0 0.0 0.0 0.0 0.0 0.0 0.0 0.0
0.0 0.0 0.0 0.0 0.0 0.0 0.0 0.0
0.0 0.0 0.0 0.0 0.0 0.0 0.0 0.0
0.0 0.0 0.0 0.0 0.0 0.0 0.0 0.0
00000000: 8080 8080 8080 8080 8080 8080 8080 8080
00000010: 8080 8080 8080 8080 8080 8080 8080 8080
00000020: 8080 8080 8080 8080 8080 8080 8080 8080
00000030: 8080 8080 8080 8080 8080 8080 8080 8080
00000040: 8080 8080 8080 8080 8080 8080 8080 8080
00000050: 8080 8080 8080 8080 8080 8080 8080 8080
00000060: 8080 8080 8080 8080 8080 8080 8080 8080
00000070: 8080 8080 8080 8080 8080 8080 8080 8080
00000080: 8080 8080 8080 8080 8080 8080 8080 8080
00000090: 8080 8080 8080 8080 8080 8080 8080 8080
000000a0: 8080 8080 8080 8080 8080 8080 8080 8080
000000b0: 8080 8080 8080 8080 8080 8080 8080 8080
000000c0: 8080 8080 8080 8080 8080 8080 8080 8080
000000d0: 8080 8080 8080 8080 8080 8080 8080 8080
000000e0: 8080 8080 8080 8080 8080 8080 8080 8080
000000f0: 8080 8080 8080 8080 8080 8080 8080 8080

tfl.pseudo_qconst25 i1 [1, 16, 1, 64] scale=0.019778838 zero_point=-128
0.0 0.0 0.0 0.0 0.0 0.0 0.0 0.0
0.0 0.0 0.0 0.0 0.0 0.0 0.0 0.0
0.0 0.0 0.0 0.0 0.0 0.0 0.0 0.0
0.0 0.0 0.0 0.0 0.0 0.0 0.0 0.0
0.0 0.0 0.0 0.0 0.0 0.0 0.0 0.0
0.0 0.0 0.0 0.0 0.0 0.0 0.0 0.0
0.0 0.0 0.0 0.0 0.0 0.0 0.0 0.0
0.0 0.0 0.0 0.0 0.0 0.0 0.0 0.0
0.0 0.0 0.0 0.0 0.0 0.0 0.0 0.0
0.0 0.0 0.0 0.0 0.0 0.0 0.0 0.0
0.0 0.0 0.0 0.0 0.0 0.0 0.0 0.0
0.0 0.0 0.0 0.0 0.0 0.0 0.0 0.0
0.0 0.0 0.0 0.0 0.0 0.0 0.0 0.0
0.0 0.0 0.0 0.0 0.0 0.0 0.0 0.0
0.0 0.0 0.0 0.0 0.0 0.0 0.0 0.0
0.0 0.0 0.0 0.0 0.0 0.0 0.0 0.0
0.0 0.0 0.0 0.0 0.0 0.0 0.0 0.0
0.0 0.0 0.0 0.0 0.0 0.0 0.0 0.0
0.0 0.0 0.0 0.0 0.0 0.0 0.0 0.0
0.0 0.0 0.0 0.0 0.0 0.0 0.0 0.0
0.0 0.0 0.0 0.0 0.0 0.0 0.0 0.0
0.0 0.0 0.0 0.0 0.0 0.0 0.0 0.0
0.0 0.0 0.0 0.0 0.0 0.0 0.0 0.0
0.0 0.0 0.0 0.0 0.0 0.0 0.0 0.0
0.0 0.0 0.0 0.0 0.0 0.0 0.0 0.0
0.0 0.0 0.0 0.0 0.0 0.0 0.0 0.0
0.0 0.0 0.0 0.0 0.0 0.0 0.0 0.0
0.0 0.0 0.0 0.0 0.0 0.0 0.0 0.0
0.0 0.0 0.0 0.0 0.0 0.0 0.0 0.0
0.0 0.0 0.0 0.0 0.0 0.0 0.0 0.0
0.0 0.0 0.0 0.0 0.0 0.0 0.0 0.0
0.0 0.0 0.0 0.0 0.0 0.0 0.0 0.0
00000000: 8080 8080 8080 8080 8080 8080 8080 8080
00000010: 8080 8080 8080 8080 8080 8080 8080 8080
00000020: 8080 8080 8080 8080 8080 8080 8080 8080
00000030: 8080 8080 8080 8080 8080 8080 8080 8080
00000040: 8080 8080 8080 8080 8080 8080 8080 8080
00000050: 8080 8080 8080 8080 8080 8080 8080 8080
00000060: 8080 8080 8080 8080 8080 8080 8080 8080
00000070: 8080 8080 8080 8080 8080 8080 8080 8080
00000080: 8080 8080 8080 8080 8080 8080 8080 8080
00000090: 8080 8080 8080 8080 8080 8080 8080 8080
000000a0: 8080 8080 8080 8080 8080 8080 8080 8080
000000b0: 8080 8080 8080 8080 8080 8080 8080 8080
000000c0: 8080 8080 8080 8080 8080 8080 8080 8080
000000d0: 8080 8080 8080 8080 8080 8080 8080 8080
000000e0: 8080 8080 8080 8080 8080 8080 8080 8080
000000f0: 8080 8080 8080 8080 8080 8080 8080 8080

tfl.pseudo_qconst26 i1 [1, 2, 1, 40] scale=0.101960786 zero_point=-128
0.0 0.0 0.0 0.0 0.0 0.0 0.0 0.0
0.0 0.0 0.0 0.0 0.0 0.0 0.0 0.0
0.0 0.0 0.0 0.0 0.0 0.0 0.0 0.0
0.0 0.0 0.0 0.0 0.0 0.0 0.0 0.0
0.0 0.0 0.0 0.0 0.0 0.0 0.0 0.0
0.0 0.0 0.0 0.0 0.0 0.0 0.0 0.0
0.0 0.0 0.0 0.0 0.0 0.0 0.0 0.0
0.0 0.0 0.0 0.0 0.0 0.0 0.0 0.0
0.0 0.0 0.0 0.0 0.0 0.0 0.0 0.0
0.0 0.0 0.0 0.0 0.0 0.0 0.0 0.0
00000000: 8080 8080 8080 8080 8080 8080 8080 8080
00000010: 8080 8080 8080 8080 8080 8080 8080 8080
00000020: 8080 8080 8080 8080 8080 8080 8080 8080
00000030: 8080 8080 8080 8080 8080 8080 8080 8080
00000040: 8080 8080 8080 8080 8080 8080 8080 8080

tfl.pseudo_qconst27 i1 [1, 4, 1, 32] scale=0.29101208 zero_point=-128
0.0 0.0 0.0 0.0 0.0 0.0 0.0 0.0
0.0 0.0 0.0 0.0 0.0 0.0 0.0 0.0
0.0 0.0 0.0 0.0 0.0 0.0 0.0 0.0
0.0 0.0 0.0 0.0 0.0 0.0 0.0 0.0
0.0 0.0 0.0 0.0 0.0 0.0 0.0 0.0
0.0 0.0 0.0 0.0 0.0 0.0 0.0 0.0
0.0 0.0 0.0 0.0 0.0 0.0 0.0 0.0
0.0 0.0 0.0 0.0 0.0 0.0 0.0 0.0
0.0 0.0 0.0 0.0 0.0 0.0 0.0 0.0
0.0 0.0 0.0 0.0 0.0 0.0 0.0 0.0
0.0 0.0 0.0 0.0 0.0 0.0 0.0 0.0
0.0 0.0 0.0 0.0 0.0 0.0 0.0 0.0
0.0 0.0 0.0 0.0 0.0 0.0 0.0 0.0
0.0 0.0 0.0 0.0 0.0 0.0 0.0 0.0
0.0 0.0 0.0 0.0 0.0 0.0 0.0 0.0
0.0 0.0 0.0 0.0 0.0 0.0 0.0 0.0
00000000: 8080 8080 8080 8080 8080 8080 8080 8080
00000010: 8080 8080 8080 8080 8080 8080 8080 8080
00000020: 8080 8080 8080 8080 8080 8080 8080 8080
00000030: 8080 8080 8080 8080 8080 8080 8080 8080
00000040: 8080 8080 8080 8080 8080 8080 8080 8080
00000050: 8080 8080 8080 8080 8080 8080 8080 8080
00000060: 8080 8080 8080 8080 8080 8080 8080 8080
00000070: 8080 8080 8080 8080 8080 8080 8080 8080

tfl.pseudo_qconst28 i1 [1, 10, 1, 64] scale=0.02542883 zero_point=-128
0.0 0.0 0.0 0.0 0.0 0.0 0.0 0.0
0.0 0.0 0.0 0.0 0.0 0.0 0.0 0.0
0.0 0.0 0.0 0.0 0.0 0.0 0.0 0.0
0.0 0.0 0.0 0.0 0.0 0.0 0.0 0.0
0.0 0.0 0.0 0.0 0.0 0.0 0.0 0.0
0.0 0.0 0.0 0.0 0.0 0.0 0.0 0.0
0.0 0.0 0.0 0.0 0.0 0.0 0.0 0.0
0.0 0.0 0.0 0.0 0.0 0.0 0.0 0.0
0.0 0.0 0.0 0.0 0.0 0.0 0.0 0.0
0.0 0.0 0.0 0.0 0.0 0.0 0.0 0.0
0.0 0.0 0.0 0.0 0.0 0.0 0.0 0.0
0.0 0.0 0.0 0.0 0.0 0.0 0.0 0.0
0.0 0.0 0.0 0.0 0.0 0.0 0.0 0.0
0.0 0.0 0.0 0.0 0.0 0.0 0.0 0.0
0.0 0.0 0.0 0.0 0.0 0.0 0.0 0.0
0.0 0.0 0.0 0.0 0.0 0.0 0.0 0.0
0.0 0.0 0.0 0.0 0.0 0.0 0.0 0.0
0.0 0.0 0.0 0.0 0.0 0.0 0.0 0.0
0.0 0.0 0.0 0.0 0.0 0.0 0.0 0.0
0.0 0.0 0.0 0.0 0.0 0.0 0.0 0.0
0.0 0.0 0.0 0.0 0.0 0.0 0.0 0.0
0.0 0.0 0.0 0.0 0.0 0.0 0.0 0.0
0.0 0.0 0.0 0.0 0.0 0.0 0.0 0.0
0.0 0.0 0.0 0.0 0.0 0.0 0.0 0.0
0.0 0.0 0.0 0.0 0.0 0.0 0.0 0.0
0.0 0.0 0.0 0.0 0.0 0.0 0.0 0.0
0.0 0.0 0.0 0.0 0.0 0.0 0.0 0.0
0.0 0.0 0.0 0.0 0.0 0.0 0.0 0.0
0.0 0.0 0.0 0.0 0.0 0.0 0.0 0.0
0.0 0.0 0.0 0.0 0.0 0.0 0.0 0.0
0.0 0.0 0.0 0.0 0.0 0.0 0.0 0.0
0.0 0.0 0.0 0.0 0.0 0.0 0.0 0.0
00000000: 8080 8080 8080 8080 8080 8080 8080 8080
00000010: 8080 8080 8080 8080 8080 8080 8080 8080
00000020: 8080 8080 8080 8080 8080 8080 8080 8080
00000030: 8080 8080 8080 8080 8080 8080 8080 8080
00000040: 8080 8080 8080 8080 8080 8080 8080 8080
00000050: 8080 8080 8080 8080 8080 8080 8080 8080
00000060: 8080 8080 8080 8080 8080 8080 8080 8080
00000070: 8080 8080 8080 8080 8080 8080 8080 8080
00000080: 8080 8080 8080 8080 8080 8080 8080 8080
00000090: 8080 8080 8080 8080 8080 8080 8080 8080
000000a0: 8080 8080 8080 8080 8080 8080 8080 8080
000000b0: 8080 8080 8080 8080 8080 8080 8080 8080
000000c0: 8080 8080 8080 8080 8080 8080 8080 8080
000000d0: 8080 8080 8080 8080 8080 8080 8080 8080
000000e0: 8080 8080 8080 8080 8080 8080 8080 8080
000000f0: 8080 8080 8080 8080 8080 8080 8080 8080

tfl.pseudo_qconst29 i1 [1, 14, 1, 64] scale=0.024280062 zero_point=-128
0.0 0.0 0.0 0.0 0.0 0.0 0.0 0.0
0.0 0.0 0.0 0.0 0.0 0.0 0.0 0.0
0.0 0.0 0.0 0.0 0.0 0.0 0.0 0.0
0.0 0.0 0.0 0.0 0.0 0.0 0.0 0.0
0.0 0.0 0.0 0.0 0.0 0.0 0.0 0.0
0.0 0.0 0.0 0.0 0.0 0.0 0.0 0.0
0.0 0.0 0.0 0.0 0.0 0.0 0.0 0.0
0.0 0.0 0.0 0.0 0.0 0.0 0.0 0.0
0.0 0.0 0.0 0.0 0.0 0.0 0.0 0.0
0.0 0.0 0.0 0.0 0.0 0.0 0.0 0.0
0.0 0.0 0.0 0.0 0.0 0.0 0.0 0.0
0.0 0.0 0.0 0.0 0.0 0.0 0.0 0.0
0.0 0.0 0.0 0.0 0.0 0.0 0.0 0.0
0.0 0.0 0.0 0.0 0.0 0.0 0.0 0.0
0.0 0.0 0.0 0.0 0.0 0.0 0.0 0.0
0.0 0.0 0.0 0.0 0.0 0.0 0.0 0.0
0.0 0.0 0.0 0.0 0.0 0.0 0.0 0.0
0.0 0.0 0.0 0.0 0.0 0.0 0.0 0.0
0.0 0.0 0.0 0.0 0.0 0.0 0.0 0.0
0.0 0.0 0.0 0.0 0.0 0.0 0.0 0.0
0.0 0.0 0.0 0.0 0.0 0.0 0.0 0.0
0.0 0.0 0.0 0.0 0.0 0.0 0.0 0.0
0.0 0.0 0.0 0.0 0.0 0.0 0.0 0.0
0.0 0.0 0.0 0.0 0.0 0.0 0.0 0.0
0.0 0.0 0.0 0.0 0.0 0.0 0.0 0.0
0.0 0.0 0.0 0.0 0.0 0.0 0.0 0.0
0.0 0.0 0.0 0.0 0.0 0.0 0.0 0.0
0.0 0.0 0.0 0.0 0.0 0.0 0.0 0.0
0.0 0.0 0.0 0.0 0.0 0.0 0.0 0.0
0.0 0.0 0.0 0.0 0.0 0.0 0.0 0.0
0.0 0.0 0.0 0.0 0.0 0.0 0.0 0.0
0.0 0.0 0.0 0.0 0.0 0.0 0.0 0.0
00000000: 8080 8080 8080 8080 8080 8080 8080 8080
00000010: 8080 8080 8080 8080 8080 8080 8080 8080
00000020: 8080 8080 8080 8080 8080 8080 8080 8080
00000030: 8080 8080 8080 8080 8080 8080 8080 8080
00000040: 8080 8080 8080 8080 8080 8080 8080 8080
00000050: 8080 8080 8080 8080 8080 8080 8080 8080
00000060: 8080 8080 8080 8080 8080 8080 8080 8080
00000070: 8080 8080 8080 8080 8080 8080 8080 8080
00000080: 8080 8080 8080 8080 8080 8080 8080 8080
00000090: 8080 8080 8080 8080 8080 8080 8080 8080
000000a0: 8080 8080 8080 8080 8080 8080 8080 8080
000000b0: 8080 8080 8080 8080 8080 8080 8080 8080
000000c0: 8080 8080 8080 8080 8080 8080 8080 8080
000000d0: 8080 8080 8080 8080 8080 8080 8080 8080
000000e0: 8080 8080 8080 8080 8080 8080 8080 8080
000000f0: 8080 8080 8080 8080 8080 8080 8080 8080
