mww/ahr_toodeetoo.tflite (tflite, 60808 bytes, 18 tensors)

tfl.pseudo_qconst1 i1 [1, 1088] scale=0.0011984593 zero_point=0
000000 2a d8 f3 ff 07 e0 15 ed 4b dd 46 e8 20 46 f0 5e
       0.05033529 -0.047938373 -0.015579971 -0.0011984593 0.008389215 -0.038350698 0.025167646 -0.022770727 0.089884445 -0.041946076 0.08389215 -0.028763022 0.038350698 0.08389215 -0.019175349 0.11265518
000010 f2 6b 0d 67 f2 28 4b 04 d3 d3 2a 0d 56 f6 e2 53
       -0.01677843 0.12823515 0.015579971 0.12344131 -0.01677843 0.047938373 0.089884445 0.004793837 -0.05393067 -0.05393067 0.05033529 0.015579971 0.1030675 -0.011984593 -0.03595378 0.09947212
000020 1b 19 39 ef 19 64 10 2a 6d 68 0c dd 40 5c fb 2a
       0.0323584 0.029961482 0.06831218 -0.020373808 0.029961482 0.11984593 0.019175349 0.05033529 0.13063206 0.124639764 0.014381511 -0.041946076 0.076701395 0.11025826 -0.0059922966 0.05033529
000030 ec f6 00 d6 ea 21 4a 31 0e 1f 10 f6 0c e5 5a 51
       -0.023969186 -0.011984593 0.0 -0.05033529 -0.026366105 0.039549157 0.08868599 0.058724504 0.01677843 0.03715224 0.019175349 -0.011984593 0.014381511 -0.0323584 0.10786134 0.0970752
000040 51 11 07 18 eb dc 6a 35 5f f3 06 44 50 09 28 3b
       0.0970752 0.020373808 0.008389215 0.028763022 -0.025167646 -0.043144535 0.12703669 0.063518345 0.11385363 -0.015579971 0.0071907556 0.08149523 0.095876746 0.010786134 0.047938373 0.0707091
000050 16 6e e8 68 dc da ef 44 40 fa 13 e8 64 ea 3a 29
       0.026366105 0.13183053 -0.028763022 0.124639764 -0.043144535 -0.045541454 -0.020373808 0.08149523 0.076701395 -0.0071907556 0.022770727 -0.028763022 0.11984593 -0.026366105 0.06951064 0.049136832
000060 20 38 09 4d ee 51 7f 0a 0a 64 0a 16 57 0f 47 12
       0.038350698 0.06711372 0.010786134 0.092281364 -0.021572268 0.0970752 0.15220433 0.011984593 0.011984593 0.11984593 0.011984593 0.026366105 0.10426596 0.01797689 0.08509061 0.021572268
000070 f7 ec 5d f5 2c 4b f6 25 f4 d8 03 3e dc 0a 46 4e
       -0.010786134 -0.023969186 0.111456715 -0.013183053 0.05273221 0.089884445 -0.011984593 0.044342995 -0.014381511 -0.047938373 0.0035953778 0.07430448 -0.043144535 0.011984593 0.08389215 0.09347983
000080 2e d9 f9 25 2a ff 5e 15 13 d6 2d 00 14 06 1e 39
       0.05512913 -0.046739914 -0.008389215 0.044342995 0.05033529 -0.0011984593 0.11265518 0.025167646 0.022770727 -0.05033529 0.05393067 0.0 0.023969186 0.0071907556 0.03595378 0.06831218
000090 35 71 f7 30 17 f2 04 35 d6 f6 41 29 67 ff f4 2d
       0.063518345 0.1354259 -0.010786134 0.057526045 0.027564565 -0.01677843 0.004793837 0.063518345 -0.05033529 -0.011984593 0.07789985 0.049136832 0.12344131 -0.0011984593 -0.014381511 0.05393067
0000a0 01 36 0c e8 19 14 4e e7 67 54 46 d0 02 13 f8 53
       0.0011984593 0.0647168 0.014381511 -0.028763022 0.029961482 0.023969186 0.09347983 -0.029961482 0.12344131 0.10067058 0.08389215 -0.057526045 0.0023969186 0.022770727 -0.009587674 0.09947212
0000b0 35 de 3d dc e0 22 d1 14 eb f3 24 f5 e2 ee 30 49
       0.063518345 -0.040747616 0.07310602 -0.043144535 -0.038350698 0.040747616 -0.05632759 0.023969186 -0.025167646 -0.015579971 0.043144535 -0.013183053 -0.03595378 -0.021572268 0.057526045 0.087487526
0000c0 e5 0c f2 2d f8 4e 3a ee 1d f4 de 3d 12 e0 d8 0b
       -0.0323584 0.014381511 -0.01677843 0.05393067 -0.009587674 0.09347983 0.06951064 -0.021572268 0.03475532 -0.014381511 -0.040747616 0.07310602 0.021572268 -0.038350698 -0.047938373 0.013183053
0000d0 03 0c 34 2c 25 3c f7 e8 2c d2 07 43 11 61 d5 29
       0.0035953778 0.014381511 0.062319882 0.05273221 0.044342995 0.07190756 -0.010786134 -0.028763022 0.05273221 -0.05512913 0.008389215 0.08029677 0.020373808 0.11625055 -0.05153375 0.049136832
0000e0 e4 52 46 50 d6 e3 23 ec 2f 40 0a dc 4c 20 f2 34
       -0.03355686 0.098273665 0.08389215 0.095876746 -0.05033529 -0.03475532 0.041946076 -0.023969186 0.05632759 0.076701395 0.011984593 -0.043144535 0.09108291 0.038350698 -0.01677843 0.062319882
0000f0 fc 05 3c 0d fd 3a e7 17 11 11 54 0a 37 fe 5f 4e
       -0.004793837 0.0059922966 0.07190756 0.015579971 -0.0035953778 0.06951064 -0.029961482 0.027564565 0.020373808 0.020373808 0.10067058 0.011984593 0.065915264 -0.0023969186 0.11385363 0.09347983

tfl.pseudo_qconst3 i1 [64, 1, 1, 64]
000000 f5 d7 0d db c2 fc a6 41 af cb 9e 23 f0 5e 13 dd
       -11 -41 13 -37 -62 -4 -90 65 -81 -53 -98 35 -16 94 19 -35
000010 fa 54 cb c4 f6 a4 e3 81 69 bb c5 dc 93 f4 30 d1
       -6 84 -53 -60 -10 -92 -29 -127 105 -69 -59 -36 -109 -12 48 -47
000020 9a 0e 71 ce 19 f4 16 eb 06 42 18 04 49 c1 b3 31
       -102 14 113 -50 25 -12 22 -21 6 66 24 4 73 -63 -77 49
000030 bc d4 16 e4 9c bd 36 ad 04 0b ba 30 16 58 30 1f
       -68 -44 22 -28 -100 -67 54 -83 4 11 -70 48 22 88 48 31
000040 9f fb bb b9 22 37 73 29 3b e7 02 f7 29 13 97 0f
       -97 -5 -69 -71 34 55 115 41 59 -25 2 -9 41 19 -105 15
000050 66 1f 9f f6 4d 9f e9 93 47 ec 55 bb e4 d7 50 bc
       102 31 -97 -10 77 -97 -23 -109 71 -20 85 -69 -28 -41 80 -68
000060 1e 13 b3 eb 30 4f c5 c2 9a c6 7f f3 f4 0e b2 29
       30 19 -77 -21 48 79 -59 -62 -102 -58 127 -13 -12 14 -78 41
000070 76 fb c1 54 dc 10 0f 9f 66 dc 89 a6 e9 9b 5e 0e
       118 -5 -63 84 -36 16 15 -97 102 -36 -119 -90 -23 -101 94 14
000080 93 f1 41 81 f9 b3 93 56 b8 89 17 62 fc 72 57 a9
       -109 -15 65 -127 -7 -77 -109 86 -72 -119 23 98 -4 114 87 -87
000090 e0 f2 d3 96 46 15 be ab e7 a3 3c a0 52 c5 5e a3
       -32 -14 -45 -106 70 21 -66 -85 -25 -93 60 -96 82 -59 94 -93
0000a0 63 e0 d9 a2 69 e0 dd eb ca 33 ea 0a ee 76 48 b2
       99 -32 -39 -94 105 -32 -35 -21 -54 51 -22 10 -18 118 72 -78
0000b0 4b 7e 6e 3e ca b6 f5 c3 58 bc 4b 62 bb 8e e9 da
       75 126 110 62 -54 -74 -11 -61 88 -68 75 98 -69 -114 -23 -38
0000c0 03 f0 71 e6 b1 aa 21 56 44 09 e5 2b a4 ea a4 21
       3 -16 113 -26 -79 -86 33 86 68 9 -27 43 -92 -22 -92 33
0000d0 00 98 60 21 13 e1 05 94 91 20 f5 91 ad cc de dd
       0 -104 96 33 19 -31 5 -108 -111 32 -11 -111 -83 -52 -34 -35
0000e0 c8 d1 12 6d 32 0c a7 15 7f 3f 39 f4 f8 5e 3d 3a
       -56 -47 18 109 50 12 -89 21 127 63 57 -12 -8 94 61 58
0000f0 59 be b1 28 ba 29 50 a7 d5 bf 47 4f 14 ea 41 66
       89 -66 -79 40 -70 41 80 -89 -43 -65 71 79 20 -22 65 102

tfl.pseudo_qconst5 i1 [1, 23, 1, 64]
000000 e1 3b ce 1d 7f 22 56 81 28 38 34 1b e1 e9 2c d0
       -31 59 -50 29 127 34 86 -127 40 56 52 27 -31 -23 44 -48
000010 4c b3 23 0f 5b 62 de 1c 7f 7f 3c f7 02 b4 b5 f0
       76 -77 35 15 91 98 -34 28 127 127 60 -9 2 -76 -75 -16
000020 99 3c bd 43 7b e7 f1 50 13 15 7d fb 5b 8c b2 ca
       -103 60 -67 67 123 -25 -15 80 19 21 125 -5 91 -116 -78 -54
000030 3e 3c 74 92 25 a0 2f 4e d4 5a 2f a5 f5 13 ce 83
       62 60 116 -110 37 -96 47 78 -44 90 47 -91 -11 19 -50 -125
000040 d6 41 cf d9 08 1c 45 ab 0f 2d 20 2c d6 cd b9 2a
       -42 65 -49 -39 8 28 69 -85 15 45 32 44 -42 -51 -71 42
000050 08 35 fe 29 3a 8d c3 84 e6 42 e6 3a fb b0 da 36
       8 53 -2 41 58 -115 -61 -124 -26 66 -26 58 -5 -80 -38 54
000060 24 0a a2 ae 1a 30 e9 8c 14 43 7a c2 59 92 40 34
       36 10 -94 -82 26 48 -23 -116 20 67 122 -62 89 -110 64 52
000070 7f 12 2f ae 5d 7f 86 1a cf 7d 82 e2 e9 32 34 12
       127 18 47 -82 93 127 -122 26 -49 125 -126 -30 -23 50 52 18
000080 fb d6 52 22 68 a3 36 fd dd da a3 f8 e4 16 ff ad
       -5 -42 82 34 104 -93 54 -3 -35 -38 -93 -8 -28 22 -1 -83
000090 37 cf ea 52 b8 71 7f f3 ac 3d 94 b1 27 96 14 b7
       55 -49 -22 82 -72 113 127 -13 -84 61 -108 -79 39 -106 20 -73
0000a0 1a 3e 33 46 7f e9 a4 81 41 fe 09 81 7f 5f 1e b5
       26 62 51 70 127 -23 -92 -127 65 -2 9 -127 127 95 30 -75
0000b0 18 d3 51 81 60 72 d9 38 47 56 0d b8 4d 05 f0 95
       24 -45 81 -127 96 114 -39 56 71 86 13 -72 77 5 -16 -107
0000c0 a9 57 6b b4 fc bd 24 23 05 01 e9 19 45 6e 7f f7
       -87 87 107 -76 -4 -67 36 35 5 1 -23 25 69 110 127 -9
0000d0 d3 5e 8e 50 7f b0 66 9b e0 f2 f6 3d a7 37 dd b2
       -45 94 -114 80 127 -80 102 -101 -32 -14 -10 61 -89 55 -35 -78
0000e0 e0 58 c4 53 c8 e0 e6 ce df 46 04 98 ef f2 22 e0
       -32 88 -60 83 -56 -32 -26 -50 -33 70 4 -104 -17 -14 34 -32
0000f0 45 ea c3 da 76 4c 26 b0 f8 bc ca 26 c1 25 16 81
       69 -22 -61 -38 118 76 38 -80 -8 -68 -54 38 -63 37 22 -127

tfl.pseudo_qconst7 i1 [64, 1, 1, 64]
000000 ea 7d 3d 6a 40 87 22 67 7d 65 4a c7 17 ee 51 ae
       -22 125 61 106 64 -121 34 103 125 101 74 -57 23 -18 81 -82
000010 0d e7 57 e3 59 2e 15 32 77 20 9f af 5e 14 1d 90
       13 -25 87 -29 89 46 21 50 119 32 -97 -81 94 20 29 -112
000020 e9 e3 22 3f be a9 e6 49 e4 22 ad a4 81 1f fb 5a
       -23 -29 34 63 -66 -87 -26 73 -28 34 -83 -92 -127 31 -5 90
000030 7a 74 f5 7b 04 2a ad 75 a5 6c 98 dc 8c da 55 75
       122 116 -11 123 4 42 -83 117 -91 108 -104 -36 -116 -38 85 117
000040 9b ce 38 07 0b ac d0 69 9b 9d c9 cf aa 3f 9d e6
       -101 -50 56 7 11 -84 -48 105 -101 -99 -55 -49 -86 63 -99 -26
000050 41 ba 2d c4 9b 0d 81 28 d8 8f 4e 28 45 07 57 32
       65 -70 45 -60 -101 13 -127 40 -40 -113 78 40 69 7 87 50
000060 5e b5 a3 69 0d c9 aa 27 32 45 51 1b 1d df a9 fd
       94 -75 -93 105 13 -55 -86 39 50 69 81 27 29 -33 -87 -3
000070 00 31 bd cd 13 b7 06 ae 2d f0 a0 3b 42 20 d6 f4
       0 49 -67 -51 19 -73 6 -82 45 -16 -96 59 66 32 -42 -12
000080 cf af 6e 8a de 9c 13 81 67 3e f8 0f 1a 08 9d 1a
       -49 -81 110 -118 -34 -100 19 -127 103 62 -8 15 26 8 -99 26
000090 30 b2 47 c2 d8 06 66 5e 38 b5 c5 58 60 4a d6 ca
       48 -78 71 -62 -40 6 102 94 56 -75 -59 88 96 74 -42 -54
0000a0 52 6e 64 49 e3 65 11 2a 69 8a 4e d1 74 68 d1 07
       82 110 100 73 -29 101 17 42 105 -118 78 -47 116 104 -47 7
0000b0 4b 04 6f ef 0f 0a 6f c8 5f 90 2c 8d ac 02 1d 5f
       75 4 111 -17 15 10 111 -56 95 -112 44 -115 -84 2 29 95
0000c0 f0 17 a0 3c 7b 73 fd 52 a5 88 a3 f4 6a e3 d0 48
       -16 23 -96 60 123 115 -3 82 -91 -120 -93 -12 106 -29 -48 72
0000d0 ca 77 3a d6 ba a3 c4 7d ca 0a db 93 3e 94 96 d4
       -54 119 58 -42 -70 -93 -60 125 -54 10 -37 -109 62 -108 -106 -44
0000e0 02 4e 81 b3 22 5f 3a b2 35 30 05 31 d8 49 72 d1
       2 78 -127 -77 34 95 58 -78 53 48 5 49 -40 73 114 -47
0000f0 39 a0 db fe 01 24 d4 12 d5 e1 0e 27 99 2d 20 ab
       57 -96 -37 -2 1 36 -44 18 -43 -31 14 39 -103 45 32 -85

tfl.pseudo_qconst9 i1 [1, 15, 1, 32]
000000 ea 8b 10 81 81 f5 e2 ee 2f 05 24 5d d9 0f 94 81
       -22 -117 16 -127 -127 -11 -30 -18 47 5 36 93 -39 15 -108 -127
000010 c5 59 d6 f4 2f a2 1d 98 46 6b fd 68 bc dc d9 31
       -59 89 -42 -12 47 -94 29 -104 70 107 -3 104 -68 -36 -39 49
000020 f4 5f bd 28 37 6b 1e 57 ad 27 a4 1e f2 7d 0d 3d
       -12 95 -67 40 55 107 30 87 -83 39 -92 30 -14 125 13 61
000030 ab e7 da 65 a5 c3 f2 9e cb 36 3f 9d b6 1d 9c 97
       -85 -25 -38 101 -91 -61 -14 -98 -53 54 63 -99 -74 29 -100 -105
000040 c0 f3 7f c7 65 e8 2e ee 81 93 21 47 17 37 22 7e
       -64 -13 127 -57 101 -24 46 -18 -127 -109 33 71 23 55 34 126
000050 ca 29 85 20 40 ff 07 99 18 4e 9c 23 a8 f0 df 81
       -54 41 -123 32 64 -1 7 -103 24 78 -100 35 -88 -16 -33 -127
000060 3c 3e 27 53 1c e5 38 74 51 6c 17 e2 fa 46 e3 78
       60 62 39 83 28 -27 56 116 81 108 23 -30 -6 70 -29 120
000070 cd 0e ea f7 64 3d 71 26 7f 23 d7 36 8e f7 f8 b3
       -51 14 -22 -9 100 61 113 38 127 35 -41 54 -114 -9 -8 -77
000080 aa ce 1c 87 b4 37 27 03 5c 44 0f ab a5 f1 b5 98
       -86 -50 28 -121 -76 55 39 3 92 68 15 -85 -91 -15 -75 -104
000090 26 9b 64 ef 96 3c d0 81 bd 4a 9e 00 bb a3 d1 b3
       38 -101 100 -17 -106 60 -48 -127 -67 74 -98 0 -69 -93 -47 -77
0000a0 64 36 56 3f f0 34 d9 dc ed e1 7d 58 47 7f 06 3c
       100 54 86 63 -16 52 -39 -36 -19 -31 125 88 71 127 6 60
0000b0 77 4f c6 7f b6 a8 7f 17 45 85 2c 9d 04 56 c8 1a
       119 79 -58 127 -74 -88 127 23 69 -123 44 -99 4 86 -56 26
0000c0 55 05 f5 b5 06 c6 26 79 7c cd 7f 6b e7 50 ba 48
       85 5 -11 -75 6 -58 38 121 124 -51 127 107 -25 80 -70 72
0000d0 bf ce 4d 67 7c b8 5b 8f 12 d4 21 50 b1 fd 12 bd
       -65 -50 77 103 124 -72 91 -113 18 -44 33 80 -79 -3 18 -67
0000e0 1b c6 3e 0b ae 63 7e e6 9e 9a 4f 36 5e 40 7f 0d
       27 -58 62 11 -82 99 126 -26 -98 -102 79 54 94 64 127 13
0000f0 62 57 3a 05 b1 0f 32 45 44 99 74 bc 82 a7 0a 31
       98 87 58 5 -79 15 50 69 68 -103 116 -68 -126 -89 10 49

tfl.pseudo_qconst11 i1 [1, 9, 1, 32]
000000 01 53 9a 85 77 63 86 03 2d a3 c7 c7 1d 59 c7 a3
       1 83 -102 -123 119 99 -122 3 45 -93 -57 -57 29 89 -57 -93
000010 9a 62 7f 64 2a e8 26 d2 ea e2 af 00 5e 81 fa 79
       -102 98 127 100 42 -24 38 -46 -22 -30 -81 0 94 -127 -6 121
000020 7f 67 f7 5c 26 81 7f 52 e1 90 a7 12 08 54 81 a6
       127 103 -9 92 38 -127 127 82 -31 -112 -89 18 8 84 -127 -90
000030 d1 91 d7 3a 23 81 8c c1 61 99 9d 81 0a 88 9f 3f
       -47 -111 -41 58 35 -127 -116 -63 97 -103 -99 -127 10 -120 -97 63
000040 c7 d2 5b ee f3 56 4a 81 de a3 29 8c 12 16 22 df
       -57 -46 91 -18 -13 86 74 -127 -34 -93 41 -116 18 22 34 -33
000050 04 d4 0a 36 60 08 ba b3 65 99 ad 52 a0 1a 42 2f
       4 -44 10 54 96 8 -70 -77 101 -103 -83 82 -96 26 66 47
000060 fe 7f 51 5b fe c4 d5 1a 98 86 8c 81 50 81 d8 68
       -2 127 81 91 -2 -60 -43 26 -104 -122 -116 -127 80 -127 -40 104
000070 57 7f 39 f2 60 d1 b7 31 7f 9c 2d ab 4e b6 42 ab
       87 127 57 -14 96 -47 -73 49 127 -100 45 -85 78 -74 66 -85
000080 49 8e db c0 a7 96 47 84 2c 7f ab e6 81 ac c1 7f
       73 -114 -37 -64 -89 -106 71 -124 44 127 -85 -26 -127 -84 -63 127
000090 81 13 aa 16 81 1c 41 7f 60 bc a2 9d a1 ca 3e 3d
       -127 19 -86 22 -127 28 65 127 96 -68 -94 -99 -95 -54 62 61
0000a0 ab 2a 7f 25 7f af d8 05 2c 4d 01 dc de 1a 40 26
       -85 42 127 37 127 -81 -40 5 44 77 1 -36 -34 26 64 38
0000b0 fd e8 9d 61 6d 42 81 9e 31 cc fc 5f 0f 2b 2d 95
       -3 -24 -99 97 109 66 -127 -98 49 -52 -4 95 15 43 45 -107
0000c0 8d 0a 72 3b 7b 12 30 a7 51 ab 5e 02 7a 29 b6 06
       -115 10 114 59 123 18 48 -89 81 -85 94 2 122 41 -74 6
0000d0 0d 9b 7d 78 a3 58 03 08 eb 81 5c b6 81 a0 88 81
       13 -101 125 120 -93 88 3 8 -21 -127 92 -74 -127 -96 -120 -127
0000e0 16 5c 4d 8e a2 d3 81 b3 7f 09 ae 7e 3d 28 35 36
       22 92 77 -114 -94 -45 -127 -77 127 9 -82 126 61 40 53 54
0000f0 a4 42 9e 9c 5d e8 c1 b4 42 1f 7f 40 c7 a7 81 d0
       -92 66 -98 -100 93 -24 -63 -76 66 31 127 64 -57 -89 -127 -48

tfl.pseudo_qconst13 i1 [64, 1, 1, 64]
000000 ad ef 7b 01 28 89 00 8a 72 4f ad 66 6a 09 65 c1
       -83 -17 123 1 40 -119 0 -118 114 79 -83 102 106 9 101 -63
000010 2c 56 d9 58 7f 11 53 fa a2 2a b5 07 fc 4e c0 d7
       44 86 -39 88 127 17 83 -6 -94 42 -75 7 -4 78 -64 -41
000020 7b 7c 65 42 f1 be 43 d9 6f 11 a9 20 05 1b d8 17
       123 124 101 66 -15 -66 67 -39 111 17 -87 32 5 27 -40 23
000030 78 1d 21 64 04 dd 44 e2 e5 1d 26 9a c7 c9 5c b9
       120 29 33 100 4 -35 68 -30 -27 29 38 -102 -57 -55 92 -71
000040 37 2e 79 25 bb be 84 ce 44 a1 60 09 55 7f e5 99
       55 46 121 37 -69 -66 -124 -50 68 -95 96 9 85 127 -27 -103
000050 45 ef 46 b0 15 a7 3c a7 68 e0 98 c0 c4 6d a8 4f
       69 -17 70 -80 21 -89 60 -89 104 -32 -104 -64 -60 109 -88 79
000060 75 66 7e be 1c fb b0 18 4b ff 71 e8 f9 f0 7a 6f
       117 102 126 -66 28 -5 -80 24 75 -1 113 -24 -7 -16 122 111
000070 77 e0 f2 2e e5 11 23 17 6e 62 cb b7 0c 0b cd a0
       119 -32 -14 46 -27 17 35 23 110 98 -53 -73 12 11 -51 -96
000080 92 c2 74 61 e2 61 9c 31 ac 62 29 de f7 23 33 e1
       -110 -62 116 97 -30 97 -100 49 -84 98 41 -34 -9 35 51 -31
000090 b7 95 0a 9b 77 36 cf 8f f2 60 8c 29 fc 4e 72 9a
       -73 -107 10 -101 119 54 -49 -113 -14 96 -116 41 -4 78 114 -102
0000a0 f9 3c 69 2b 6b aa d2 2e f0 bf d5 78 25 7f 22 e8
       -7 60 105 43 107 -86 -46 46 -16 -65 -43 120 37 127 34 -24
0000b0 e1 bb 58 36 d2 3d a6 e7 5d ae d8 be e7 1b 5d bd
       -31 -69 88 54 -46 61 -90 -25 93 -82 -40 -66 -25 27 93 -67
0000c0 5b d6 a3 40 64 41 42 ad 8f 68 b9 c1 70 d2 61 09
       91 -42 -93 64 100 65 66 -83 -113 104 -71 -63 112 -46 97 9
0000d0 37 f4 5c b0 34 f0 cf 73 bd 9b 4a 51 33 48 72 f6
       55 -12 92 -80 52 -16 -49 115 -67 -101 74 81 51 72 114 -10
0000e0 18 4d e5 1d a1 95 27 84 e0 0c c6 e0 dd ce eb d9
       24 77 -27 29 -95 -107 39 -124 -32 12 -58 -32 -35 -50 -21 -39
0000f0 24 45 ba 0a 7f 9c 2b d4 fc 71 dc f3 f6 f5 14 30
       36 69 -70 10 127 -100 43 -44 -4 113 -36 -13 -10 -11 20 48

tfl.pseudo_qconst15 i1 [1, 11, 1, 32]
000000 13 1f cf cc b7 1d bb 14 64 08 5d bb 79 81 23 75
       19 31 -49 -52 -73 29 -69 20 100 8 93 -69 121 -127 35 117
000010 ed 2e 3e 5a 18 3b 2d 28 ce 1f 44 94 39 c9 56 09
       -19 46 62 90 24 59 45 40 -50 31 68 -108 57 -55 86 9
000020 46 56 d1 81 e9 4c 19 5c 39 8e f2 23 17 13 ec e6
       70 86 -47 -127 -23 76 25 92 57 -114 -14 35 23 19 -20 -26
000030 fd 9c 6d 4e 81 e5 90 e7 14 eb 9c a5 27 f6 0e 7f
       -3 -100 109 78 -127 -27 -112 -25 20 -21 -100 -91 39 -10 14 127
000040 ad 0b ea 1a 81 3a ee 76 ca 4a a8 0f 29 1c 7f 99
       -83 11 -22 26 -127 58 -18 118 -54 74 -88 15 41 28 127 -103
000050 47 7f 6b f5 83 da a6 85 2a 25 3d 81 bf d6 4d cd
       71 127 107 -11 -125 -38 -90 -123 42 37 61 -127 -65 -42 77 -51
000060 f9 1e 1a e9 36 4e 7d 73 7f e5 2f 7f 81 9b ee ea
       -7 30 26 -23 54 78 125 115 127 -27 47 127 -127 -101 -18 -22
000070 86 e9 58 4a ed a9 9e 31 94 7f d9 34 2f ea 0b d9
       -122 -23 88 74 -19 -87 -98 49 -108 127 -39 52 47 -22 11 -39
000080 6b 44 6f 47 00 96 cb 30 b5 9f ad c3 af 7e df 46
       107 68 111 71 0 -106 -53 48 -75 -97 -83 -61 -81 126 -33 70
000090 54 6d 7f 7f 45 fe 83 4b 7b c4 ab 67 97 ee 5f 07
       84 109 127 127 69 -2 -125 75 123 -60 -85 103 -105 -18 95 7
0000a0 a1 d6 d5 14 f4 38 60 ca 1a 81 0b 68 bf 25 48 af
       -95 -42 -43 20 -12 56 96 -54 26 -127 11 104 -65 37 72 -81
0000b0 30 a8 92 50 ab 7f 5c 4c be 64 a6 e2 14 5f 73 3c
       48 -88 -110 80 -85 127 92 76 -66 100 -90 -30 20 95 115 60
0000c0 81 7f a3 38 24 1f b9 2b f1 30 4e e1 e5 ee 94 b9
       -127 127 -93 56 36 31 -71 43 -15 48 78 -31 -27 -18 -108 -71
0000d0 81 08 0a 60 4f c7 81 b3 0a 22 1c 99 cd 04 81 1f
       -127 8 10 96 79 -57 -127 -77 10 34 28 -103 -51 4 -127 31
0000e0 a8 12 7d 42 84 7f 81 2a a4 0d 7e 32 03 dc d4 0d
       -88 18 125 66 -124 127 -127 42 -92 13 126 50 3 -36 -44 13
0000f0 5a ed 48 cc 59 90 2f ac 7f 76 97 8e 70 1c 2a b9
       90 -19 72 -52 89 -112 47 -84 127 118 -105 -114 112 28 42 -71

tfl.pseudo_qconst17 i1 [1, 7, 1, 32]
000000 01 03 6b 7f 7f 74 b8 b4 02 e7 81 45 59 bb a3 d3
       1 3 107 127 127 116 -72 -76 2 -25 -127 69 89 -69 -93 -45
000010 a7 81 03 ea 27 8c cf 4c 31 a6 73 e8 38 a7 92 f8
       -89 -127 3 -22 39 -116 -49 76 49 -90 115 -24 56 -89 -110 -8
000020 35 50 e0 9c ad 81 75 28 20 4a b3 44 c2 96 81 24
       53 80 -32 -100 -83 -127 117 40 32 74 -77 68 -62 -106 -127 36
000030 81 59 f2 74 d8 87 f5 7f 4d 75 0a 81 68 a5 2c 1e
       -127 89 -14 116 -40 -121 -11 127 77 117 10 -127 104 -91 44 30
000040 64 b8 4e d2 3c cc bd f6 b3 81 9e 7f ee e6 8f 81
       100 -72 78 -46 60 -52 -67 -10 -77 -127 -98 127 -18 -26 -113 -127
000050 c2 01 30 7a 88 19 e7 a1 1d 7f 86 ff 7f e3 60 c5
       -62 1 48 122 -120 25 -25 -95 29 127 -122 -1 127 -29 96 -59
000060 7f 46 81 99 0f 93 60 98 11 64 99 db 81 08 46 b9
       127 70 -127 -103 15 -109 96 -104 17 100 -103 -37 -127 8 70 -71
000070 da bc e6 0f 93 81 81 7d be 17 7f ba 27 01 e3 e8
       -38 -68 -26 15 -109 -127 -127 125 -66 23 127 -70 39 1 -29 -24
000080 5e 54 dd c9 7a 5d e9 3a 27 69 5f 9d fe 47 cb f7
       94 84 -35 -55 122 93 -23 58 39 105 95 -99 -2 71 -53 -9
000090 83 cc 27 93 f1 72 68 a2 81 12 ff 88 4e 08 39 16
       -125 -52 39 -109 -15 114 104 -94 -127 18 -1 -120 78 8 57 22
0000a0 e1 07 cd cb e8 b5 78 7f ba 31 62 f2 c5 a4 74 94
       -31 7 -51 -53 -24 -75 120 127 -70 49 98 -14 -59 -92 116 -108
0000b0 7e dd 81 7f 81 06 1d 76 f0 c8 58 00 1b 48 fe 09
       126 -35 -127 127 -127 6 29 118 -16 -56 88 0 27 72 -2 9
0000c0 54 7f a5 07 43 87 7f 6f 7f f1 b3 22 d7 7f e3 e0
       84 127 -91 7 67 -121 127 111 127 -15 -77 34 -41 127 -29 -32
0000d0 10 7f bb 09 f7 7e f2 04 e0 df e1 08 3c 7f 81 7f
       16 127 -69 9 -9 126 -14 4 -32 -33 -31 8 60 127 -127 127

tfl.pseudo_qconst19 i1 [64, 1, 1, 32]
000000 74 d3 bd 68 89 8b 63 b7 cc ad b5 c1 6c f7 ca 7f
       116 -45 -67 104 -119 -117 99 -73 -52 -83 -75 -63 108 -9 -54 127
000010 3d 00 82 c0 41 42 c3 29 1c 51 a6 e8 e0 fc e9 9b
       61 0 -126 -64 65 66 -61 41 28 81 -90 -24 -32 -4 -23 -101
000020 e1 e3 6f ef 5d 96 ac 68 a3 a1 c5 73 d9 09 2f b0
       -31 -29 111 -17 93 -106 -84 104 -93 -95 -59 115 -39 9 47 -80
000030 4c d5 8e 2f 3d a7 29 7f 65 1a 0d a5 d3 76 d0 17
       76 -43 -114 47 61 -89 41 127 101 26 13 -91 -45 118 -48 23
000040 07 f3 f4 f4 02 c2 09 f5 f0 fa 19 b7 7f f0 11 06
       7 -13 -12 -12 2 -62 9 -11 -16 -6 25 -73 127 -16 17 6
000050 d5 30 a5 98 ce f9 65 2a 54 cb c6 27 f3 20 73 cf
       -43 48 -91 -104 -50 -7 101 42 84 -53 -58 39 -13 32 115 -49
000060 08 55 d8 5a b5 56 81 3f 8e 75 39 cf 4d 4c ee 0d
       8 85 -40 90 -75 86 -127 63 -114 117 57 -49 77 76 -18 13
000070 b6 78 1b f0 3a e9 15 76 0a e8 41 b3 df 15 f8 63
       -74 120 27 -16 58 -23 21 118 10 -24 65 -77 -33 21 -8 99
000080 1d 23 b9 15 78 70 0f f9 3d 19 06 55 81 99 9c 17
       29 35 -71 21 120 112 15 -7 61 25 6 85 -127 -103 -100 23
000090 4a a4 cd 1f eb 18 96 22 63 9e 88 79 a5 e6 16 76
       74 -92 -51 31 -21 24 -106 34 99 -98 -120 121 -91 -26 22 118
0000a0 6f f6 f4 43 82 af 25 c4 b6 cf d6 b6 fe ec 7a 2c
       111 -10 -12 67 -126 -81 37 -60 -74 -49 -42 -74 -2 -20 122 44
0000b0 bf 39 b5 1d bb ca 7f 5b e3 1f f4 f7 3b ed 1c 11
       -65 57 -75 29 -69 -54 127 91 -29 31 -12 -9 59 -19 28 17
0000c0 b7 0f fe ad 66 3c 3c c7 72 00 ec f7 c5 59 a7 c2
       -73 15 -2 -83 102 60 60 -57 114 0 -20 -9 -59 89 -89 -62
0000d0 31 56 9d 81 6c 12 13 c6 e6 02 95 4d 15 00 39 c5
       49 86 -99 -127 108 18 19 -58 -26 2 -107 77 21 0 57 -59
0000e0 1b 46 b1 15 a0 8a 54 1e 78 4c 5d 8f 40 43 bf 69
       27 70 -79 21 -96 -118 84 30 120 76 93 -113 64 67 -65 105
0000f0 77 84 6c 06 20 f2 b2 af fb 2d e5 94 b0 81 97 14
       119 -124 108 6 32 -14 -78 -81 -5 45 -27 -108 -80 -127 -105 20

tfl.pseudo_qconst21 i1 [1, 5, 1, 32]
000000 7f b5 81 cc 71 19 cd 74 7f dc fc b5 7f 14 94 07
       127 -75 -127 -52 113 25 -51 116 127 -36 -4 -75 127 20 -108 7
000010 5d e8 81 7f 5b f7 87 bf 19 8d bc 82 89 47 99 89
       93 -24 -127 127 91 -9 -121 -65 25 -115 -68 -126 -119 71 -103 -119
000020 2e 45 fa d4 7f 8f 70 6e 53 ff 7f 07 2e 86 1a b3
       46 69 -6 -44 127 -113 112 110 83 -1 127 7 46 -122 26 -77
000030 fc 02 e6 86 07 1e a6 28 98 6c a8 a4 c2 6a 87 81
       -4 2 -26 -122 7 30 -90 40 -104 108 -88 -92 -62 106 -121 -127
000040 9c 9a 99 1f 08 23 ad 24 26 99 86 da b5 81 a3 81
       -100 -102 -103 31 8 35 -83 36 38 -103 -122 -38 -75 -127 -93 -127
000050 bc 53 fd 06 23 9a 66 1c 44 16 81 cb 23 7f 40 be
       -68 83 -3 6 35 -102 102 28 68 22 -127 -53 35 127 64 -66
000060 29 a3 49 09 e3 7f 62 81 68 81 27 7f 6b c2 5f 78
       41 -93 73 9 -29 127 98 -127 104 -127 39 127 107 -62 95 120
000070 ee 7f 6b 8b 3c fc 36 7f a7 bb 06 7f 81 be 31 b0
       -18 127 107 -117 60 -4 54 127 -89 -69 6 127 -127 -66 49 -80
000080 38 7f 55 7f 90 0e 7f de 6b 06 a4 48 29 e4 7f dd
       56 127 85 127 -112 14 127 -34 107 6 -92 72 41 -28 127 -35
000090 81 e7 79 b2 81 81 7f f3 7f 81 1a c0 19 61 7f 43
       -127 -25 121 -78 -127 -127 127 -13 127 -127 26 -64 25 97 127 67

tfl.pseudo_qconst23 i1 [32, 5, 1, 40]
000000 ef 1c 06 a6 7c 1e fc a6 05 65 31 9f ac 64 cf 27
       -17 28 6 -90 124 30 -4 -90 5 101 49 -97 -84 100 -49 39
000010 bc a9 ae 81 31 98 2d 1d 12 08 65 8d 28 50 cf 2a
       -68 -87 -82 -127 49 -104 45 29 18 8 101 -115 40 80 -49 42
000020 dc a8 05 92 f1 32 27 68 4d 0e 4e 56 c3 07 43 52
       -36 -88 5 -110 -15 50 39 104 77 14 78 86 -61 7 67 82
000030 db 03 a6 3e 63 c4 6a 69 01 dd 4f 59 56 30 35 10
       -37 3 -90 62 99 -60 106 105 1 -35 79 89 86 48 53 16
000040 d9 be 0a 56 a7 60 f0 ff 2d bb 04 4c a0 b9 48 59
       -39 -66 10 86 -89 96 -16 -1 45 -69 4 76 -96 -71 72 89
000050 4e 2b 6c 22 09 6f e6 66 f8 fc 51 d8 28 31 07 c7
       78 43 108 34 9 111 -26 102 -8 -4 81 -40 40 49 7 -57
000060 c5 dc 05 da 1f 9d 66 3b 0a 15 d7 13 36 de d4 fe
       -59 -36 5 -38 31 -99 102 59 10 21 -41 19 54 -34 -44 -2
000070 3d 1c d0 10 f1 99 51 c3 ed 32 7b 3d 74 f6 f6 ab
       61 28 -48 16 -15 -103 81 -61 -19 50 123 61 116 -10 -10 -85
000080 51 39 e6 d9 4c 5c b7 4e c9 d0 b6 23 52 b1 66 51
       81 57 -26 -39 76 92 -73 78 -55 -48 -74 35 82 -79 102 81
000090 0c 99 14 d9 2b 43 e8 8d 26 bf be 71 e9 23 39 94
       12 -103 20 -39 43 67 -24 -115 38 -65 -66 113 -23 35 57 -108
0000a0 07 fb a1 b7 e9 66 7b aa 4a 30 f2 3f 51 a7 0c a7
       7 -5 -95 -73 -23 102 123 -86 74 48 -14 63 81 -89 12 -89
0000b0 be dd 13 1b da de 16 69 ec 16 44 f0 4e e4 08 a2
       -66 -35 19 27 -38 -34 22 105 -20 22 68 -16 78 -28 8 -94
0000c0 e3 cc d3 51 c6 53 a3 cb 71 1d 50 d7 36 3a 19 93
       -29 -52 -45 81 -58 83 -93 -53 113 29 80 -41 54 58 25 -109
0000d0 cb 91 c2 86 2b b6 db ac 74 3d 4f a5 3b b1 37 d3
       -53 -111 -62 -122 43 -74 -37 -84 116 61 79 -91 59 -79 55 -45
0000e0 9b c7 12 b7 63 ce 02 ef 61 02 3b e9 10 d0 ff cc
       -101 -57 18 -73 99 -50 2 -17 97 2 59 -23 16 -48 -1 -52
0000f0 73 a4 af 9e 43 11 1f 96 96 67 9e a2 73 b7 a4 d6
       115 -92 -81 -98 67 17 31 -106 -106 103 -98 -94 115 -73 -92 -42

tfl.pseudo_qconst24 i1 [1, 22, 1, 64] scale=0.023394924 zero_point=-128
000000 80 80 80 80 80 80 80 80 80 80 80 80 80 80 80 80
       0.0 0.0 0.0 0.0 0.0 0.0 0.0 0.0 0.0 0.0 0.0 0.0 0.0 0.0 0.0 0.0
000010 80 80 80 80 80 80 80 80 80 80 80 80 80 80 80 80
       0.0 0.0 0.0 0.0 0.0 0.0 0.0 0.0 0.0 0.0 0.0 0.0 0.0 0.0 0.0 0.0
000020 80 80 80 80 80 80 80 80 80 80 80 80 80 80 80 80
       0.0 0.0 0.0 0.0 0.0 0.0 0.0 0.0 0.0 0.0 0.0 0.0 0.0 0.0 0.0 0.0
000030 80 80 80 80 80 80 80 80 80 80 80 80 80 80 80 80
       0.0 0.0 0.0 0.0 0.0 0.0 0.0 0.0 0.0 0.0 0.0 0.0 0.0 0.0 0.0 0.0
000040 80 80 80 80 80 80 80 80 80 80 80 80 80 80 80 80
       0.0 0.0 0.0 0.0 0.0 0.0 0.0 0.0 0.0 0.0 0.0 0.0 0.0 0.0 0.0 0.0
000050 80 80 80 80 80 80 80 80 80 80 80 80 80 80 80 80
       0.0 0.0 0.0 0.0 0.0 0.0 0.0 0.0 0.0 0.0 0.0 0.0 0.0 0.0 0.0 0.0
000060 80 80 80 80 80 80 80 80 80 80 80 80 80 80 80 80
       0.0 0.0 0.0 0.0 0.0 0.0 0.0 0.0 0.0 0.0 0.0 0.0 0.0 0.0 0.0 0.0
000070 80 80 80 80 80 80 80 80 80 80 80 80 80 80 80 80
       0.0 0.0 0.0 0.0 0.0 0.0 0.0 0.0 0.0 0.0 0.0 0.0 0.0 0.0 0.0 0.0
000080 80 80 80 80 80 80 80 80 80 80 80 80 80 80 80 80
       0.0 0.0 0.0 0.0 0.0 0.0 0.0 0.0 0.0 0.0 0.0 0.0 0.0 0.0 0.0 0.0
000090 80 80 80 80 80 80 80 80 80 80 80 80 80 80 80 80
       0.0 0.0 0.0 0.0 0.0 0.0 0.0 0.0 0.0 0.0 0.0 0.0 0.0 0.0 0.0 0.0
0000a0 80 80 80 80 80 80 80 80 80 80 80 80 80 80 80 80
       0.0 0.0 0.0 0.0 0.0 0.0 0.0 0.0 0.0 0.0 0.0 0.0 0.0 0.0 0.0 0.0
0000b0 80 80 80 80 80 80 80 80 80 80 80 80 80 80 80 80
       0.0 0.0 0.0 0.0 0.0 0.0 0.0 0.0 0.0 0.0 0.0 0.0 0.0 0.0 0.0 0.0
0000c0 80 80 80 80 80 80 80 80 80 80 80 80 80 80 80 80
       0.0 0.0 0.0 0.0 0.0 0.0 0.0 0.0 0.0 0.0 0.0 0.0 0.0 0.0 0.0 0.0
0000d0 80 80 80 80 80 80 80 80 80 80 80 80 80 80 80 80
       0.0 0.0 0.0 0.0 0.0 0.0 0.0 0.0 0.0 0.0 0.0 0.0 0.0 0.0 0.0 0.0
0000e0 80 80 80 80 80 80 80 80 80 80 80 80 80 80 80 80
       0.0 0.0 0.0 0.0 0.0 0.0 0.0 0.0 0.0 0.0 0.0 0.0 0.0 0.0 0.0 0.0
0000f0 80 80 80 80 80 80 80 80 80 80 80 80 80 80 80 80
       0.0 0.0 0.0 0.0 0.0 0.0 0.0 0.0 0.0 0.0 0.0 0.0 0.0 0.0 0.0 0.0

tfl.pseudo_qconst25 i1 [1, 16, 1, 64] scale=0.020207955 zero_point=-128
000000 80 80 80 80 80 80 80 80 80 80 80 80 80 80 80 80
       0.0 0.0 0.0 0.0 0.0 0.0 0.0 0.0 0.0 0.0 0.0 0.0 0.0 0.0 0.0 0.0
000010 80 80 80 80 80 80 80 80 80 80 80 80 80 80 80 80
       0.0 0.0 0.0 0.0 0.0 0.0 0.0 0.0 0.0 0.0 0.0 0.0 0.0 0.0 0.0 0.0
000020 80 80 80 80 80 80 80 80 80 80 80 80 80 80 80 80
       0.0 0.0 0.0 0.0 0.0 0.0 0.0 0.0 0.0 0.0 0.0 0.0 0.0 0.0 0.0 0.0
000030 80 80 80 80 80 80 80 80 80 80 80 80 80 80 80 80
       0.0 0.0 0.0 0.0 0.0 0.0 0.0 0.0 0.0 0.0 0.0 0.0 0.0 0.0 0.0 0.0
000040 80 80 80 80 80 80 80 80 80 80 80 80 80 80 80 80
       0.0 0.0 0.0 0.0 0.0 0.0 0.0 0.0 0.0 0.0 0.0 0.0 0.0 0.0 0.0 0.0
000050 80 80 80 80 80 80 80 80 80 80 80 80 80 80 80 80
       0.0 0.0 0.0 0.0 0.0 0.0 0.0 0.0 0.0 0.0 0.0 0.0 0.0 0.0 0.0 0.0
000060 80 80 80 80 80 80 80 80 80 80 80 80 80 80 80 80
       0.0 0.0 0.0 0.0 0.0 0.0 0.0 0.0 0.0 0.0 0.0 0.0 0.0 0.0 0.0 0.0
000070 80 80 80 80 80 80 80 80 80 80 80 80 80 80 80 80
       0.0 0.0 0.0 0.0 0.0 0.0 0.0 0.0 0.0 0.0 0.0 0.0 0.0 0.0 0.0 0.0
000080 80 80 80 80 80 80 80 80 80 80 80 80 80 80 80 80
       0.0 0.0 0.0 0.0 0.0 0.0 0.0 0.0 0.0 0.0 0.0 0.0 0.0 0.0 0.0 0.0
000090 80 80 80 80 80 80 80 80 80 80 80 80 80 80 80 80
       0.0 0.0 0.0 0.0 0.0 0.0 0.0 0.0 0.0 0.0 0.0 0.0 0.0 0.0 0.0 0.0
0000a0 80 80 80 80 80 80 80 80 80 80 80 80 80 80 80 80
       0.0 0.0 0.0 0.0 0.0 0.0 0.0 0.0 0.0 0.0 0.0 0.0 0.0 0.0 0.0 0.0
0000b0 80 80 80 80 80 80 80 80 80 80 80 80 80 80 80 80
       0.0 0.0 0.0 0.0 0.0 0.0 0.0 0.0 0.0 0.0 0.0 0.0 0.0 0.0 0.0 0.0
0000c0 80 80 80 80 80 80 80 80 80 80 80 80 80 80 80 80
       0.0 0.0 0.0 0.0 0.0 0.0 0.0 0.0 0.0 0.0 0.0 0.0 0.0 0.0 0.0 0.0
0000d0 80 80 80 80 80 80 80 80 80 80 80 80 80 80 80 80
       0.0 0.0 0.0 0.0 0.0 0.0 0.0 0.0 0.0 0.0 0.0 0.0 0.0 0.0 0.0 0.0
0000e0 80 80 80 80 80 80 80 80 80 80 80 80 80 80 80 80
       0.0 0.0 0.0 0.0 0.0 0.0 0.0 0.0 0.0 0.0 0.0 0.0 0.0 0.0 0.0 0.0
0000f0 80 80 80 80 80 80 80 80 80 80 80 80 80 80 80 80
       0.0 0.0 0.0 0.0 0.0 0.0 0.0 0.0 0.0 0.0 0.0 0.0 0.0 0.0 0.0 0.0

tfl.pseudo_qconst26 i1 [1, 2, 1, 40] scale=0.101960786 zero_point=-128
000000 80 80 80 80 80 80 80 80 80 80 80 80 80 80 80 80
       0.0 0.0 0.0 0.0 0.0 0.0 0.0 0.0 0.0 0.0 0.0 0.0 0.0 0.0 0.0 0.0
000010 80 80 80 80 80 80 80 80 80 80 80 80 80 80 80 80
       0.0 0.0 0.0 0.0 0.0 0.0 0.0 0.0 0.0 0.0 0.0 0.0 0.0 0.0 0.0 0.0
000020 80 80 80 80 80 80 80 80 80 80 80 80 80 80 80 80
       0.0 0.0 0.0 0.0 0.0 0.0 0.0 0.0 0.0 0.0 0.0 0.0 0.0 0.0 0.0 0.0
000030 80 80 80 80 80 80 80 80 80 80 80 80 80 80 80 80
       0.0 0.0 0.0 0.0 0.0 0.0 0.0 0.0 0.0 0.0 0.0 0.0 0.0 0.0 0.0 0.0
000040 80 80 80 80 80 80 80 80 80 80 80 80 80 80 80 80
       0.0 0.0 0.0 0.0 0.0 0.0 0.0 0.0 0.0 0.0 0.0 0.0 0.0 0.0 0.0 0.0

tfl.pseudo_qconst27 i1 [1, 4, 1, 32] scale=0.29915684 zero_point=-128
000000 80 80 80 80 80 80 80 80 80 80 80 80 80 80 80 80
       0.0 0.0 0.0 0.0 0.0 0.0 0.0 0.0 0.0 0.0 0.0 0.0 0.0 0.0 0.0 0.0
000010 80 80 80 80 80 80 80 80 80 80 80 80 80 80 80 80
       0.0 0.0 0.0 0.0 0.0 0.0 0.0 0.0 0.0 0.0 0.0 0.0 0.0 0.0 0.0 0.0
000020 80 80 80 80 80 80 80 80 80 80 80 80 80 80 80 80
       0.0 0.0 0.0 0.0 0.0 0.0 0.0 0.0 0.0 0.0 0.0 0.0 0.0 0.0 0.0 0.0
000030 80 80 80 80 80 80 80 80 80 80 80 80 80 80 80 80
       0.0 0.0 0.0 0.0 0.0 0.0 0.0 0.0 0.0 0.0 0.0 0.0 0.0 0.0 0.0 0.0
000040 80 80 80 80 80 80 80 80 80 80 80 80 80 80 80 80
       0.0 0.0 0.0 0.0 0.0 0.0 0.0 0.0 0.0 0.0 0.0 0.0 0.0 0.0 0.0 0.0
000050 80 80 80 80 80 80 80 80 80 80 80 80 80 80 80 80
       0.0 0.0 0.0 0.0 0.0 0.0 0.0 0.0 0.0 0.0 0.0 0.0 0.0 0.0 0.0 0.0
000060 80 80 80 80 80 80 80 80 80 80 80 80 80 80 80 80
       0.0 0.0 0.0 0.0 0.0 0.0 0.0 0.0 0.0 0.0 0.0 0.0 0.0 0.0 0.0 0.0
000070 80 80 80 80 80 80 80 80 80 80 80 80 80 80 80 80
       0.0 0.0 0.0 0.0 0.0 0.0 0.0 0.0 0.0 0.0 0.0 0.0 0.0 0.0 0.0 0.0

tfl.pseudo_qconst28 i1 [1, 10, 1, 64] scale=0.02697114 zero_point=-128
000000 80 80 80 80 80 80 80 80 80 80 80 80 80 80 80 80
       0.0 0.0 0.0 0.0 0.0 0.0 0.0 0.0 0.0 0.0 0.0 0.0 0.0 0.0 0.0 0.0
000010 80 80 80 80 80 80 80 80 80 80 80 80 80 80 80 80
       0.0 0.0 0.0 0.0 0.0 0.0 0.0 0.0 0.0 0.0 0.0 0.0 0.0 0.0 0.0 0.0
000020 80 80 80 80 80 80 80 80 80 80 80 80 80 80 80 80
       0.0 0.0 0.0 0.0 0.0 0.0 0.0 0.0 0.0 0.0 0.0 0.0 0.0 0.0 0.0 0.0
000030 80 80 80 80 80 80 80 80 80 80 80 80 80 80 80 80
       0.0 0.0 0.0 0.0 0.0 0.0 0.0 0.0 0.0 0.0 0.0 0.0 0.0 0.0 0.0 0.0
000040 80 80 80 80 80 80 80 80 80 80 80 80 80 80 80 80
       0.0 0.0 0.0 0.0 0.0 0.0 0.0 0.0 0.0 0.0 0.0 0.0 0.0 0.0 0.0 0.0
000050 80 80 80 80 80 80 80 80 80 80 80 80 80 80 80 80
       0.0 0.0 0.0 0.0 0.0 0.0 0.0 0.0 0.0 0.0 0.0 0.0 0.0 0.0 0.0 0.0
000060 80 80 80 80 80 80 80 80 80 80 80 80 80 80 80 80
       0.0 0.0 0.0 0.0 0.0 0.0 0.0 0.0 0.0 0.0 0.0 0.0 0.0 0.0 0.0 0.0
000070 80 80 80 80 80 80 80 80 80 80 80 80 80 80 80 80
       0.0 0.0 0.0 0.0 0.0 0.0 0.0 0.0 0.0 0.0 0.0 0.0 0.0 0.0 0.0 0.0
000080 80 80 80 80 80 80 80 80 80 80 80 80 80 80 80 80
       0.0 0.0 0.0 0.0 0.0 0.0 0.0 0.0 0.0 0.0 0.0 0.0 0.0 0.0 0.0 0.0
000090 80 80 80 80 80 80 80 80 80 80 80 80 80 80 80 80
       0.0 0.0 0.0 0.0 0.0 0.0 0.0 0.0 0.0 0.0 0.0 0.0 0.0 0.0 0.0 0.0
0000a0 80 80 80 80 80 80 80 80 80 80 80 80 80 80 80 80
       0.0 0.0 0.0 0.0 0.0 0.0 0.0 0.0 0.0 0.0 0.0 0.0 0.0 0.0 0.0 0.0
0000b0 80 80 80 80 80 80 80 80 80 80 80 80 80 80 80 80
       0.0 0.0 0.0 0.0 0.0 0.0 0.0 0.0 0.0 0.0 0.0 0.0 0.0 0.0 0.0 0.0
0000c0 80 80 80 80 80 80 80 80 80 80 80 80 80 80 80 80
       0.0 0.0 0.0 0.0 0.0 0.0 0.0 0.0 0.0 0.0 0.0 0.0 0.0 0.0 0.0 0.0
0000d0 80 80 80 80 80 80 80 80 80 80 80 80 80 80 80 80
       0.0 0.0 0.0 0.0 0.0 0.0 0.0 0.0 0.0 0.0 0.0 0.0 0.0 0.0 0.0 0.0
0000e0 80 80 80 80 80 80 80 80 80 80 80 80 80 80 80 80
       0.0 0.0 0.0 0.0 0.0 0.0 0.0 0.0 0.0 0.0 0.0 0.0 0.0 0.0 0.0 0.0
0000f0 80 80 80 80 80 80 80 80 80 80 80 80 80 80 80 80
       0.0 0.0 0.0 0.0 0.0 0.0 0.0 0.0 0.0 0.0 0.0 0.0 0.0 0.0 0.0 0.0

tfl.pseudo_qconst29 i1 [1, 14, 1, 64] scale=0.024773158 zero_point=-128
000000 80 80 80 80 80 80 80 80 80 80 80 80 80 80 80 80
       0.0 0.0 0.0 0.0 0.0 0.0 0.0 0.0 0.0 0.0 0.0 0.0 0.0 0.0 0.0 0.0
000010 80 80 80 80 80 80 80 80 80 80 80 80 80 80 80 80
       0.0 0.0 0.0 0.0 0.0 0.0 0.0 0.0 0.0 0.0 0.0 0.0 0.0 0.0 0.0 0.0
000020 80 80 80 80 80 80 80 80 80 80 80 80 80 80 80 80
       0.0 0.0 0.0 0.0 0.0 0.0 0.0 0.0 0.0 0.0 0.0 0.0 0.0 0.0 0.0 0.0
000030 80 80 80 80 80 80 80 80 80 80 80 80 80 80 80 80
       0.0 0.0 0.0 0.0 0.0 0.0 0.0 0.0 0.0 0.0 0.0 0.0 0.0 0.0 0.0 0.0
000040 80 80 80 80 80 80 80 80 80 80 80 80 80 80 80 80
       0.0 0.0 0.0 0.0 0.0 0.0 0.0 0.0 0.0 0.0 0.0 0.0 0.0 0.0 0.0 0.0
000050 80 80 80 80 80 80 80 80 80 80 80 80 80 80 80 80
       0.0 0.0 0.0 0.0 0.0 0.0 0.0 0.0 0.0 0.0 0.0 0.0 0.0 0.0 0.0 0.0
000060 80 80 80 80 80 80 80 80 80 80 80 80 80 80 80 80
       0.0 0.0 0.0 0.0 0.0 0.0 0.0 0.0 0.0 0.0 0.0 0.0 0.0 0.0 0.0 0.0
000070 80 80 80 80 80 80 80 80 80 80 80 80 80 80 80 80
       0.0 0.0 0.0 0.0 0.0 0.0 0.0 0.0 0.0 0.0 0.0 0.0 0.0 0.0 0.0 0.0
000080 80 80 80 80 80 80 80 80 80 80 80 80 80 80 80 80
       0.0 0.0 0.0 0.0 0.0 0.0 0.0 0.0 0.0 0.0 0.0 0.0 0.0 0.0 0.0 0.0
000090 80 80 80 80 80 80 80 80 80 80 80 80 80 80 80 80
       0.0 0.0 0.0 0.0 0.0 0.0 0.0 0.0 0.0 0.0 0.0 0.0 0.0 0.0 0.0 0.0
0000a0 80 80 80 80 80 80 80 80 80 80 80 80 80 80 80 80
       0.0 0.0 0.0 0.0 0.0 0.0 0.0 0.0 0.0 0.0 0.0 0.0 0.0 0.0 0.0 0.0
0000b0 80 80 80 80 80 80 80 80 80 80 80 80 80 80 80 80
       0.0 0.0 0.0 0.0 0.0 0.0 0.0 0.0 0.0 0.0 0.0 0.0 0.0 0.0 0.0 0.0
0000c0 80 80 80 80 80 80 80 80 80 80 80 80 80 80 80 80
       0.0 0.0 0.0 0.0 0.0 0.0 0.0 0.0 0.0 0.0 0.0 0.0 0.0 0.0 0.0 0.0
0000d0 80 80 80 80 80 80 80 80 80 80 80 80 80 80 80 80
       0.0 0.0 0.0 0.0 0.0 0.0 0.0 0.0 0.0 0.0 0.0 0.0 0.0 0.0 0.0 0.0
0000e0 80 80 80 80 80 80 80 80 80 80 80 80 80 80 80 80
       0.0 0.0 0.0 0.0 0.0 0.0 0.0 0.0 0.0 0.0 0.0 0.0 0.0 0.0 0.0 0.0
0000f0 80 80 80 80 80 80 80 80 80 80 80 80 80 80 80 80
       0.0 0.0 0.0 0.0 0.0 0.0 0.0 0.0 0.0 0.0 0.0 0.0 0.0 0.0 0.0 0.0
