mww/heyg_oodah.tflite (tflite, 60808 bytes, 18 tensors)

tfl.pseudo_qconst1 i1 [1, 1088] scale=0.001238534 zero_point=0
0.054495495 -0.047064293 -0.014862408 0.0 0.009908272 -0.03715602 0.029724816 -0.022293612
0.09660565 -0.04087162 0.085458845 -0.027247747 0.039633088 0.08422031 -0.017339475 0.11766073
-0.014862408 0.13623874 0.017339475 0.13004607 -0.016100941 0.04954136 0.091651514 0.004954136
-0.053256962 -0.053256962 0.052018426 0.016100941 0.11022952 -0.007431204 -0.035917487 0.10527539
0.03467895 0.035917487 0.07307351 -0.01857801 0.03096335 0.12509194 0.02477068 0.052018426
0.13623874 0.13128461 0.014862408 -0.042110156 0.08298178 0.11394513 -0.00619267 0.053256962
-0.023532147 -0.01238534 0.00619267 -0.04954136 -0.026009213 0.045825757 0.08917445 0.05944963
0.017339475 0.038394555 0.022293612 -0.007431204 0.014862408 -0.03096335 0.11394513 0.10403685
0.100321256 0.021055078 0.008669738 0.029724816 -0.02477068 -0.04087162 0.13128461 0.06316523
0.120137796 -0.014862408 0.007431204 0.08298178 0.09784418 0.011146806 0.050779894 0.07555057
0.028486282 0.1387158 -0.027247747 0.13004607 -0.042110156 -0.044587225 -0.01857801 0.08174324
0.07678911 -0.007431204 0.02477068 -0.028486282 0.12509194 -0.021055078 0.070596434 0.054495495
0.04087162 0.071834974 0.016100941 0.09412859 -0.021055078 0.10155979 0.15729381 0.01238534
0.017339475 0.1238534 0.01238534 0.027247747 0.11022952 0.021055078 0.085458845 0.02477068
-0.009908272 -0.023532147 0.11766073 -0.01238534 0.053256962 0.09536712 -0.011146806 0.045825757
-0.013623874 -0.048302826 0.00619267 0.07802764 -0.042110156 0.013623874 0.08917445 0.09784418
0.056972563 -0.045825757 -0.008669738 0.045825757 0.050779894 0.0 0.1164222 0.026009213
0.028486282 -0.04954136 0.05573403 0.001238534 0.02477068 0.007431204 0.038394555 0.071834974
0.06688084 0.14243141 -0.009908272 0.06316523 0.029724816 -0.016100941 0.00619267 0.064403765
-0.04954136 -0.011146806 0.079266176 0.04954136 0.127569 0.003715602 -0.014862408 0.05944963
0.003715602 0.0693579 0.01857801 -0.027247747 0.029724816 0.027247747 0.09784418 -0.028486282
0.127569 0.10403685 0.08422031 -0.056972563 0.007431204 0.026009213 -0.007431204 0.10279832
0.064403765 -0.04087162 0.079266176 -0.042110156 -0.03715602 0.044587225 -0.054495495 0.02477068
-0.02477068 -0.016100941 0.045825757 -0.009908272 -0.03467895 -0.019816544 0.0619267 0.091651514
-0.03096335 0.014862408 -0.016100941 0.054495495 -0.008669738 0.09412859 0.07307351 -0.021055078
0.039633088 -0.013623874 -0.039633088 0.07431204 0.022293612 -0.03715602 -0.044587225 0.016100941
0.007431204 0.019816544 0.06316523 0.056972563 0.045825757 0.07307351 -0.009908272 -0.027247747
0.053256962 -0.053256962 0.009908272 0.08050471 0.02477068 0.120137796 -0.052018426 0.053256962
-0.03096335 0.10155979 0.08917445 0.09784418 -0.04954136 -0.032201882 0.044587225 -0.023532147
0.05944963 0.08050471 0.013623874 -0.042110156 0.09536712 0.042110156 -0.014862408 0.064403765
-0.003715602 0.007431204 0.07678911 0.016100941 -0.002477068 0.07307351 -0.028486282 0.028486282
0.021055078 0.021055078 0.10403685 0.016100941 0.06811937 -0.001238534 0.11766073 0.09784418
00000000: 2cda f400 08e2 18ee 4edf 45ea 2044 f25f
00000010: f46e 0e69 f328 4a04 d5d5 2a0d 59fa e355
00000020: 1c1d 3bf1 1965 142a 6e6a 0cde 435c fb2b
00000030: edf6 05d8 eb25 4830 0e1f 12fa 0ce7 5c54
00000040: 5111 0718 ecdf 6a33 61f4 0643 4f09 293d
00000050: 1770 ea69 dedc f142 3efa 14e9 65ef 392c
00000060: 213a 0d4c ef52 7f0a 0e64 0a16 5911 4514
00000070: f8ed 5ff6 2b4d f725 f5d9 053f de0b 484f
00000080: 2edb f925 2900 5e15 17d8 2d01 1406 1f3a
00000090: 3673 f833 18f3 0534 d8f7 4028 6703 f430
000000a0: 0338 0fea 1816 4fe9 6754 44d2 0615 fa53
000000b0: 34df 40de e224 d414 ecf3 25f8 e4f0 324a
000000c0: e70c f32c f94c 3bef 20f5 e03c 12e2 dc0d
000000d0: 0610 332e 253b f8ea 2bd5 0841 1461 d62b
000000e0: e752 484f d8e6 24ed 3041 0bde 4d22 f434
000000f0: fd06 3e0d fe3b e917 1111 540d 37ff 5f4f

tfl.pseudo_qconst3 i1 [64, 1, 1, 64]
-11 -41 13 -37 -62 -4 -90 64
-81 -53 -98 35 -16 93 19 -35
-6 84 -53 -60 -10 -92 -29 -127
105 -69 -59 -36 -109 -12 48 -47
-102 14 112 -50 25 -12 22 -21
6 66 24 4 73 -62 -77 49
-68 -44 22 -28 -101 -67 54 -82
4 11 -70 48 22 87 48 31
-97 -5 -69 -71 34 55 115 41
59 -25 2 -9 41 19 -105 15
102 31 -97 -10 76 -97 -23 -109
71 -20 85 -69 -28 -41 80 -68
30 18 -77 -21 48 79 -59 -62
-102 -58 127 -13 -12 14 -78 41
118 -5 -63 84 -36 16 15 -97
102 -36 -119 -90 -23 -101 94 14
-109 -15 65 -127 -7 -77 -109 86
-72 -119 23 98 -4 114 87 -87
-32 -14 -45 -106 70 21 -66 -85
-25 -93 60 -96 82 -59 94 -93
99 -32 -39 -94 105 -32 -36 -21
-54 51 -22 10 -18 118 72 -78
75 126 110 62 -54 -74 -11 -61
88 -68 75 98 -69 -114 -23 -38
4 -16 112 -26 -79 -86 33 86
68 9 -27 43 -92 -22 -92 33
0 -104 96 33 19 -31 5 -108
-111 32 -11 -111 -83 -52 -33 -35
-56 -47 18 109 50 12 -89 21
127 63 57 -12 -8 94 60 58
89 -66 -79 39 -70 40 80 -89
-43 -65 70 79 20 -22 65 102
00000000: f5d7 0ddb c2fc a640 afcb 9e23 f05d 13dd
00000010: fa54 cbc4 f6a4 e381 69bb c5dc 93f4 30d1
00000020: 9a0e 70ce 19f4 16eb 0642 1804 49c2 b331
00000030: bcd4 16e4 9bbd 36ae 040b ba30 1657 301f
00000040: 9ffb bbb9 2237 7329 3be7 02f7 2913 970f
00000050: 661f 9ff6 4c9f e993 47ec 55bb e4d7 50bc
00000060: 1e12 b3eb 304f c5c2 9ac6 7ff3 f40e b229
00000070: 76fb c154 dc10 0f9f 66dc 89a6 e99b 5e0e
00000080: 93f1 4181 f9b3 9356 b889 1762 fc72 57a9
00000090: e0f2 d396 4615 beab e7a3 3ca0 52c5 5ea3
000000a0: 63e0 d9a2 69e0 dceb ca33 ea0a ee76 48b2
000000b0: 4b7e 6e3e cab6 f5c3 58bc 4b62 bb8e e9da
000000c0: 04f0 70e6 b1aa 2156 4409 e52b a4ea a421
000000d0: 0098 6021 13e1 0594 9120 f591 adcc dfdd
000000e0: c8d1 126d 320c a715 7f3f 39f4 f85e 3c3a
000000f0: 59be b127 ba28 50a7 d5bf 464f 14ea 4166

tfl.pseudo_qconst5 i1 [1, 23, 1, 64]
-32 61 -49 28 127 34 85 -127
38 56 51 26 -31 -23 44 -48
75 -75 35 15 91 97 -33 26
127 127 60 -9 1 -78 -74 -16
-102 60 -67 67 123 -24 -14 81
19 22 125 -6 92 -118 -76 -53
63 59 118 -110 41 -96 46 79
-44 92 44 -90 -10 18 -51 -127
-42 67 -48 -41 6 27 68 -85
14 45 32 42 -41 -50 -70 41
9 54 -2 41 57 -116 -60 -121
-27 66 -25 59 -6 -81 -38 55
35 10 -94 -82 25 50 -22 -116
21 68 122 -62 89 -112 62 53
127 19 48 -82 97 127 -122 27
-48 127 -126 -30 -21 50 51 17
-6 -42 83 33 104 -94 53 -4
-35 -36 -93 -10 -27 21 0 -82
56 -47 -22 82 -74 113 127 -12
-85 62 -107 -77 37 -107 20 -73
25 61 52 70 127 -22 -89 -127
65 -1 9 -127 127 95 29 -74
25 -44 82 -127 100 114 -39 57
73 89 11 -71 78 4 -17 -107
-86 89 108 -78 -6 -68 34 35
5 2 -23 22 71 107 127 -9
-42 94 -113 80 127 -80 101 -97
-33 -14 -10 61 -90 57 -35 -78
-32 87 -61 84 -56 -31 -25 -50
-32 71 3 -104 -16 -14 33 -31
68 -21 -60 -38 121 76 38 -78
-7 -63 -54 36 -61 38 20 -127
00000000: e03d cf1c 7f22 5581 2638 331a e1e9 2cd0
00000010: 4bb5 230f 5b61 df1a 7f7f 3cf7 01b2 b6f0
00000020: 9a3c bd43 7be8 f251 1316 7dfa 5c8a b4cb
00000030: 3f3b 7692 29a0 2e4f d45c 2ca6 f612 cd81
00000040: d643 d0d7 061b 44ab 0e2d 202a d7ce ba29
00000050: 0936 fe29 398c c487 e542 e73b faaf da37
00000060: 230a a2ae 1932 ea8c 1544 7ac2 5990 3e35
00000070: 7f13 30ae 617f 861b d07f 82e2 eb32 3311
00000080: fad6 5321 68a2 35fc dddc a3f6 e515 00ae
00000090: 38d1 ea52 b671 7ff4 ab3e 95b3 2595 14b7
000000a0: 193d 3446 7fea a781 41ff 0981 7f5f 1db6
000000b0: 19d4 5281 6472 d939 4959 0bb9 4e04 ef95
000000c0: aa59 6cb2 fabc 2223 0502 e916 476b 7ff7
000000d0: d65e 8f50 7fb0 659f dff2 f63d a639 ddb2
000000e0: e057 c354 c8e1 e7ce e047 0398 f0f2 21e1
000000f0: 44eb c4da 794c 26b2 f9c1 ca24 c326 1481

tfl.pseudo_qconst7 i1 [64, 1, 1, 64]
-22 125 61 106 64 -121 34 103
125 101 74 -57 23 -18 81 -82
13 -25 87 -29 89 47 21 50
119 32 -97 -81 93 20 29 -111
-23 -28 34 64 -66 -87 -27 73
-28 34 -83 -92 -127 30 -5 90
122 116 -11 123 4 42 -83 117
-91 108 -104 -36 -116 -38 85 117
-101 -50 56 7 11 -84 -48 105
-100 -99 -55 -49 -86 62 -99 -26
65 -69 45 -60 -101 13 -127 40
-40 -113 78 40 69 7 87 50
94 -75 -93 105 12 -54 -86 39
50 69 81 27 29 -33 -87 -3
0 49 -67 -51 19 -73 6 -82
45 -16 -96 59 66 32 -42 -13
-49 -80 110 -118 -34 -100 19 -127
103 62 -8 15 26 8 -99 26
48 -78 71 -62 -40 6 102 94
56 -75 -58 88 96 74 -42 -54
82 110 100 73 -29 101 17 42
105 -117 78 -47 116 104 -47 7
75 4 110 -17 15 10 111 -56
94 -112 44 -115 -84 2 29 95
-16 23 -96 59 123 115 -3 81
-91 -120 -93 -12 106 -29 -47 72
-54 119 58 -43 -70 -93 -60 125
-54 10 -37 -109 62 -107 -106 -44
2 78 -127 -78 34 95 58 -78
53 48 5 49 -40 73 114 -48
56 -96 -37 -2 1 36 -43 18
-43 -32 14 39 -102 45 32 -86
00000000: ea7d 3d6a 4087 2267 7d65 4ac7 17ee 51ae
00000010: 0de7 57e3 592f 1532 7720 9faf 5d14 1d91
00000020: e9e4 2240 bea9 e549 e422 ada4 811e fb5a
00000030: 7a74 f57b 042a ad75 a56c 98dc 8cda 5575
00000040: 9bce 3807 0bac d069 9c9d c9cf aa3e 9de6
00000050: 41bb 2dc4 9b0d 8128 d88f 4e28 4507 5732
00000060: 5eb5 a369 0cca aa27 3245 511b 1ddf a9fd
00000070: 0031 bdcd 13b7 06ae 2df0 a03b 4220 d6f3
00000080: cfb0 6e8a de9c 1381 673e f80f 1a08 9d1a
00000090: 30b2 47c2 d806 665e 38b5 c658 604a d6ca
000000a0: 526e 6449 e365 112a 698b 4ed1 7468 d107
000000b0: 4b04 6eef 0f0a 6fc8 5e90 2c8d ac02 1d5f
000000c0: f017 a03b 7b73 fd51 a588 a3f4 6ae3 d148
000000d0: ca77 3ad5 baa3 c47d ca0a db93 3e95 96d4
000000e0: 024e 81b2 225f 3ab2 3530 0531 d849 72d0
000000f0: 38a0 dbfe 0124 d512 d5e0 0e27 9a2d 20aa

tfl.pseudo_qconst9 i1 [1, 15, 1, 32]
-22 -117 18 -127 -127 -8 -29 -18
48 5 35 93 -40 16 -107 -127
-59 89 -43 -12 48 -94 29 -104
70 106 -2 104 -71 -36 -39 48
-11 93 -63 39 54 109 30 88
-83 39 -93 31 -15 126 14 61
-86 -24 -39 101 -91 -62 -14 -99
-52 53 63 -99 -77 30 -100 -105
-64 -15 127 -58 100 -20 46 -18
-127 -108 33 71 23 56 35 125
-54 42 -123 32 64 -1 6 -104
25 77 -98 35 -90 -15 -33 -127
61 60 41 82 27 -24 56 117
81 108 23 -30 -6 71 -28 119
-52 15 -23 -10 99 60 113 36
127 34 -40 54 -115 -8 -8 -77
-87 -52 29 -120 -77 56 40 3
91 68 15 -86 -92 -14 -75 -102
37 -100 99 -18 -106 59 -48 -127
-65 74 -97 0 -70 -93 -48 -77
101 53 86 63 -16 52 -39 -37
-20 -31 125 88 71 127 6 61
118 79 -58 127 -74 -89 127 21
70 -123 44 -98 4 87 -56 26
86 4 -9 -75 6 -58 38 122
123 -51 127 107 -25 80 -70 74
-66 -50 76 103 123 -73 92 -113
19 -44 32 80 -80 -2 18 -66
28 -58 62 11 -81 98 126 -26
-99 -103 79 54 96 63 127 14
97 86 57 5 -80 14 50 68
68 -103 115 -68 -126 -90 10 50
00000000: ea8b 1281 81f8 e3ee 3005 235d d810 9581
00000010: c559 d5f4 30a2 1d98 466a fe68 b9dc d930
00000020: f55d c127 366d 1e58 ad27 a31f f17e 0e3d
00000030: aae8 d965 a5c2 f29d cc35 3f9d b31e 9c97
00000040: c0f1 7fc6 64ec 2eee 8194 2147 1738 237d
00000050: ca2a 8520 40ff 0698 194d 9e23 a6f1 df81
00000060: 3d3c 2952 1be8 3875 516c 17e2 fa47 e477
00000070: cc0f e9f6 633c 7124 7f22 d836 8df8 f8b3
00000080: a9cc 1d88 b338 2803 5b44 0faa a4f2 b59a
00000090: 259c 63ee 963b d081 bf4a 9f00 baa3 d0b3
000000a0: 6535 563f f034 d9db ece1 7d58 477f 063d
000000b0: 764f c67f b6a7 7f15 4685 2c9e 0457 c81a
000000c0: 5604 f7b5 06c6 267a 7bcd 7f6b e750 ba4a
000000d0: bece 4c67 7bb7 5c8f 13d4 2050 b0fe 12be
000000e0: 1cc6 3e0b af62 7ee6 9d99 4f36 603f 7f0e
000000f0: 6156 3905 b00e 3244 4499 73bc 82a6 0a32

tfl.pseudo_qconst11 i1 [1, 9, 1, 32]
1 83 -100 -122 119 98 -123 2
45 -92 -56 -57 29 90 -58 -93
-102 99 127 101 42 -24 36 -46
-22 -31 -81 0 93 -127 -6 120
127 102 -8 92 38 -127 126 81
-30 -111 -87 18 8 85 -127 -89
-48 -110 -41 59 35 -127 -118 -64
97 -103 -99 -127 9 -119 -97 62
-57 -45 91 -18 -13 84 72 -127
-32 -92 41 -116 18 22 33 -33
4 -44 10 55 97 8 -71 -77
101 -103 -84 80 -97 25 65 46
-1 127 81 91 -2 -61 -44 25
-102 -121 -115 -127 80 -127 -40 104
87 127 57 -13 97 -47 -73 49
127 -99 45 -86 76 -74 66 -86
74 -113 -36 -64 -89 -106 71 -123
45 127 -84 -26 -127 -84 -63 127
-127 19 -86 22 -127 28 67 127
96 -67 -95 -99 -96 -54 62 60
-85 41 127 37 127 -81 -40 5
44 77 2 -36 -34 26 63 38
-4 -24 -99 97 110 66 -127 -98
50 -52 -5 93 14 43 45 -107
-114 8 114 59 123 18 48 -88
81 -85 94 2 122 41 -74 7
13 -100 125 121 -93 88 4 8
-21 -127 91 -75 -127 -95 -120 -127
22 90 78 -113 -94 -45 -127 -77
127 9 -81 126 60 39 52 55
-91 65 -99 -102 93 -25 -62 -76
66 31 127 63 -57 -88 -127 -48
00000000: 0153 9c86 7762 8502 2da4 c8c7 1d5a c6a3
00000010: 9a63 7f65 2ae8 24d2 eae1 af00 5d81 fa78
00000020: 7f66 f85c 2681 7e51 e291 a912 0855 81a7
00000030: d092 d73b 2381 8ac0 6199 9d81 0989 9f3e
00000040: c7d3 5bee f354 4881 e0a4 298c 1216 21df
00000050: 04d4 0a37 6108 b9b3 6599 ac50 9f19 412e
00000060: ff7f 515b fec3 d419 9a87 8d81 5081 d868
00000070: 577f 39f3 61d1 b731 7f9d 2daa 4cb6 42aa
00000080: 4a8f dcc0 a796 4785 2d7f ace6 81ac c17f
00000090: 8113 aa16 811c 437f 60bd a19d a0ca 3e3c
000000a0: ab29 7f25 7faf d805 2c4d 02dc de1a 3f26
000000b0: fce8 9d61 6e42 819e 32cc fb5d 0e2b 2d95
000000c0: 8e08 723b 7b12 30a8 51ab 5e02 7a29 b607
000000d0: 0d9c 7d79 a358 0408 eb81 5bb5 81a1 8881
000000e0: 165a 4e8f a2d3 81b3 7f09 af7e 3c27 3437
000000f0: a541 9d9a 5de7 c2b4 421f 7f3f c7a8 81d0

tfl.pseudo_qconst13 i1 [64, 1, 1, 64]
-83 -17 123 1 40 -119 0 -118
114 79 -83 102 106 9 101 -63
44 86 -39 88 127 17 83 -6
-94 42 -75 7 -4 78 -64 -41
123 124 101 66 -15 -66 67 -39
111 17 -87 32 5 27 -40 23
120 29 33 100 4 -35 68 -30
-27 29 38 -102 -57 -55 92 -71
55 46 122 37 -69 -66 -124 -50
68 -95 96 9 85 127 -27 -103
69 -17 70 -80 21 -89 60 -89
104 -32 -104 -64 -60 109 -88 79
117 103 126 -66 28 -5 -80 24
75 -1 113 -24 -6 -16 122 111
119 -32 -14 46 -27 17 35 23
110 98 -53 -73 12 10 -51 -96
-110 -62 116 97 -30 97 -100 49
-84 97 41 -34 -9 35 51 -31
-73 -107 10 -101 119 54 -49 -114
-14 96 -116 41 -4 78 114 -102
-7 60 105 43 107 -87 -46 46
-16 -65 -43 120 36 127 34 -24
-31 -69 88 54 -45 61 -90 -25
93 -82 -40 -66 -25 27 93 -67
91 -42 -93 64 100 65 66 -83
-113 104 -71 -63 112 -46 97 9
55 -12 92 -80 52 -16 -49 115
-67 -101 74 81 51 72 114 -10
24 77 -27 29 -95 -107 39 -124
-32 12 -58 -32 -35 -50 -21 -39
36 69 -70 10 127 -100 43 -44
-4 113 -36 -13 -10 -11 20 48
00000000: adef 7b01 2889 008a 724f ad66 6a09 65c1
00000010: 2c56 d958 7f11 53fa a22a b507 fc4e c0d7
00000020: 7b7c 6542 f1be 43d9 6f11 a920 051b d817
00000030: 781d 2164 04dd 44e2 e51d 269a c7c9 5cb9
00000040: 372e 7a25 bbbe 84ce 44a1 6009 557f e599
00000050: 45ef 46b0 15a7 3ca7 68e0 98c0 c46d a84f
00000060: 7567 7ebe 1cfb b018 4bff 71e8 faf0 7a6f
00000070: 77e0 f22e e511 2317 6e62 cbb7 0c0a cda0
00000080: 92c2 7461 e261 9c31 ac61 29de f723 33e1
00000090: b795 0a9b 7736 cf8e f260 8c29 fc4e 729a
000000a0: f93c 692b 6ba9 d22e f0bf d578 247f 22e8
000000b0: e1bb 5836 d33d a6e7 5dae d8be e71b 5dbd
000000c0: 5bd6 a340 6441 42ad 8f68 b9c1 70d2 6109
000000d0: 37f4 5cb0 34f0 cf73 bd9b 4a51 3348 72f6
000000e0: 184d e51d a195 2784 e00c c6e0 ddce ebd9
000000f0: 2445 ba0a 7f9c 2bd4 fc71 dcf3 f6f5 1430

tfl.pseudo_qconst15 i1 [1, 11, 1, 32]
19 32 -49 -52 -73 29 -69 21
101 7 94 -68 120 -127 37 118
-19 46 62 90 23 59 45 40
-50 32 68 -108 56 -54 86 10
70 87 -47 -127 -23 76 25 92
57 -114 -13 36 23 19 -17 -25
-4 -98 110 79 -127 -26 -113 -26
20 -20 -98 -91 38 -8 14 127
-83 12 -23 26 -127 58 -18 117
-55 74 -88 15 41 28 127 -103
70 127 107 -10 -125 -37 -91 -124
42 38 62 -127 -65 -41 77 -49
-7 30 26 -23 54 78 125 113
127 -27 47 127 -127 -100 -16 -22
-122 -23 88 75 -19 -85 -99 48
-107 127 -39 51 46 -21 11 -38
108 68 111 71 0 -107 -52 47
-76 -97 -84 -61 -81 126 -31 69
82 109 127 127 68 -1 -126 74
123 -59 -84 101 -105 -17 96 7
-95 -43 -44 19 -12 56 97 -55
26 -127 11 104 -65 36 72 -82
46 -88 -110 80 -86 127 93 75
-66 100 -90 -31 21 96 116 61
-127 127 -94 56 36 31 -71 41
-15 48 79 -30 -27 -18 -106 -71
-126 8 11 95 79 -57 -127 -78
10 36 28 -102 -50 5 -127 31
-88 17 125 65 -124 127 -127 42
-91 13 126 50 3 -36 -44 14
89 -19 72 -52 89 -111 48 -84
127 119 -105 -113 113 28 43 -70
00000000: 1320 cfcc b71d bb15 6507 5ebc 7881 2576
00000010: ed2e 3e5a 173b 2d28 ce20 4494 38ca 560a
00000020: 4657 d181 e94c 195c 398e f324 1713 efe7
00000030: fc9e 6e4f 81e6 8fe6 14ec 9ea5 26f8 0e7f
00000040: ad0c e91a 813a ee75 c94a a80f 291c 7f99
00000050: 467f 6bf6 83db a584 2a26 3e81 bfd7 4dcf
00000060: f91e 1ae9 364e 7d71 7fe5 2f7f 819c f0ea
00000070: 86e9 584b edab 9d30 957f d933 2eeb 0bda
00000080: 6c44 6f47 0095 cc2f b49f acc3 af7e e145
00000090: 526d 7f7f 44ff 824a 7bc5 ac65 97ef 6007
000000a0: a1d5 d413 f438 61c9 1a81 0b68 bf24 48ae
000000b0: 2ea8 9250 aa7f 5d4b be64 a6e1 1560 743d
000000c0: 817f a238 241f b929 f130 4fe2 e5ee 96b9
000000d0: 8208 0b5f 4fc7 81b2 0a24 1c9a ce05 811f
000000e0: a811 7d41 847f 812a a50d 7e32 03dc d40e
000000f0: 59ed 48cc 5991 30ac 7f77 978f 711c 2bba

tfl.pseudo_qconst17 i1 [1, 7, 1, 32]
1 3 108 127 127 117 -72 -75
2 -25 -127 69 89 -69 -94 -46
-89 -125 3 -22 38 -117 -48 77
48 -91 114 -24 57 -89 -110 -7
53 80 -32 -100 -84 -127 117 40
32 73 -77 69 -62 -106 -127 35
-127 89 -14 116 -41 -121 -11 127
76 117 10 -127 105 -91 45 31
101 -72 77 -46 60 -52 -67 -9
-77 -127 -98 127 -18 -26 -113 -127
-62 1 48 123 -120 26 -24 -95
29 127 -122 -1 127 -29 96 -58
127 69 -127 -103 14 -109 96 -103
17 100 -101 -36 -127 8 69 -71
-38 -68 -26 15 -109 -127 -127 125
-67 23 127 -70 39 1 -29 -23
94 84 -35 -55 123 96 -23 58
39 104 96 -98 -2 71 -53 -9
-125 -51 39 -109 -16 114 104 -94
-127 18 -1 -120 78 8 58 23
-32 7 -51 -52 -24 -73 120 127
-71 49 99 -13 -58 -93 115 -107
125 -35 -127 127 -127 4 29 118
-15 -57 88 1 28 72 -2 9
84 127 -91 7 67 -120 127 111
127 -15 -75 34 -40 127 -29 -32
16 127 -69 9 -10 125 -14 4
-31 -34 -31 8 61 127 -127 127
00000000: 0103 6c7f 7f75 b8b5 02e7 8145 59bb a2d2
00000010: a783 03ea 268b d04d 30a5 72e8 39a7 92f9
00000020: 3550 e09c ac81 7528 2049 b345 c296 8123
00000030: 8159 f274 d787 f57f 4c75 0a81 69a5 2d1f
00000040: 65b8 4dd2 3ccc bdf7 b381 9e7f eee6 8f81
00000050: c201 307b 881a e8a1 1d7f 86ff 7fe3 60c6
00000060: 7f45 8199 0e93 6099 1164 9bdc 8108 45b9
00000070: dabc e60f 9381 817d bd17 7fba 2701 e3e9
00000080: 5e54 ddc9 7b60 e93a 2768 609e fe47 cbf7
00000090: 83cd 2793 f072 68a2 8112 ff88 4e08 3a17
000000a0: e007 cdcc e8b7 787f b931 63f3 c6a3 7395
000000b0: 7ddd 817f 8104 1d76 f1c7 5801 1c48 fe09
000000c0: 547f a507 4388 7f6f 7ff1 b522 d87f e3e0
000000d0: 107f bb09 f67d f204 e1de e108 3d7f 817f

tfl.pseudo_qconst19 i1 [64, 1, 1, 32]
116 -45 -67 105 -120 -117 99 -73
-51 -82 -75 -63 108 -9 -54 127
61 -1 -126 -64 65 66 -61 42
27 81 -91 -24 -32 -3 -23 -101
-31 -29 110 -17 92 -105 -84 104
-92 -95 -59 115 -39 9 47 -80
76 -43 -113 47 61 -89 41 127
101 26 12 -91 -44 118 -48 23
8 -13 -11 -12 2 -62 9 -11
-16 -6 25 -73 127 -16 17 6
-43 48 -90 -104 -50 -7 101 43
84 -53 -58 39 -13 32 115 -49
8 85 -40 90 -75 86 -127 63
-114 117 57 -49 77 76 -18 13
-74 120 27 -16 58 -23 21 118
10 -24 65 -77 -33 21 -8 99
29 35 -71 21 120 112 15 -7
61 25 6 85 -127 -103 -100 23
74 -92 -51 31 -21 25 -105 34
99 -98 -120 121 -91 -26 22 117
111 -10 -12 67 -126 -81 37 -60
-74 -48 -42 -74 -2 -20 122 44
-65 57 -75 29 -69 -53 127 91
-29 31 -13 -9 59 -19 28 17
-73 15 -2 -83 102 60 60 -57
114 1 -20 -9 -59 89 -89 -62
48 85 -99 -127 108 18 19 -58
-26 2 -107 76 21 1 57 -59
27 70 -79 21 -96 -118 84 30
120 76 92 -113 64 67 -65 105
119 -124 108 6 32 -14 -78 -81
-5 45 -27 -108 -80 -127 -105 20
00000000: 74d3 bd69 888b 63b7 cdae b5c1 6cf7 ca7f
00000010: 3dff 82c0 4142 c32a 1b51 a5e8 e0fd e99b
00000020: e1e3 6eef 5c97 ac68 a4a1 c573 d909 2fb0
00000030: 4cd5 8f2f 3da7 297f 651a 0ca5 d476 d017
00000040: 08f3 f5f4 02c2 09f5 f0fa 19b7 7ff0 1106
00000050: d530 a698 cef9 652b 54cb c627 f320 73cf
00000060: 0855 d85a b556 813f 8e75 39cf 4d4c ee0d
00000070: b678 1bf0 3ae9 1576 0ae8 41b3 df15 f863
00000080: 1d23 b915 7870 0ff9 3d19 0655 8199 9c17
00000090: 4aa4 cd1f eb19 9722 639e 8879 a5e6 1675
000000a0: 6ff6 f443 82af 25c4 b6d0 d6b6 feec 7a2c
000000b0: bf39 b51d bbcb 7f5b e31f f3f7 3bed 1c11
000000c0: b70f fead 663c 3cc7 7201 ecf7 c559 a7c2
000000d0: 3055 9d81 6c12 13c6 e602 954c 1501 39c5
000000e0: 1b46 b115 a08a 541e 784c 5c8f 4043 bf69
000000f0: 7784 6c06 20f2 b2af fb2d e594 b081 9714

tfl.pseudo_qconst21 i1 [1, 5, 1, 32]
127 -73 -127 -51 113 25 -51 117
127 -36 -4 -76 127 20 -108 7
93 -26 -127 127 90 -9 -120 -65
24 -114 -68 -126 -119 73 -103 -120
46 70 -6 -44 127 -113 113 111
82 -1 127 7 46 -122 26 -78
-4 -2 -25 -124 6 29 -90 40
-104 108 -89 -92 -62 107 -121 -127
-100 -101 -103 31 9 35 -84 36
38 -104 -121 -39 -76 -127 -93 -127
-68 82 -3 4 33 -103 102 28
67 22 -127 -52 35 127 65 -66
42 -92 73 10 -28 127 98 -127
105 -127 40 127 107 -62 95 120
-18 127 109 -120 58 -4 54 127
-89 -69 8 127 -127 -62 50 -80
58 127 85 127 -111 14 127 -32
109 8 -92 72 41 -28 127 -35
-127 -29 124 -80 -127 -127 127 -15
127 -127 28 -65 25 98 127 67
00000000: 7fb7 81cd 7119 cd75 7fdc fcb4 7f14 9407
00000010: 5de6 817f 5af7 88bf 188e bc82 8949 9988
00000020: 2e46 fad4 7f8f 716f 52ff 7f07 2e86 1ab2
00000030: fcfe e784 061d a628 986c a7a4 c26b 8781
00000040: 9c9b 991f 0923 ac24 2698 87d9 b481 a381
00000050: bc52 fd04 2199 661c 4316 81cc 237f 41be
00000060: 2aa4 490a e47f 6281 6981 287f 6bc2 5f78
00000070: ee7f 6d88 3afc 367f a7bb 087f 81c2 32b0
00000080: 3a7f 557f 910e 7fe0 6d08 a448 29e4 7fdd
00000090: 81e3 7cb0 8181 7ff1 7f81 1cbf 1962 7f43

tfl.pseudo_qconst23 i1 [32, 5, 1, 40]
-17 28 6 -90 124 30 -4 -89
5 101 49 -97 -84 100 -49 38
-68 -87 -82 -127 49 -104 45 29
18 9 102 -115 41 81 -49 42
-36 -88 5 -110 -15 50 39 104
77 14 78 86 -61 7 67 82
-37 3 -90 62 99 -60 106 105
1 -35 78 89 86 49 53 16
-39 -66 10 86 -89 96 -16 -1
45 -69 4 76 -96 -71 72 89
78 43 109 34 9 111 -26 102
-8 -4 81 -40 40 49 7 -57
-59 -36 5 -38 31 -99 102 59
10 21 -41 19 54 -34 -44 -2
61 28 -48 16 -15 -103 81 -61
-19 51 123 61 116 -10 -10 -85
81 57 -26 -39 76 92 -73 78
-55 -48 -74 35 82 -79 102 81
12 -103 20 -39 43 67 -24 -114
38 -65 -66 113 -23 35 57 -108
7 -5 -94 -73 -23 102 122 -86
74 48 -14 63 81 -89 12 -89
-66 -36 19 26 -38 -34 22 105
-19 22 69 -16 78 -27 8 -94
-28 -52 -45 81 -58 83 -93 -53
113 29 80 -41 54 58 24 -109
-53 -111 -62 -122 43 -74 -37 -84
116 61 79 -91 59 -79 55 -45
-101 -57 18 -73 99 -50 2 -17
97 2 59 -23 16 -48 -1 -52
115 -92 -81 -98 67 17 31 -106
-106 103 -98 -94 115 -73 -92 -42
00000000: ef1c 06a6 7c1e fca7 0565 319f ac64 cf26
00000010: bca9 ae81 3198 2d1d 1209 668d 2951 cf2a
00000020: dca8 0592 f132 2768 4d0e 4e56 c307 4352
00000030: db03 a63e 63c4 6a69 01dd 4e59 5631 3510
00000040: d9be 0a56 a760 f0ff 2dbb 044c a0b9 4859
00000050: 4e2b 6d22 096f e666 f8fc 51d8 2831 07c7
00000060: c5dc 05da 1f9d 663b 0a15 d713 36de d4fe
00000070: 3d1c d010 f199 51c3 ed33 7b3d 74f6 f6ab
00000080: 5139 e6d9 4c5c b74e c9d0 b623 52b1 6651
00000090: 0c99 14d9 2b43 e88e 26bf be71 e923 3994
000000a0: 07fb a2b7 e966 7aaa 4a30 f23f 51a7 0ca7
000000b0: bedc 131a dade 1669 ed16 45f0 4ee5 08a2
000000c0: e4cc d351 c653 a3cb 711d 50d7 363a 1893
000000d0: cb91 c286 2bb6 dbac 743d 4fa5 3bb1 37d3
000000e0: 9bc7 12b7 63ce 02ef 6102 3be9 10d0 ffcc
000000f0: 73a4 af9e 4311 1f96 9667 9ea2 73b7 a4d6

tfl.pseudo_qconst24 i1 [1, 22, 1, 64] scale=0.023670387 zero_point=-128
0.0 0.0 0.0 0.0 0.0 0.0 0.0 0.0
0.0 0.0 0.0 0.0 0.0 0.0 0.0 0.0
0.0 0.0 0.0 0.0 0.0 0.0 0.0 0.0
0.0 0.0 0.0 0.0 0.0 0.0 0.0 0.0
0.0 0.0 0.0 0.0 0.0 0.0 0.0 0.0
0.0 0.0 0.0 0.0 0.0 0.0 0.0 0.0
0.0 0.0 0.0 0.0 0.0 0.0 0.0 0.0
0.0 0.0 0.0 0.0 0.0 0.0 0.0 0.0
0.0 0.0 0.0 0.0 0.0 0.0 0.0 0.0
0.0 0.0 0.0 0.0 0.0 0.0 0.0 0.0
0.0 0.0 0.0 0.0 0.0 0.0 0.0 0.0
0.0 0.0 0.0 0.0 0.0 0.0 0.0 0.0
0.0 0.0 0.0 0.0 0.0 0.0 0.0 0.0
0.0 0.0 0.0 0.0 0.0 0.0 0.0 0.0
0.0 0.0 0.0 0.0 0.0 0.0 0.0 0.0
0.0 0.0 0.0 0.0 0.0 0.0 0.0 0.0
0.0 0.0 0.0 0.0 0.0 0.0 0.0 0.0
0.0 0.0 0.0 0.0 0.0 0.0 0.0 0.0
0.0 0.0 0.0 0.0 0.0 0.0 0.0 0.0
0.0 0.0 0.0 0.0 0.0 0.0 0.0 0.0
0.0 0.0 0.0 0.0 0.0 0.0 0.0 0.0
0.0 0.0 0.0 0.0 0.0 0.0 0.0 0.0
0.0 0.0 0.0 0.0 0.0 0.0 0.0 0.0
0.0 0.0 0.0 0.0 0.0 0.0 0.0 0.0
0.0 0.0 0.0 0.0 0.0 0.0 0.0 0.0
0.0 0.0 0.0 0.0 0.0 0.0 0.0 0.0
0.0 0.0 0.0 0.0 0.0 0.0 0.0 0.0
0.0 0.0 0.0 0.0 0.0 0.0 0.0 0.0
0.0 0.0 0.0 0.0 0.0 0.0 0.0 0.0
0.0 0.0 0.0 0.0 0.0 0.0 0.0 0.0
0.0 0.0 0.0 0.0 0.0 0.0 0.0 0.0
0.0 0.0 0.0 0.0 0.0 0.0 0.0 0.0
00000000: 8080 8080 8080 8080 8080 8080 8080 8080
00000010: 8080 8080 8080 8080 8080 8080 8080 8080
00000020: 8080 8080 8080 8080 8080 8080 8080 8080
00000030: 8080 8080 8080 8080 8080 8080 8080 8080
00000040: 8080 8080 8080 8080 8080 8080 8080 8080
00000050: 8080 8080 8080 8080 8080 8080 8080 8080
00000060: 8080 8080 8080 8080 8080 8080 8080 8080
00000070: 8080 8080 8080 8080 8080 8080 8080 8080
00000080: 8080 8080 8080 8080 8080 8080 8080 8080
00000090: 8080 8080 8080 8080 8080 8080 8080 8080
000000a0: 8080 8080 8080 8080 8080 8080 8080 8080
000000b0: 8080 8080 8080 8080 8080 8080 8080 8080
000000c0: 8080 8080 8080 8080 8080 8080 8080 8080
000000d0: 8080 8080 8080 8080 8080 8080 8080 8080
000000e0: 8080 8080 8080 8080 8080 8080 8080 8080
000000f0: 8080 8080 8080 8080 8080 8080 8080 8080

tfl.pseudo_qconst25 i1 [1, 16, 1, 64] scale=0.027310027 zero_point=-128
0.0 0.0 0.0 0.0 0.0 0.0 0.0 0.0
0.0 0.0 0.0 0.0 0.0 0.0 0.0 0.0
0.0 0.0 0.0 0.0 0.0 0.0 0.0 0.0
0.0 0.0 0.0 0.0 0.0 0.0 0.0 0.0
0.0 0.0 0.0 0.0 0.0 0.0 0.0 0.0
0.0 0.0 0.0 0.0 0.0 0.0 0.0 0.0
0.0 0.0 0.0 0.0 0.0 0.0 0.0 0.0
0.0 0.0 0.0 0.0 0.0 0.0 0.0 0.0
0.0 0.0 0.0 0.0 0.0 0.0 0.0 0.0
0.0 0.0 0.0 0.0 0.0 0.0 0.0 0.0
0.0 0.0 0.0 0.0 0.0 0.0 0.0 0.0
0.0 0.0 0.0 0.0 0.0 0.0 0.0 0.0
0.0 0.0 0.0 0.0 0.0 0.0 0.0 0.0
0.0 0.0 0.0 0.0 0.0 0.0 0.0 0.0
0.0 0.0 0.0 0.0 0.0 0.0 0.0 0.0
0.0 0.0 0.0 0.0 0.0 0.0 0.0 0.0
0.0 0.0 0.0 0.0 0.0 0.0 0.0 0.0
0.0 0.0 0.0 0.0 0.0 0.0 0.0 0.0
0.0 0.0 0.0 0.0 0.0 0.0 0.0 0.0
0.0 0.0 0.0 0.0 0.0 0.0 0.0 0.0
0.0 0.0 0.0 0.0 0.0 0.0 0.0 0.0
0.0 0.0 0.0 0.0 0.0 0.0 0.0 0.0
0.0 0.0 0.0 0.0 0.0 0.0 0.0 0.0
0.0 0.0 0.0 0.0 0.0 0.0 0.0 0.0
0.0 0.0 0.0 0.0 0.0 0.0 0.0 0.0
0.0 0.0 0.0 0.0 0.0 0.0 0.0 0.0
0.0 0.0 0.0 0.0 0.0 0.0 0.0 0.0
0.0 0.0 0.0 0.0 0.0 0.0 0.0 0.0
0.0 0.0 0.0 0.0 0.0 0.0 0.0 0.0
0.0 0.0 0.0 0.0 0.0 0.0 0.0 0.0
0.0 0.0 0.0 0.0 0.0 0.0 0.0 0.0
0.0 0.0 0.0 0.0 0.0 0.0 0.0 0.0
00000000: 8080 8080 8080 8080 8080 8080 8080 8080
00000010: 8080 8080 8080 8080 8080 8080 8080 8080
00000020: 8080 8080 8080 8080 8080 8080 8080 8080
00000030: 8080 8080 8080 8080 8080 8080 8080 8080
00000040: 8080 8080 8080 8080 8080 8080 8080 8080
00000050: 8080 8080 8080 8080 8080 8080 8080 8080
00000060: 8080 8080 8080 8080 8080 8080 8080 8080
00000070: 8080 8080 8080 8080 8080 8080 8080 8080
00000080: 8080 8080 8080 8080 8080 8080 8080 8080
00000090: 8080 8080 8080 8080 8080 8080 8080 8080
000000a0: 8080 8080 8080 8080 8080 8080 8080 8080
000000b0: 8080 8080 8080 8080 8080 8080 8080 8080
000000c0: 8080 8080 8080 8080 8080 8080 8080 8080
000000d0: 8080 8080 8080 8080 8080 8080 8080 8080
000000e0: 8080 8080 8080 8080 8080 8080 8080 8080
000000f0: 8080 8080 8080 8080 8080 8080 8080 8080

tfl.pseudo_qconst26 i1 [1, 2, 1, 40] scale=0.101960786 zero_point=-128
0.0 0.0 0.0 0.0 0.0 0.0 0.0 0.0
0.0 0.0 0.0 0.0 0.0 0.0 0.0 0.0
0.0 0.0 0.0 0.0 0.0 0.0 0.0 0.0
0.0 0.0 0.0 0.0 0.0 0.0 0.0 0.0
0.0 0.0 0.0 0.0 0.0 0.0 0.0 0.0
0.0 0.0 0.0 0.0 0.0 0.0 0.0 0.0
0.0 0.0 0.0 0.0 0.0 0.0 0.0 0.0
0.0 0.0 0.0 0.0 0.0 0.0 0.0 0.0
0.0 0.0 0.0 0.0 0.0 0.0 0.0 0.0
0.0 0.0 0.0 0.0 0.0 0.0 0.0 0.0
00000000: 8080 8080 8080 8080 8080 8080 8080 8080
00000010: 8080 8080 8080 8080 8080 8080 8080 8080
00000020: 8080 8080 8080 8080 8080 8080 8080 8080
00000030: 8080 8080 8080 8080 8080 8080 8080 8080
00000040: 8080 8080 8080 8080 8080 8080 8080 8080

tfl.pseudo_qconst27 i1 [1, 4, 1, 32] scale=0.27980897 zero_point=-128
0.0 0.0 0.0 0.0 0.0 0.0 0.0 0.0
0.0 0.0 0.0 0.0 0.0 0.0 0.0 0.0
0.0 0.0 0.0 0.0 0.0 0.0 0.0 0.0
0.0 0.0 0.0 0.0 0.0 0.0 0.0 0.0
0.0 0.0 0.0 0.0 0.0 0.0 0.0 0.0
0.0 0.0 0.0 0.0 0.0 0.0 0.0 0.0
0.0 0.0 0.0 0.0 0.0 0.0 0.0 0.0
0.0 0.0 0.0 0.0 0.0 0.0 0.0 0.0
0.0 0.0 0.0 0.0 0.0 0.0 0.0 0.0
0.0 0.0 0.0 0.0 0.0 0.0 0.0 0.0
0.0 0.0 0.0 0.0 0.0 0.0 0.0 0.0
0.0 0.0 0.0 0.0 0.0 0.0 0.0 0.0
0.0 0.0 0.0 0.0 0.0 0.0 0.0 0.0
0.0 0.0 0.0 0.0 0.0 0.0 0.0 0.0
0.0 0.0 0.0 0.0 0.0 0.0 0.0 0.0
0.0 0.0 0.0 0.0 0.0 0.0 0.0 0.0
00000000: 8080 8080 8080 8080 8080 8080 8080 8080
00000010: 8080 8080 8080 8080 8080 8080 8080 8080
00000020: 8080 8080 8080 8080 8080 8080 8080 8080
00000030: 8080 8080 8080 8080 8080 8080 8080 8080
00000040: 8080 8080 8080 8080 8080 8080 8080 8080
00000050: 8080 8080 8080 8080 8080 8080 8080 8080
00000060: 8080 8080 8080 8080 8080 8080 8080 8080
00000070: 8080 8080 8080 8080 8080 8080 8080 8080

tfl.pseudo_qconst28 i1 [1, 10, 1, 64] scale=0.030545276 zero_point=-128
0.0 0.0 0.0 0.0 0.0 0.0 0.0 0.0
0.0 0.0 0.0 0.0 0.0 0.0 0.0 0.0
0.0 0.0 0.0 0.0 0.0 0.0 0.0 0.0
0.0 0.0 0.0 0.0 0.0 0.0 0.0 0.0
0.0 0.0 0.0 0.0 0.0 0.0 0.0 0.0
0.0 0.0 0.0 0.0 0.0 0.0 0.0 0.0
0.0 0.0 0.0 0.0 0.0 0.0 0.0 0.0
0.0 0.0 0.0 0.0 0.0 0.0 0.0 0.0
0.0 0.0 0.0 0.0 0.0 0.0 0.0 0.0
0.0 0.0 0.0 0.0 0.0 0.0 0.0 0.0
0.0 0.0 0.0 0.0 0.0 0.0 0.0 0.0
0.0 0.0 0.0 0.0 0.0 0.0 0.0 0.0
0.0 0.0 0.0 0.0 0.0 0.0 0.0 0.0
0.0 0.0 0.0 0.0 0.0 0.0 0.0 0.0
0.0 0.0 0.0 0.0 0.0 0.0 0.0 0.0
0.0 0.0 0.0 0.0 0.0 0.0 0.0 0.0
0.0 0.0 0.0 0.0 0.0 0.0 0.0 0.0
0.0 0.0 0.0 0.0 0.0 0.0 0.0 0.0
0.0 0.0 0.0 0.0 0.0 0.0 0.0 0.0
0.0 0.0 0.0 0.0 0.0 0.0 0.0 0.0
0.0 0.0 0.0 0.0 0.0 0.0 0.0 0.0
0.0 0.0 0.0 0.0 0.0 0.0 0.0 0.0
0.0 0.0 0.0 0.0 0.0 0.0 0.0 0.0
0.0 0.0 0.0 0.0 0.0 0.0 0.0 0.0
0.0 0.0 0.0 0.0 0.0 0.0 0.0 0.0
0.0 0.0 0.0 0.0 0.0 0.0 0.0 0.0
0.0 0.0 0.0 0.0 0.0 0.0 0.0 0.0
0.0 0.0 0.0 0.0 0.0 0.0 0.0 0.0
0.0 0.0 0.0 0.0 0.0 0.0 0.0 0.0
0.0 0.0 0.0 0.0 0.0 0.0 0.0 0.0
0.0 0.0 0.0 0.0 0.0 0.0 0.0 0.0
0.0 0.0 0.0 0.0 0.0 0.0 0.0 0.0
00000000: 8080 8080 8080 8080 8080 8080 8080 8080
00000010: 8080 8080 8080 8080 8080 8080 8080 8080
00000020: 8080 8080 8080 8080 8080 8080 8080 8080
00000030: 8080 8080 8080 8080 8080 8080 8080 8080
00000040: 8080 8080 8080 8080 8080 8080 8080 8080
00000050: 8080 8080 8080 8080 8080 8080 8080 8080
00000060: 8080 8080 8080 8080 8080 8080 8080 8080
00000070: 8080 8080 8080 8080 8080 8080 8080 8080
00000080: 8080 8080 8080 8080 8080 8080 8080 8080
00000090: 8080 8080 8080 8080 8080 8080 8080 8080
000000a0: 8080 8080 8080 8080 8080 8080 8080 8080
000000b0: 8080 8080 8080 8080 8080 8080 8080 8080
000000c0: 8080 8080 8080 8080 8080 8080 8080 8080
000000d0: 8080 8080 8080 8080 8080 8080 8080 8080
000000e0: 8080 8080 8080 8080 8080 8080 8080 8080
000000f0: 8080 8080 8080 8080 8080 8080 8080 8080

tfl.pseudo_qconst29 i1 [1, 14, 1, 64] scale=0.025047593 zero_point=-128
0.0 0.0 0.0 0.0 0.0 0.0 0.0 0.0
0.0 0.0 0.0 0.0 0.0 0.0 0.0 0.0
0.0 0.0 0.0 0.0 0.0 0.0 0.0 0.0
0.0 0.0 0.0 0.0 0.0 0.0 0.0 0.0
0.0 0.0 0.0 0.0 0.0 0.0 0.0 0.0
0.0 0.0 0.0 0.0 0.0 0.0 0.0 0.0
0.0 0.0 0.0 0.0 0.0 0.0 0.0 0.0
0.0 0.0 0.0 0.0 0.0 0.0 0.0 0.0
0.0 0.0 0.0 0.0 0.0 0.0 0.0 0.0
0.0 0.0 0.0 0.0 0.0 0.0 0.0 0.0
0.0 0.0 0.0 0.0 0.0 0.0 0.0 0.0
0.0 0.0 0.0 0.0 0.0 0.0 0.0 0.0
0.0 0.0 0.0 0.0 0.0 0.0 0.0 0.0
0.0 0.0 0.0 0.0 0.0 0.0 0.0 0.0
0.0 0.0 0.0 0.0 0.0 0.0 0.0 0.0
0.0 0.0 0.0 0.0 0.0 0.0 0.0 0.0
0.0 0.0 0.0 0.0 0.0 0.0 0.0 0.0
0.0 0.0 0.0 0.0 0.0 0.0 0.0 0.0
0.0 0.0 0.0 0.0 0.0 0.0 0.0 0.0
0.0 0.0 0.0 0.0 0.0 0.0 0.0 0.0
0.0 0.0 0.0 0.0 0.0 0.0 0.0 0.0
0.0 0.0 0.0 0.0 0.0 0.0 0.0 0.0
0.0 0.0 0.0 0.0 0.0 0.0 0.0 0.0
0.0 0.0 0.0 0.0 0.0 0.0 0.0 0.0
0.0 0.0 0.0 0.0 0.0 0.0 0.0 0.0
0.0 0.0 0.0 0.0 0.0 0.0 0.0 0.0
0.0 0.0 0.0 0.0 0.0 0.0 0.0 0.0
0.0 0.0 0.0 0.0 0.0 0.0 0.0 0.0
0.0 0.0 0.0 0.0 0.0 0.0 0.0 0.0
0.0 0.0 0.0 0.0 0.0 0.0 0.0 0.0
0.0 0.0 0.0 0.0 0.0 0.0 0.0 0.0
0.0 0.0 0.0 0.0 0.0 0.0 0.0 0.0
00000000: 8080 8080 8080 8080 8080 8080 8080 8080
00000010: 8080 8080 8080 8080 8080 8080 8080 8080
00000020: 8080 8080 8080 8080 8080 8080 8080 8080
00000030: 8080 8080 8080 8080 8080 8080 8080 8080
00000040: 8080 8080 8080 8080 8080 8080 8080 8080
00000050: 8080 8080 8080 8080 8080 8080 8080 8080
00000060: 8080 8080 8080 8080 8080 8080 8080 8080
00000070: 8080 8080 8080 8080 8080 8080 8080 8080
00000080: 8080 8080 8080 8080 8080 8080 8080 8080
00000090: 8080 8080 8080 8080 8080 8080 8080 8080
000000a0: 8080 8080 8080 8080 8080 8080 8080 8080
000000b0: 8080 8080 8080 8080 8080 8080 8080 8080
000000c0: 8080 8080 8080 8080 8080 8080 8080 8080
000000d0: 8080 8080 8080 8080 8080 8080 8080 8080
000000e0: 8080 8080 8080 8080 8080 8080 8080 8080
000000f0: 8080 8080 8080 8080 8080 8080 8080 8080
