mww/heyg_oodah.tflite (tflite, 60944 bytes, 18 tensors)

tfl.pseudo_qconst1 i1 [1, 1088] scale=0.0018456226 zero_point=0
0.018456226 -0.12365671 -0.009228113 -0.08674426 0.044294942 -0.0018456226 -0.16241479 0.003691245
-0.107046105 0.047986187 -0.068288036 -0.044294942 -0.0018456226 -0.003691245 -0.053523052 -0.15872353
-0.097817995 -0.012919358 0.012919358 -0.10150924 -0.02952996 -0.05905992 0.0 -0.12550233
0.057214297 -0.10889173 -0.090435505 -0.114428595 -0.06275117 -0.06459679 -0.035066828 -0.049831808
-0.15872353 -0.022147471 0.016610604 -0.083053015 -0.038758073 -0.097817995 -0.00738249 -0.012919358
0.053523052 -0.011073736 -0.103354864 0.038758073 -0.05905992 -0.060905546 -0.038758073 0.044294942
-0.119965464 0.00738249 -0.1310392 -0.044294942 0.036912452 -0.053523052 0.044294942 -0.112582974
-0.105200484 0.023993094 0.012919358 -0.14395855 -0.12550233 0.012919358 -0.12365671 -0.081207395
0.022147471 -0.06459679 -0.005536868 -0.051677432 0.0018456226 -0.06459679 -0.11073735 0.066442415
-0.11073735 0.075670525 0.009228113 -0.016610604 0.011073736 -0.012919358 0.00738249 -0.025838716
-0.040603697 0.033221208 -0.012919358 -0.06275117 0.018456226 -0.081207395 -0.06275117 -0.070133656
0.038758073 -0.070133656 -0.066442415 -0.060905546 -0.027684338 -0.049831808 -0.081207395 -0.057214297
-0.14949542 0.0 0.12365671 -0.035066828 -0.01476498 -0.005536868 0.0018456226 -0.070133656
0.0 0.023993094 -0.081207395 -0.038758073 -0.031375583 -0.023993094 -0.044294942 -0.0018456226
-0.031375583 0.018456226 -0.16056916 0.011073736 0.10150924 -0.07197928 0.020301849 -0.01476498
-0.005536868 0.025838716 -0.016610604 -0.075670525 -0.103354864 -0.022147471 -0.003691245 -0.044294942
0.025838716 0.00738249 -0.07936177 -0.06275117 0.036912452 0.060905546 -0.066442415 -0.005536868
-0.088589884 0.095972374 -0.009228113 -0.10150924 0.033221208 -0.038758073 -0.051677432 -0.012919358
-0.003691245 0.066442415 -0.07936177 0.046140563 0.040603697 0.020301849 0.016610604 -0.088589884
0.047986187 -0.092281125 -0.105200484 -0.066442415 -0.103354864 0.042449318 -0.12550233 -0.16241479
-0.13657607 -0.025838716 0.036912452 -0.016610604 -0.051677432 0.020301849 -0.07936177 -0.119965464
0.046140563 -0.06459679 -0.09412675 -0.033221208 -0.035066828 -0.084898636 -0.095972374 -0.005536868
-0.038758073 -0.012919358 -0.119965464 -0.020301849 0.07936177 -0.023993094 -0.023993094 0.009228113
-0.011073736 -0.049831808 0.031375583 -0.055368677 -0.105200484 -0.035066828 0.0018456226 0.011073736
-0.036912452 -0.088589884 -0.036912452 0.031375583 0.10150924 0.012919358 -0.035066828 0.09412675
-0.084898636 0.027684338 0.047986187 -0.088589884 0.023993094 -0.036912452 0.06459679 -0.012919358
0.033221208 0.035066828 -0.084898636 -0.025838716 -0.103354864 -0.097817995 -0.060905546 -0.005536868
0.049831808 -0.011073736 0.012919358 -0.095972374 -0.077516146 0.047986187 -0.02952996 -0.12550233
-0.05905992 0.031375583 0.022147471 0.018456226 -0.011073736 -0.105200484 0.060905546 -0.038758073
0.05905992 -0.0018456226 -0.060905546 0.020301849 -0.075670525 -0.036912452 -0.077516146 0.02952996
-0.012919358 -0.046140563 -0.08674426 0.033221208 -0.025838716 -0.016610604 0.06459679 0.00738249
-0.13473044 -0.023993094 0.025838716 0.02952996 -0.077516146 0.020301849 0.02952996 -0.031375583
00000000: 0abd fbd1 18ff a802 c61a dbe8 fffe e3aa
00000010: cbf9 07c9 f0e0 00bc 1fc5 cfc2 dedd ede5
00000020: aaf4 09d3 ebcb fcf9 1dfa c815 e0df eb18
00000030: bf04 b9e8 14e3 18c3 c70d 07b2 bc07 bdd4
00000040: 0cdd fde4 01dd c424 c429 05f7 06f9 04f2
00000050: ea12 f9de 0ad4 deda 15da dcdf f1e5 d4e1
00000060: af00 43ed f8fd 01da 000d d4eb eff3 e8ff
00000070: ef0a a906 37d9 0bf8 fd0e f7d7 c8f4 fee8
00000080: 0e04 d5de 1421 dcfd d034 fbc9 12eb e4f9
00000090: fe24 d519 160b 09d0 1ace c7dc c817 bca8
000000a0: b6f2 14f7 e40b d5bf 19dd cdee edd2 ccfd
000000b0: ebf9 bff5 2bf3 f305 fae5 11e2 c7ed 0106
000000c0: ecd0 ec11 3707 ed33 d20f 1ad0 0dec 23f9
000000d0: 1213 d2f2 c8cb dffd 1bfa 07cc d61a f0bc
000000e0: e011 0c0a fac7 21eb 20ff df0b d7ec d610
000000f0: f9e7 d112 f2f7 2304 b7f3 0e10 d60b 10ef

tfl.pseudo_qconst3 i1 [64, 1, 1, 64]
-19 -4 15 -54 -39 77 21 -21
-4 55 -8 -24 76 -76 -56 19
45 -46 127 -72 -107 7 -75 -18
-2 0 -14 6 -86 -12 52 -44
65 -36 -6 33 -16 0 -51 -23
21 -23 -3 -40 36 -32 -48 28
27 7 -15 28 -64 36 14 42
-51 -13 91 14 48 11 29 -27
39 -33 42 -10 32 -10 55 27
-32 -74 9 -43 -19 -45 -79 58
-70 -45 18 84 -10 -87 23 30
-62 2 41 -49 -3 26 -67 75
-17 67 84 65 5 -62 32 -80
70 -1 39 -6 98 -12 -78 -93
48 -96 97 0 30 48 44 27
-38 49 48 8 -19 127 91 103
6 -22 -54 22 8 -16 78 22
52 127 86 -84 75 26 108 -42
-20 80 -53 81 -80 -58 24 78
-53 -10 -59 -14 -70 -54 -72 17
-58 44 -54 -34 -12 79 93 -62
-23 -13 29 -57 45 57 8 -52
-44 -16 41 -22 6 -57 34 -54
-26 -55 -95 -110 -46 -57 -67 -33
57 5 32 28 -102 20 -14 88
-79 47 15 66 39 -27 9 29
-101 -83 80 5 -62 -12 37 60
-90 -63 45 75 -16 -39 43 -41
-88 45 20 -49 36 -61 5 -56
14 45 47 -59 127 57 -39 -8
-87 -15 45 54 81 -122 -15 -62
-38 18 -72 -3 40 5 -20 -118
00000000: edfc 0fca d94d 15eb fc37 f8e8 4cb4 c813
00000010: 2dd2 7fb8 9507 b5ee fe00 f206 aaf4 34d4
00000020: 41dc fa21 f000 cde9 15e9 fdd8 24e0 d01c
00000030: 1b07 f11c c024 0e2a cdf3 5b0e 300b 1de5
00000040: 27df 2af6 20f6 371b e0b6 09d5 edd3 b13a
00000050: bad3 1254 f6a9 171e c202 29cf fd1a bd4b
00000060: ef43 5441 05c2 20b0 46ff 27fa 62f4 b2a3
00000070: 30a0 6100 1e30 2c1b da31 3008 ed7f 5b67
00000080: 06ea ca16 08f0 4e16 347f 56ac 4b1a 6cd6
00000090: ec50 cb51 b0c6 184e cbf6 c5f2 baca b811
000000a0: c62c cade f44f 5dc2 e9f3 1dc7 2d39 08cc
000000b0: d4f0 29ea 06c7 22ca e6c9 a192 d2c7 bddf
000000c0: 3905 201c 9a14 f258 b12f 0f42 27e5 091d
000000d0: 9bad 5005 c2f4 253c a6c1 2d4b f0d9 2bd7
000000e0: a82d 14cf 24c3 05c8 0e2d 2fc5 7f39 d9f8
000000f0: a9f1 2d36 5186 f1c2 da12 b8fd 2805 ec8a

tfl.pseudo_qconst5 i1 [1, 23, 1, 64]
-112 94 26 -51 22 -68 -12 -48
-45 106 34 127 -47 -29 -92 25
108 -71 1 -35 -90 127 -62 79
64 127 -127 -31 -15 48 91 11
44 -119 -2 -39 35 -71 -28 13
-61 48 39 -127 113 74 -56 -127
-127 -8 -127 19 -40 -19 -127 -119
-71 -127 6 21 -18 -127 105 -33
-117 127 -8 -1 50 -127 -26 -43
-127 31 -4 101 0 -49 -82 -8
117 -24 -14 -37 -23 50 -127 -87
69 80 -120 -57 -97 56 127 -52
24 -37 59 43 -59 44 9 50
-25 77 -8 -87 112 75 -68 -95
-102 -14 -46 -9 -37 5 -90 -115
-24 -113 29 13 -13 -109 56 -27
-127 57 33 -83 26 -109 -23 5
-45 51 21 12 -55 -69 -80 -48
127 -6 20 -83 -4 70 -82 -123
-32 120 -5 -50 -92 -10 24 -44
33 -79 41 14 -65 21 63 8
56 -113 12 -112 127 -77 -96 -59
-87 84 -101 86 33 34 31 -45
85 -67 37 10 1 -92 21 -27
-83 34 -46 -76 -123 -52 -89 73
-12 -27 -79 -17 -5 -74 0 -73
20 -46 -15 6 -20 58 -85 47
-9 83 -33 25 20 30 77 -23
-16 -63 -80 127 -44 119 29 41
28 -127 -10 -18 73 -68 -95 -95
-85 19 -98 71 -12 38 92 -29
-51 -41 -21 -11 45 -79 -61 -11
00000000: 905e 1acd 16bc f4d0 d36a 227f d1e3 a419
00000010: 6cb9 01dd a67f c24f 407f 81e1 f130 5b0b
00000020: 2c89 fed9 23b9 e40d c330 2781 714a c881
00000030: 81f8 8113 d8ed 8189 b981 0615 ee81 69df
00000040: 8b7f f8ff 3281 e6d5 811f fc65 00cf aef8
00000050: 75e8 f2db e932 81a9 4550 88c7 9f38 7fcc
00000060: 18db 3b2b c52c 0932 e74d f8a9 704b bca1
00000070: 9af2 d2f7 db05 a68d e88f 1d0d f393 38e5
00000080: 8139 21ad 1a93 e905 d333 150c c9bb b0d0
00000090: 7ffa 14ad fc46 ae85 e078 fbce a4f6 18d4
000000a0: 21b1 290e bf15 3f08 388f 0c90 7fb3 a0c5
000000b0: a954 9b56 2122 1fd3 55bd 250a 01a4 15e5
000000c0: ad22 d2b4 85cc a749 f4e5 b1ef fbb6 00b7
000000d0: 14d2 f106 ec3a ab2f f753 df19 141e 4de9
000000e0: f0c1 b07f d477 1d29 1c81 f6ee 49bc a1a1
000000f0: ab13 9e47 f426 5ce3 cdd7 ebf5 2db1 c3f5

tfl.pseudo_qconst7 i1 [64, 1, 1, 64]
35 -12 25 29 -17 -7 32 -6
-41 -72 -5 -77 13 3 -14 -12
-41 39 -43 -20 -3 -72 -4 -1
-57 19 31 -72 42 -26 14 -13
-50 -30 9 -127 -28 33 -84 -73
52 21 28 23 -26 38 -77 -5
-21 0 44 31 19 -6 -63 -24
19 -27 32 87 -15 -27 90 63
36 -67 29 -26 -96 127 95 -58
74 -98 -45 25 80 30 -119 -35
26 -11 39 -52 67 -39 33 -14
-72 -50 34 19 17 4 43 26
-76 78 15 -59 -33 17 -77 87
-74 -40 77 19 -62 -23 -3 10
-26 5 57 3 69 20 -9 11
-3 -39 46 -89 3 -9 -9 -12
45 -51 -86 0 52 -3 12 -23
-24 5 -10 -115 47 38 61 27
-60 94 -3 -127 33 -75 -39 82
79 4 -4 11 -70 -94 4 -55
48 -32 48 -29 -79 -65 -47 70
-51 57 -58 14 42 -61 -39 -33
-25 -72 21 18 -18 -22 51 7
92 68 63 -62 35 -66 -43 -55
-21 87 -4 -33 80 -46 -90 -35
2 60 80 -11 -40 56 59 33
-4 49 95 -25 2 -40 -51 -52
-51 -126 -122 87 -3 -19 81 -21
65 -88 50 -55 35 61 87 84
18 92 106 -127 -88 -44 -87 87
-74 -64 26 31 47 94 -56 44
89 39 -85 124 4 42 94 -72
00000000: 23f4 191d eff9 20fa d7b8 fbb3 0d03 f2f4
00000010: d727 d5ec fdb8 fcff c713 1fb8 2ae6 0ef3
00000020: cee2 0981 e421 acb7 3415 1c17 e626 b3fb
00000030: eb00 2c1f 13fa c1e8 13e5 2057 f1e5 5a3f
00000040: 24bd 1de6 a07f 5fc6 4a9e d319 501e 89dd
00000050: 1af5 27cc 43d9 21f2 b8ce 2213 1104 2b1a
00000060: b44e 0fc5 df11 b357 b6d8 4d13 c2e9 fd0a
00000070: e605 3903 4514 f70b fdd9 2ea7 03f7 f7f4
00000080: 2dcd aa00 34fd 0ce9 e805 f68d 2f26 3d1b
00000090: c45e fd81 21b5 d952 4f04 fc0b baa2 04c9
000000a0: 30e0 30e3 b1bf d146 cd39 c60e 2ac3 d9df
000000b0: e7b8 1512 eeea 3307 5c44 3fc2 23be d5c9
000000c0: eb57 fcdf 50d2 a6dd 023c 50f5 d838 3b21
000000d0: fc31 5fe7 02d8 cdcc cd82 8657 fded 51eb
000000e0: 41a8 32c9 233d 5754 125c 6a81 a8d4 a957
000000f0: b6c0 1a1f 2f5e c82c 5927 ab7c 042a 5eb8

tfl.pseudo_qconst9 i1 [1, 15, 1, 32]
86 17 28 -27 -66 29 -17 -34
91 127 10 52 -7 127 -46 -73
2 68 -103 -79 26 101 -21 4
-8 -26 -10 81 34 -26 72 56
34 -78 -6 -59 -33 -14 44 -45
111 43 -34 93 43 55 -47 -9
59 23 127 45 54 123 20 3
-19 -51 91 70 -6 -116 -26 -8
-84 -98 63 -59 -19 -117 71 -32
25 22 50 127 45 -54 6 42
20 127 -39 55 -7 97 16 22
-63 29 -5 95 -21 11 60 68
-18 -127 -67 2 -67 75 127 -127
-59 124 -41 -48 0 -95 28 102
-127 72 85 44 2 127 -76 -39
-51 5 -94 127 -33 -127 -43 -62
46 -70 -42 15 -127 -43 56 -71
-32 49 -23 -77 42 -51 45 127
25 -2 -32 -52 -44 -17 15 -118
-3 20 -115 21 19 -39 7 47
-71 3 7 -59 -13 12 -40 -35
101 -37 -14 6 -59 11 -47 78
-71 41 -91 82 -33 10 -66 -67
8 -82 -66 51 -1 19 41 70
15 40 -33 17 -97 92 62 30
127 41 -3 -40 40 73 -22 -86
70 59 59 -75 29 12 93 -98
27 -113 -127 -49 41 103 -4 -1
-89 67 49 64 -127 89 -12 74
-30 -76 -45 81 -16 -65 17 -78
-4 65 53 49 -55 -53 97 44
7 -127 23 -58 18 -8 -16 21
00000000: 5611 1ce5 be1d efde 5b7f 0a34 f97f d2b7
00000010: 0244 99b1 1a65 eb04 f8e6 f651 22e6 4838
00000020: 22b2 fac5 dff2 2cd3 6f2b de5d 2b37 d1f7
00000030: 3b17 7f2d 367b 1403 edcd 5b46 fa8c e6f8
00000040: ac9e 3fc5 ed8b 47e0 1916 327f 2dca 062a
00000050: 147f d937 f961 1016 c11d fb5f eb0b 3c44
00000060: ee81 bd02 bd4b 7f81 c57c d7d0 00a1 1c66
00000070: 8148 552c 027f b4d9 cd05 a27f df81 d5c2
00000080: 2eba d60f 81d5 38b9 e031 e9b3 2acd 2d7f
00000090: 19fe e0cc d4ef 0f8a fd14 8d15 13d9 072f
000000a0: b903 07c5 f30c d8dd 65db f206 c50b d14e
000000b0: b929 a552 df0a bebd 08ae be33 ff13 2946
000000c0: 0f28 df11 9f5c 3e1e 7f29 fdd8 2849 eaaa
000000d0: 463b 3bb5 1d0c 5d9e 1b8f 81cf 2967 fcff
000000e0: a743 3140 8159 f44a e2b4 d351 f0bf 11b2
000000f0: fc41 3531 c9cb 612c 0781 17c6 12f8 f015

tfl.pseudo_qconst11 i1 [1, 9, 1, 32]
97 29 17 -46 117 102 -19 -101
2 -26 -93 32 -58 73 -11 85
100 -73 -72 -41 125 1 16 -127
127 35 -90 -24 -18 53 -3 107
17 70 -58 -24 -28 -38 -63 101
-1 -49 -127 -113 -63 -20 -79 -49
-58 -71 65 -27 116 38 -51 -7
88 -1 -84 50 46 -10 -19 48
86 89 89 -83 69 81 32 70
100 93 73 -10 -127 20 -70 76
-127 31 -34 -20 33 15 19 18
104 -18 -75 -127 46 14 41 -32
-62 61 127 -68 47 87 105 60
38 127 69 -20 -72 -54 83 -98
-10 -1 -42 -41 -127 79 -18 73
70 127 16 16 21 115 32 127
-71 -73 -53 -69 -116 28 -61 127
89 89 115 -76 -32 -89 15 -106
-10 24 63 7 -46 35 86 62
36 56 31 -11 -39 127 29 -114
-53 -127 -102 -25 25 127 -46 77
127 110 124 -127 27 -15 127 -127
96 66 70 0 -24 -107 -41 -22
-64 25 -127 74 -3 108 3 44
-127 -90 -102 127 -127 84 -14 21
116 69 17 57 -20 -127 -87 10
96 77 84 115 90 -127 21 -33
53 -123 23 26 26 65 16 -82
-65 -58 5 95 55 5 -62 106
95 95 48 -127 -5 -72 -31 -22
32 127 127 77 -24 37 54 117
44 -71 -127 -74 -127 -22 -20 3
00000000: 611d 11d2 7566 ed9b 02e6 a320 c649 f555
00000010: 64b7 b8d7 7d01 1081 7f23 a6e8 ee35 fd6b
00000020: 1146 c6e8 e4da c165 ffcf 818f c1ec b1cf
00000030: c6b9 41e5 7426 cdf9 58ff ac32 2ef6 ed30
00000040: 5659 59ad 4551 2046 645d 49f6 8114 ba4c
00000050: 811f deec 210f 1312 68ee b581 2e0e 29e0
00000060: c23d 7fbc 2f57 693c 267f 45ec b8ca 539e
00000070: f6ff d6d7 814f ee49 467f 1010 1573 207f
00000080: b9b7 cbbb 8c1c c37f 5959 73b4 e0a7 0f96
00000090: f618 3f07 d223 563e 2438 1ff5 d97f 1d8e
000000a0: cb81 9ae7 197f d24d 7f6e 7c81 1bf1 7f81
000000b0: 6042 4600 e895 d7ea c019 814a fd6c 032c
000000c0: 81a6 9a7f 8154 f215 7445 1139 ec81 a90a
000000d0: 604d 5473 5a81 15df 3585 171a 1a41 10ae
000000e0: bfc6 055f 3705 c26a 5f5f 3081 fbb8 e1ea
000000f0: 207f 7f4d e825 3675 2cb9 81b6 81ea ec03

tfl.pseudo_qconst13 i1 [64, 1, 1, 64]
-66 33 46 -127 -7 -3 -45 -23
71 -7 -10 -5 63 -25 -47 45
-60 -31 49 48 52 -47 25 -47
-52 -93 15 31 -30 33 23 -109
100 -46 -19 10 34 -115 -53 -25
-61 5 70 -48 16 29 58 8
27 -69 -80 -8 -83 -7 -63 29
-91 1 -51 18 -21 61 -17 26
44 -36 35 -27 5 57 -22 -75
-81 48 1 -22 -95 36 41 51
77 17 58 18 -73 -1 78 -28
-45 -65 -1 -21 50 34 127 67
-39 1 25 -37 -5 -1 69 -11
36 -9 54 39 54 -44 78 27
24 15 -62 58 -34 -84 -80 -84
-12 38 -30 42 -6 56 52 3
-28 -17 78 41 -26 -63 8 -35
-127 -99 64 -23 -28 22 45 39
18 103 56 -43 -79 -14 16 17
20 14 59 -80 37 39 -35 37
-10 23 48 63 -109 -74 22 -7
-21 -15 91 -37 -49 74 -60 61
-112 -15 -19 26 -5 73 24 -90
34 83 62 49 55 -5 -60 41
26 -70 -93 -47 72 -80 -32 66
-38 82 4 -64 42 -69 56 58
26 34 -30 -115 37 27 31 55
60 -4 -71 28 -12 38 -34 83
46 -92 -30 -14 55 -25 -39 58
127 53 -56 -47 -31 -58 -37 -13
23 13 -30 -39 31 72 64 -24
-16 -71 -40 105 2 7 -54 -103
00000000: be21 2e81 f9fd d3e9 47f9 f6fb 3fe7 d12d
00000010: c4e1 3130 34d1 19d1 cca3 0f1f e221 1793
00000020: 64d2 ed0a 228d cbe7 c305 46d0 101d 3a08
00000030: 1bbb b0f8 adf9 c11d a501 cd12 eb3d ef1a
00000040: 2cdc 23e5 0539 eab5 af30 01ea a124 2933
00000050: 4d11 3a12 b7ff 4ee4 d3bf ffeb 3222 7f43
00000060: d901 19db fbff 45f5 24f7 3627 36d4 4e1b
00000070: 180f c23a deac b0ac f426 e22a fa38 3403
00000080: e4ef 4e29 e6c1 08dd 819d 40e9 e416 2d27
00000090: 1267 38d5 b1f2 1011 140e 3bb0 2527 dd25
000000a0: f617 303f 93b6 16f9 ebf1 5bdb cf4a c43d
000000b0: 90f1 ed1a fb49 18a6 2253 3e31 37fb c429
000000c0: 1aba a3d1 48b0 e042 da52 04c0 2abb 383a
000000d0: 1a22 e28d 251b 1f37 3cfc b91c f426 de53
000000e0: 2ea4 e2f2 37e7 d93a 7f35 c8d1 e1c6 dbf3
000000f0: 170d e2d9 1f48 40e8 f0b9 d869 0207 ca99

tfl.pseudo_qconst15 i1 [1, 11, 1, 32]
67 -33 122 -68 60 8 45 25
-44 12 42 48 69 46 30 35
57 127 -6 4 -56 -13 3 -3
109 -49 -10 -127 73 -9 -31 -127
110 26 -32 52 -38 48 127 0
-49 52 112 81 97 -18 100 56
76 -37 2 5 -101 95 -33 -87
-74 -36 44 17 18 -63 -58 24
127 56 -127 -3 -127 -82 24 13
19 -45 95 1 93 -42 61 73
-117 75 51 -24 -76 -86 -68 106
-127 14 127 -47 -113 73 -76 122
50 -127 47 -104 2 10 105 100
20 43 -82 -27 62 127 127 -127
-127 -52 -8 127 -27 63 86 -26
-54 107 -13 56 -18 -7 -59 95
-21 -94 62 118 73 -127 -2 -9
-15 46 -43 20 -71 66 99 -66
-2 54 14 -22 69 -54 -24 -127
-36 -105 -35 -46 81 65 5 -19
3 21 47 -127 111 43 -27 -8
93 33 48 -17 -36 20 19 -55
28 63 71 -74 27 85 -22 -89
93 -107 44 -3 -54 37 59 68
-93 -5 13 29 -73 74 -93 -3
127 28 19 -8 -49 82 -107 15
-18 90 -10 -64 26 90 -112 -31
36 63 60 39 -49 89 26 9
19 91 54 118 -15 -53 -74 -58
-21 -115 41 37 -102 -15 -96 54
116 117 -127 -43 -56 127 -127 -99
-12 127 67 -35 -119 127 22 -82
00000000: 43df 7abc 3c08 2d19 d40c 2a30 452e 1e23
00000010: 397f fa04 c8f3 03fd 6dcf f681 49f7 e181
00000020: 6e1a e034 da30 7f00 cf34 7051 61ee 6438
00000030: 4cdb 0205 9b5f dfa9 b6dc 2c11 12c1 c618
00000040: 7f38 81fd 81ae 180d 13d3 5f01 5dd6 3d49
00000050: 8b4b 33e8 b4aa bc6a 810e 7fd1 8f49 b47a
00000060: 3281 2f98 020a 6964 142b aee5 3e7f 7f81
00000070: 81cc f87f e53f 56e6 ca6b f338 eef9 c55f
00000080: eba2 3e76 4981 fef7 f12e d514 b942 63be
00000090: fe36 0eea 45ca e881 dc97 ddd2 5141 05ed
000000a0: 0315 2f81 6f2b e5f8 5d21 30ef dc14 13c9
000000b0: 1c3f 47b6 1b55 eaa7 5d95 2cfd ca25 3b44
000000c0: a3fb 0d1d b74a a3fd 7f1c 13f8 cf52 950f
000000d0: ee5a f6c0 1a5a 90e1 243f 3c27 cf59 1a09
000000e0: 135b 3676 f1cb b6c6 eb8d 2925 9af1 a036
000000f0: 7475 81d5 c87f 819d f47f 43dd 897f 16ae

tfl.pseudo_qconst17 i1 [1, 7, 1, 32]
-24 -101 72 106 -127 68 100 12
-61 32 49 127 28 69 45 91
-61 83 61 -53 65 127 38 43
-78 89 -24 127 -50 28 -39 -69
-34 -52 6 19 96 -37 -127 66
-127 0 75 117 -2 -42 75 -7
91 89 29 -127 127 27 39 50
106 67 -116 98 33 35 -57 14
-51 -127 -89 6 109 -127 -57 71
-96 72 17 -52 74 -127 79 -19
65 -13 -54 -17 0 -123 -42 94
75 -120 57 -64 -123 36 127 91
127 -113 6 127 67 -120 -23 -3
-40 107 -21 -101 78 -88 47 69
-35 -1 -51 -58 -3 -68 -127 61
21 -127 63 -12 -109 108 106 -43
-42 -9 -31 11 46 31 8 -24
119 53 0 104 94 -39 -48 -55
-127 -22 -44 -69 -115 68 -24 25
7 32 -127 75 -127 -127 54 -127
-13 -57 -127 111 -30 44 -103 -10
-68 -127 -83 50 127 -23 -127 127
-14 25 -121 -70 0 79 -111 101
-127 16 -15 40 -65 -66 -45 6
37 -118 -126 111 64 41 -24 127
97 119 -127 87 -54 -122 -70 6
-5 -127 -127 86 -33 -62 72 127
-112 -35 -51 125 19 49 -127 71
00000000: e89b 486a 8144 640c c320 317f 1c45 2d5b
00000010: c353 3dcb 417f 262b b259 e87f ce1c d9bb
00000020: decc 0613 60db 8142 8100 4b75 fed6 4bf9
00000030: 5b59 1d81 7f1b 2732 6a43 8c62 2123 c70e
00000040: cd81 a706 6d81 c747 a048 11cc 4a81 4fed
00000050: 41f3 caef 0085 d65e 4b88 39c0 8524 7f5b
00000060: 7f8f 067f 4388 e9fd d86b eb9b 4ea8 2f45
00000070: ddff cdc6 fdbc 813d 1581 3ff4 936c 6ad5
00000080: d6f7 e10b 2e1f 08e8 7735 0068 5ed9 d0c9
00000090: 81ea d4bb 8d44 e819 0720 814b 8181 3681
000000a0: f3c7 816f e22c 99f6 bc81 ad32 7fe9 817f
000000b0: f219 87ba 004f 9165 8110 f128 bfbe d306
000000c0: 258a 826f 4029 e87f 6177 8157 ca86 ba06
000000d0: fb81 8156 dfc2 487f 90dd cd7d 1331 8147

tfl.pseudo_qconst19 i1 [64, 1, 1, 32]
-27 -69 -46 127 8 110 85 -36
-109 -107 75 -46 64 -24 -9 79
79 6 49 -67 -22 -30 -87 48
19 5 13 16 -93 -41 94 -11
-8 36 -15 127 -33 64 -71 -83
-66 -7 -23 -33 -1 -14 27 71
-10 -92 70 83 17 -47 19 21
10 -67 40 -68 68 -32 72 -29
82 39 -14 -96 39 45 -29 -31
102 -93 -45 -112 33 42 120 -103
100 -5 27 -9 108 52 -127 -110
-95 -50 -45 -11 63 49 17 -2
-103 85 63 32 -60 -92 -45 36
-98 1 -89 78 -127 -85 5 43
86 78 86 91 73 17 50 -1
49 -14 -23 -7 -91 -81 20 36
73 -78 44 22 -53 -58 95 49
75 -82 46 -127 37 45 -60 -97
46 -34 34 79 -28 9 -76 9
41 -38 -49 -93 70 -33 59 28
17 0 -12 24 112 18 -19 9
127 39 -113 0 -2 55 55 49
9 17 75 -57 -38 -57 -62 74
5 30 5 14 -17 8 37 21
49 19 22 67 -33 60 22 -7
-53 40 55 -127 -46 -75 80 67
-3 9 -73 55 54 19 -53 -5
25 42 -62 39 64 0 38 -33
-32 -45 63 0 -72 43 102 -46
94 -127 -56 -65 58 -22 69 -87
104 -8 81 87 54 41 48 43
35 68 82 -33 -85 23 -11 -28
00000000: e5bb d27f 086e 55dc 9395 4bd2 40e8 f74f
00000010: 4f06 31bd eae2 a930 1305 0d10 a3d7 5ef5
00000020: f824 f17f df40 b9ad bef9 e9df fff2 1b47
00000030: f6a4 4653 11d1 1315 0abd 28bc 44e0 48e3
00000040: 5227 f2a0 272d e3e1 66a3 d390 212a 7899
00000050: 64fb 1bf7 6c34 8192 a1ce d3f5 3f31 11fe
00000060: 9955 3f20 c4a4 d324 9e01 a74e 81ab 052b
00000070: 564e 565b 4911 32ff 31f2 e9f9 a5af 1424
00000080: 49b2 2c16 cbc6 5f31 4bae 2e81 252d c49f
00000090: 2ede 224f e409 b409 29da cfa3 46df 3b1c
000000a0: 1100 f418 7012 ed09 7f27 8f00 fe37 3731
000000b0: 0911 4bc7 dac7 c24a 051e 050e ef08 2515
000000c0: 3113 1643 df3c 16f9 cb28 3781 d2b5 5043
000000d0: fd09 b737 3613 cbfb 192a c227 4000 26df
000000e0: e0d3 3f00 b82b 66d2 5e81 c8bf 3aea 45a9
000000f0: 68f8 5157 3629 302b 2344 52df ab17 f5e4

tfl.pseudo_qconst21 i1 [1, 5, 1, 32]
-127 120 -127 -97 -29 -20 102 127
-16 -38 -29 12 -86 -90 -73 -71
-39 -123 77 -51 -64 122 90 56
-127 52 127 127 -127 91 -9 -69
-40 127 -102 -101 127 -56 127 80
-112 -25 -35 127 9 33 -50 13
68 -79 91 -127 21 9 -11 53
-93 5 114 -37 -94 80 -49 -127
-40 20 -9 -127 -24 -15 -51 -37
26 13 -127 -27 101 17 -83 102
81 127 2 -60 -39 -127 -1 127
53 8 -69 92 90 106 -56 -94
-10 -98 -30 54 108 111 60 -47
127 40 29 7 127 -127 -127 -39
127 75 -127 -105 101 44 -13 9
-96 35 -64 33 -17 -32 -92 104
-54 -93 -17 -84 -15 127 -69 55
26 -127 7 -101 34 -90 3 -127
-32 20 -29 -81 127 7 -127 96
-2 127 89 115 -80 -127 -127 6
00000000: 8178 819f e3ec 667f f0da e30c aaa6 b7b9
00000010: d985 4dcd c07a 5a38 8134 7f7f 815b f7bb
00000020: d87f 9a9b 7fc8 7f50 90e7 dd7f 0921 ce0d
00000030: 44b1 5b81 1509 f535 a305 72db a250 cf81
00000040: d814 f781 e8f1 cddb 1a0d 81e5 6511 ad66
00000050: 517f 02c4 d981 ff7f 3508 bb5c 5a6a c8a2
00000060: f69e e236 6c6f 3cd1 7f28 1d07 7f81 81d9
00000070: 7f4b 8197 652c f309 a023 c021 efe0 a468
00000080: caa3 efac f17f bb37 1a81 079b 22a6 0381
00000090: e014 e3af 7f07 8160 fe7f 5973 b081 8106

tfl.pseudo_qconst23 i1 [32, 5, 1, 40]
10 30 7 -32 -1 8 -28 -15
-53 -56 -44 -93 -52 -13 3 109
44 41 -49 48 42 9 40 6
31 53 79 20 47 -65 30 5
-47 -33 59 -17 2 33 4 -39
-50 2 29 25 -44 -13 -60 -13
46 -11 -98 -46 6 -67 -27 66
-16 30 8 -39 34 13 18 5
21 68 23 -8 44 -30 -11 -84
-48 -46 52 70 31 -10 1 64
30 79 58 62 -15 -19 -40 75
11 57 -40 57 -89 -26 -14 29
-3 39 -19 -81 -14 -68 63 -42
67 53 -8 74 19 -28 -19 -59
-81 -72 -18 66 42 -41 -33 -9
59 33 -20 5 -3 -7 -30 -44
-113 -127 -90 -48 -16 -72 -41 -41
-19 14 -66 -89 -67 34 30 -5
-20 9 -61 30 -26 -22 -37 -56
-32 37 -9 -31 47 -27 62 -7
-18 64 -16 -41 24 12 -69 -95
-12 53 -111 24 -24 5 -63 -62
-32 65 -36 -88 -51 -85 10 40
-30 -28 8 -59 28 -34 -30 -2
-30 -10 23 58 50 10 48 -33
11 42 60 -5 -10 20 -21 6
-19 9 5 -63 -9 -37 -13 21
-127 -75 -42 -19 -32 29 6 -83
-62 33 -73 -9 -32 14 1 -19
-48 36 61 44 51 -10 12 1
65 66 75 30 -10 32 -14 2
-41 -19 -14 -11 -24 -19 -49 -26
00000000: 0a1e 07e0 ff08 e4f1 cbc8 d4a3 ccf3 036d
00000010: 2c29 cf30 2a09 2806 1f35 4f14 2fbf 1e05
00000020: d1df 3bef 0221 04d9 ce02 1d19 d4f3 c4f3
00000030: 2ef5 9ed2 06bd e542 f01e 08d9 220d 1205
00000040: 1544 17f8 2ce2 f5ac d0d2 3446 1ff6 0140
00000050: 1e4f 3a3e f1ed d84b 0b39 d839 a7e6 f21d
00000060: fd27 edaf f2bc 3fd6 4335 f84a 13e4 edc5
00000070: afb8 ee42 2ad7 dff7 3b21 ec05 fdf9 e2d4
00000080: 8f81 a6d0 f0b8 d7d7 ed0e bea7 bd22 1efb
00000090: ec09 c31e e6ea dbc8 e025 f7e1 2fe5 3ef9
000000a0: ee40 f0d7 180c bba1 f435 9118 e805 c1c2
000000b0: e041 dca8 cdab 0a28 e2e4 08c5 1cde e2fe
000000c0: e2f6 173a 320a 30df 0b2a 3cfb f614 eb06
000000d0: ed09 05c1 f7db f315 81b5 d6ed e01d 06ad
000000e0: c221 b7f7 e00e 01ed d024 3d2c 33f6 0c01
000000f0: 4142 4b1e f620 f202 d7ed f2f5 e8ed cfe6

tfl.pseudo_qconst24 i1 [1, 22, 1, 64] scale=0.037428785 zero_point=-128
0.0 0.0 0.0 0.0 0.0 0.0 0.0 0.0
0.0 0.0 0.0 0.0 0.0 0.0 0.0 0.0
0.0 0.0 0.0 0.0 0.0 0.0 0.0 0.0
0.0 0.0 0.0 0.0 0.0 0.0 0.0 0.0
0.0 0.0 0.0 0.0 0.0 0.0 0.0 0.0
0.0 0.0 0.0 0.0 0.0 0.0 0.0 0.0
0.0 0.0 0.0 0.0 0.0 0.0 0.0 0.0
0.0 0.0 0.0 0.0 0.0 0.0 0.0 0.0
0.0 0.0 0.0 0.0 0.0 0.0 0.0 0.0
0.0 0.0 0.0 0.0 0.0 0.0 0.0 0.0
0.0 0.0 0.0 0.0 0.0 0.0 0.0 0.0
0.0 0.0 0.0 0.0 0.0 0.0 0.0 0.0
0.0 0.0 0.0 0.0 0.0 0.0 0.0 0.0
0.0 0.0 0.0 0.0 0.0 0.0 0.0 0.0
0.0 0.0 0.0 0.0 0.0 0.0 0.0 0.0
0.0 0.0 0.0 0.0 0.0 0.0 0.0 0.0
0.0 0.0 0.0 0.0 0.0 0.0 0.0 0.0
0.0 0.0 0.0 0.0 0.0 0.0 0.0 0.0
0.0 0.0 0.0 0.0 0.0 0.0 0.0 0.0
0.0 0.0 0.0 0.0 0.0 0.0 0.0 0.0
0.0 0.0 0.0 0.0 0.0 0.0 0.0 0.0
0.0 0.0 0.0 0.0 0.0 0.0 0.0 0.0
0.0 0.0 0.0 0.0 0.0 0.0 0.0 0.0
0.0 0.0 0.0 0.0 0.0 0.0 0.0 0.0
0.0 0.0 0.0 0.0 0.0 0.0 0.0 0.0
0.0 0.0 0.0 0.0 0.0 0.0 0.0 0.0
0.0 0.0 0.0 0.0 0.0 0.0 0.0 0.0
0.0 0.0 0.0 0.0 0.0 0.0 0.0 0.0
0.0 0.0 0.0 0.0 0.0 0.0 0.0 0.0
0.0 0.0 0.0 0.0 0.0 0.0 0.0 0.0
0.0 0.0 0.0 0.0 0.0 0.0 0.0 0.0
0.0 0.0 0.0 0.0 0.0 0.0 0.0 0.0
00000000: 8080 8080 8080 8080 8080 8080 8080 8080
00000010: 8080 8080 8080 8080 8080 8080 8080 8080
00000020: 8080 8080 8080 8080 8080 8080 8080 8080
00000030: 8080 8080 8080 8080 8080 8080 8080 8080
00000040: 8080 8080 8080 8080 8080 8080 8080 8080
00000050: 8080 8080 8080 8080 8080 8080 8080 8080
00000060: 8080 8080 8080 8080 8080 8080 8080 8080
00000070: 8080 8080 8080 8080 8080 8080 8080 8080
00000080: 8080 8080 8080 8080 8080 8080 8080 8080
00000090: 8080 8080 8080 8080 8080 8080 8080 8080
000000a0: 8080 8080 8080 8080 8080 8080 8080 8080
000000b0: 8080 8080 8080 8080 8080 8080 8080 8080
000000c0: 8080 8080 8080 8080 8080 8080 8080 8080
000000d0: 8080 8080 8080 8080 8080 8080 8080 8080
000000e0: 8080 8080 8080 8080 8080 8080 8080 8080
000000f0: 8080 8080 8080 8080 8080 8080 8080 8080

tfl.pseudo_qconst25 i1 [1, 16, 1, 64] scale=0.026726369 zero_point=-128
0.0 0.0 0.0 0.0 0.0 0.0 0.0 0.0
0.0 0.0 0.0 0.0 0.0 0.0 0.0 0.0
0.0 0.0 0.0 0.0 0.0 0.0 0.0 0.0
0.0 0.0 0.0 0.0 0.0 0.0 0.0 0.0
0.0 0.0 0.0 0.0 0.0 0.0 0.0 0.0
0.0 0.0 0.0 0.0 0.0 0.0 0.0 0.0
0.0 0.0 0.0 0.0 0.0 0.0 0.0 0.0
0.0 0.0 0.0 0.0 0.0 0.0 0.0 0.0
0.0 0.0 0.0 0.0 0.0 0.0 0.0 0.0
0.0 0.0 0.0 0.0 0.0 0.0 0.0 0.0
0.0 0.0 0.0 0.0 0.0 0.0 0.0 0.0
0.0 0.0 0.0 0.0 0.0 0.0 0.0 0.0
0.0 0.0 0.0 0.0 0.0 0.0 0.0 0.0
0.0 0.0 0.0 0.0 0.0 0.0 0.0 0.0
0.0 0.0 0.0 0.0 0.0 0.0 0.0 0.0
0.0 0.0 0.0 0.0 0.0 0.0 0.0 0.0
0.0 0.0 0.0 0.0 0.0 0.0 0.0 0.0
0.0 0.0 0.0 0.0 0.0 0.0 0.0 0.0
0.0 0.0 0.0 0.0 0.0 0.0 0.0 0.0
0.0 0.0 0.0 0.0 0.0 0.0 0.0 0.0
0.0 0.0 0.0 0.0 0.0 0.0 0.0 0.0
0.0 0.0 0.0 0.0 0.0 0.0 0.0 0.0
0.0 0.0 0.0 0.0 0.0 0.0 0.0 0.0
0.0 0.0 0.0 0.0 0.0 0.0 0.0 0.0
0.0 0.0 0.0 0.0 0.0 0.0 0.0 0.0
0.0 0.0 0.0 0.0 0.0 0.0 0.0 0.0
0.0 0.0 0.0 0.0 0.0 0.0 0.0 0.0
0.0 0.0 0.0 0.0 0.0 0.0 0.0 0.0
0.0 0.0 0.0 0.0 0.0 0.0 0.0 0.0
0.0 0.0 0.0 0.0 0.0 0.0 0.0 0.0
0.0 0.0 0.0 0.0 0.0 0.0 0.0 0.0
0.0 0.0 0.0 0.0 0.0 0.0 0.0 0.0
00000000: 8080 8080 8080 8080 8080 8080 8080 8080
00000010: 8080 8080 8080 8080 8080 8080 8080 8080
00000020: 8080 8080 8080 8080 8080 8080 8080 8080
00000030: 8080 8080 8080 8080 8080 8080 8080 8080
00000040: 8080 8080 8080 8080 8080 8080 8080 8080
00000050: 8080 8080 8080 8080 8080 8080 8080 8080
00000060: 8080 8080 8080 8080 8080 8080 8080 8080
00000070: 8080 8080 8080 8080 8080 8080 8080 8080
00000080: 8080 8080 8080 8080 8080 8080 8080 8080
00000090: 8080 8080 8080 8080 8080 8080 8080 8080
000000a0: 8080 8080 8080 8080 8080 8080 8080 8080
000000b0: 8080 8080 8080 8080 8080 8080 8080 8080
000000c0: 8080 8080 8080 8080 8080 8080 8080 8080
000000d0: 8080 8080 8080 8080 8080 8080 8080 8080
000000e0: 8080 8080 8080 8080 8080 8080 8080 8080
000000f0: 8080 8080 8080 8080 8080 8080 8080 8080

tfl.pseudo_qconst26 i1 [1, 2, 1, 40] scale=0.101960786 zero_point=-128
0.0 0.0 0.0 0.0 0.0 0.0 0.0 0.0
0.0 0.0 0.0 0.0 0.0 0.0 0.0 0.0
0.0 0.0 0.0 0.0 0.0 0.0 0.0 0.0
0.0 0.0 0.0 0.0 0.0 0.0 0.0 0.0
0.0 0.0 0.0 0.0 0.0 0.0 0.0 0.0
0.0 0.0 0.0 0.0 0.0 0.0 0.0 0.0
0.0 0.0 0.0 0.0 0.0 0.0 0.0 0.0
0.0 0.0 0.0 0.0 0.0 0.0 0.0 0.0
0.0 0.0 0.0 0.0 0.0 0.0 0.0 0.0
0.0 0.0 0.0 0.0 0.0 0.0 0.0 0.0
00000000: 8080 8080 8080 8080 8080 8080 8080 8080
00000010: 8080 8080 8080 8080 8080 8080 8080 8080
00000020: 8080 8080 8080 8080 8080 8080 8080 8080
00000030: 8080 8080 8080 8080 8080 8080 8080 8080
00000040: 8080 8080 8080 8080 8080 8080 8080 8080

tfl.pseudo_qconst27 i1 [1, 4, 1, 32] scale=0.52662355 zero_point=-128
0.0 0.0 0.0 0.0 0.0 0.0 0.0 0.0
0.0 0.0 0.0 0.0 0.0 0.0 0.0 0.0
0.0 0.0 0.0 0.0 0.0 0.0 0.0 0.0
0.0 0.0 0.0 0.0 0.0 0.0 0.0 0.0
0.0 0.0 0.0 0.0 0.0 0.0 0.0 0.0
0.0 0.0 0.0 0.0 0.0 0.0 0.0 0.0
0.0 0.0 0.0 0.0 0.0 0.0 0.0 0.0
0.0 0.0 0.0 0.0 0.0 0.0 0.0 0.0
0.0 0.0 0.0 0.0 0.0 0.0 0.0 0.0
0.0 0.0 0.0 0.0 0.0 0.0 0.0 0.0
0.0 0.0 0.0 0.0 0.0 0.0 0.0 0.0
0.0 0.0 0.0 0.0 0.0 0.0 0.0 0.0
0.0 0.0 0.0 0.0 0.0 0.0 0.0 0.0
0.0 0.0 0.0 0.0 0.0 0.0 0.0 0.0
0.0 0.0 0.0 0.0 0.0 0.0 0.0 0.0
0.0 0.0 0.0 0.0 0.0 0.0 0.0 0.0
00000000: 8080 8080 8080 8080 8080 8080 8080 8080
00000010: 8080 8080 8080 8080 8080 8080 8080 8080
00000020: 8080 8080 8080 8080 8080 8080 8080 8080
00000030: 8080 8080 8080 8080 8080 8080 8080 8080
00000040: 8080 8080 8080 8080 8080 8080 8080 8080
00000050: 8080 8080 8080 8080 8080 8080 8080 8080
00000060: 8080 8080 8080 8080 8080 8080 8080 8080
00000070: 8080 8080 8080 8080 8080 8080 8080 8080

tfl.pseudo_qconst28 i1 [1, 10, 1, 64] scale=0.036849707 zero_point=-128
0.0 0.0 0.0 0.0 0.0 0.0 0.0 0.0
0.0 0.0 0.0 0.0 0.0 0.0 0.0 0.0
0.0 0.0 0.0 0.0 0.0 0.0 0.0 0.0
0.0 0.0 0.0 0.0 0.0 0.0 0.0 0.0
0.0 0.0 0.0 0.0 0.0 0.0 0.0 0.0
0.0 0.0 0.0 0.0 0.0 0.0 0.0 0.0
0.0 0.0 0.0 0.0 0.0 0.0 0.0 0.0
0.0 0.0 0.0 0.0 0.0 0.0 0.0 0.0
0.0 0.0 0.0 0.0 0.0 0.0 0.0 0.0
0.0 0.0 0.0 0.0 0.0 0.0 0.0 0.0
0.0 0.0 0.0 0.0 0.0 0.0 0.0 0.0
0.0 0.0 0.0 0.0 0.0 0.0 0.0 0.0
0.0 0.0 0.0 0.0 0.0 0.0 0.0 0.0
0.0 0.0 0.0 0.0 0.0 0.0 0.0 0.0
0.0 0.0 0.0 0.0 0.0 0.0 0.0 0.0
0.0 0.0 0.0 0.0 0.0 0.0 0.0 0.0
0.0 0.0 0.0 0.0 0.0 0.0 0.0 0.0
0.0 0.0 0.0 0.0 0.0 0.0 0.0 0.0
0.0 0.0 0.0 0.0 0.0 0.0 0.0 0.0
0.0 0.0 0.0 0.0 0.0 0.0 0.0 0.0
0.0 0.0 0.0 0.0 0.0 0.0 0.0 0.0
0.0 0.0 0.0 0.0 0.0 0.0 0.0 0.0
0.0 0.0 0.0 0.0 0.0 0.0 0.0 0.0
0.0 0.0 0.0 0.0 0.0 0.0 0.0 0.0
0.0 0.0 0.0 0.0 0.0 0.0 0.0 0.0
0.0 0.0 0.0 0.0 0.0 0.0 0.0 0.0
0.0 0.0 0.0 0.0 0.0 0.0 0.0 0.0
0.0 0.0 0.0 0.0 0.0 0.0 0.0 0.0
0.0 0.0 0.0 0.0 0.0 0.0 0.0 0.0
0.0 0.0 0.0 0.0 0.0 0.0 0.0 0.0
0.0 0.0 0.0 0.0 0.0 0.0 0.0 0.0
0.0 0.0 0.0 0.0 0.0 0.0 0.0 0.0
00000000: 8080 8080 8080 8080 8080 8080 8080 8080
00000010: 8080 8080 8080 8080 8080 8080 8080 8080
00000020: 8080 8080 8080 8080 8080 8080 8080 8080
00000030: 8080 8080 8080 8080 8080 8080 8080 8080
00000040: 8080 8080 8080 8080 8080 8080 8080 8080
00000050: 8080 8080 8080 8080 8080 8080 8080 8080
00000060: 8080 8080 8080 8080 8080 8080 8080 8080
00000070: 8080 8080 8080 8080 8080 8080 8080 8080
00000080: 8080 8080 8080 8080 8080 8080 8080 8080
00000090: 8080 8080 8080 8080 8080 8080 8080 8080
000000a0: 8080 8080 8080 8080 8080 8080 8080 8080
000000b0: 8080 8080 8080 8080 8080 8080 8080 8080
000000c0: 8080 8080 8080 8080 8080 8080 8080 8080
000000d0: 8080 8080 8080 8080 8080 8080 8080 8080
000000e0: 8080 8080 8080 8080 8080 8080 8080 8080
000000f0: 8080 8080 8080 8080 8080 8080 8080 8080

tfl.pseudo_qconst29 i1 [1, 14, 1, 64] scale=0.037642665 zero_point=-128
0.0 0.0 0.0 0.0 0.0 0.0 0.0 0.0
0.0 0.0 0.0 0.0 0.0 0.0 0.0 0.0
0.0 0.0 0.0 0.0 0.0 0.0 0.0 0.0
0.0 0.0 0.0 0.0 0.0 0.0 0.0 0.0
0.0 0.0 0.0 0.0 0.0 0.0 0.0 0.0
0.0 0.0 0.0 0.0 0.0 0.0 0.0 0.0
0.0 0.0 0.0 0.0 0.0 0.0 0.0 0.0
0.0 0.0 0.0 0.0 0.0 0.0 0.0 0.0
0.0 0.0 0.0 0.0 0.0 0.0 0.0 0.0
0.0 0.0 0.0 0.0 0.0 0.0 0.0 0.0
0.0 0.0 0.0 0.0 0.0 0.0 0.0 0.0
0.0 0.0 0.0 0.0 0.0 0.0 0.0 0.0
0.0 0.0 0.0 0.0 0.0 0.0 0.0 0.0
0.0 0.0 0.0 0.0 0.0 0.0 0.0 0.0
0.0 0.0 0.0 0.0 0.0 0.0 0.0 0.0
0.0 0.0 0.0 0.0 0.0 0.0 0.0 0.0
0.0 0.0 0.0 0.0 0.0 0.0 0.0 0.0
0.0 0.0 0.0 0.0 0.0 0.0 0.0 0.0
0.0 0.0 0.0 0.0 0.0 0.0 0.0 0.0
0.0 0.0 0.0 0.0 0.0 0.0 0.0 0.0
0.0 0.0 0.0 0.0 0.0 0.0 0.0 0.0
0.0 0.0 0.0 0.0 0.0 0.0 0.0 0.0
0.0 0.0 0.0 0.0 0.0 0.0 0.0 0.0
0.0 0.0 0.0 0.0 0.0 0.0 0.0 0.0
0.0 0.0 0.0 0.0 0.0 0.0 0.0 0.0
0.0 0.0 0.0 0.0 0.0 0.0 0.0 0.0
0.0 0.0 0.0 0.0 0.0 0.0 0.0 0.0
0.0 0.0 0.0 0.0 0.0 0.0 0.0 0.0
0.0 0.0 0.0 0.0 0.0 0.0 0.0 0.0
0.0 0.0 0.0 0.0 0.0 0.0 0.0 0.0
0.0 0.0 0.0 0.0 0.0 0.0 0.0 0.0
0.0 0.0 0.0 0.0 0.0 0.0 0.0 0.0
00000000: 8080 8080 8080 8080 8080 8080 8080 8080
00000010: 8080 8080 8080 8080 8080 8080 8080 8080
00000020: 8080 8080 8080 8080 8080 8080 8080 8080
00000030: 8080 8080 8080 8080 8080 8080 8080 8080
00000040: 8080 8080 8080 8080 8080 8080 8080 8080
00000050: 8080 8080 8080 8080 8080 8080 8080 8080
00000060: 8080 8080 8080 8080 8080 8080 8080 8080
00000070: 8080 8080 8080 8080 8080 8080 8080 8080
00000080: 8080 8080 8080 8080 8080 8080 8080 8080
00000090: 8080 8080 8080 8080 8080 8080 8080 8080
000000a0: 8080 8080 8080 8080 8080 8080 8080 8080
000000b0: 8080 8080 8080 8080 8080 8080 8080 8080
000000c0: 8080 8080 8080 8080 8080 8080 8080 8080
000000d0: 8080 8080 8080 8080 8080 8080 8080 8080
000000e0: 8080 8080 8080 8080 8080 8080 8080 8080
000000f0: 8080 8080 8080 8080 8080 8080 8080 8080
