mww/hohma_sistant.tflite (tflite, 60808 bytes, 18 tensors)

tfl.pseudo_qconst1 i1 [1, 1088] scale=0.00092487945 zero_point=0
00000000: 23cb eefb 07d2 02e5 3acf 56d7 2059 e563
00000010: e66e 0f6c eb32 5704 c5c5 2e10 50e2 d853
00000020: 1a0d 36e3 206b f035 6b70 0ed1 3a5d f727
00000030: e5f1 ecc8 e313 5f37 1228 fde9 0cd9 6052
00000040: 5615 081c e2cd 7342 5dea 0351 6109 2e39
00000050: 1372 df73 cdcc e256 52f6 12df 69d4 4b20
00000060: 2138 fa5e e856 7f0b f16e 0b1c 5bfe 5a0a
00000070: f3e3 66f1 374e f129 f0ca ef46 cd08 484e
00000080: 2dcd f52c 34fa 6618 03c4 37f9 1404 2037
00000090: 3c77 f22e 19ea ff43 c9f0 4e34 70ee ef29
000000a0: f936 ffda 1e09 42de 6a5b 58c1 f005 f362
000000b0: 43d1 3dd0 d41a c214 e3ed 1ce7 d5e3 2d4d
000000c0: d00e ec37 f360 39e6 12ea cf49 11d3 c5fe
000000d0: fbf8 412b 2a49 eedf 38c1 0454 046e c626
000000e0: d45d 4b61 c7cd 14e4 2945 0bd0 531a ea3a
000000f0: f803 3d0e f93a dd18 1414 6003 42f7 6c54
0.03237078 -0.04901861 -0.01664783 -0.0046243975 0.006474156 -0.042544454 0.0018497589 -0.024971746
0.053643007 -0.04531909 0.079539634 -0.037920058 0.029596142 0.08231427 -0.024971746 0.09156307
-0.024046866 0.10173674 0.013873192 0.09988698 -0.019422468 0.046243973 0.08046451 0.0036995178
-0.05456789 -0.05456789 0.042544454 0.014798071 0.07399036 -0.027746383 -0.03699518 0.07676499
0.024046866 0.012023433 0.04994349 -0.026821503 0.029596142 0.0989621 -0.014798071 0.04901861
0.0989621 0.103586495 0.012948312 -0.043469336 0.053643007 0.08601379 -0.008323915 0.0360703
-0.024971746 -0.013873192 -0.01849759 -0.051793247 -0.026821503 0.01757271 0.08786355 0.05086837
0.01664783 0.03699518 -0.0027746384 -0.021272227 0.011098553 -0.0360703 0.08878843 0.075840116
0.079539634 0.019422468 0.0073990356 0.025896624 -0.027746383 -0.04716885 0.106361136 0.061042044
0.08601379 -0.020347347 0.0027746384 0.07491524 0.089713305 0.008323915 0.042544454 0.05271813
0.01757271 0.10543626 -0.030521022 0.106361136 -0.04716885 -0.048093732 -0.027746383 0.079539634
0.075840116 -0.009248795 0.01664783 -0.030521022 0.09711234 -0.040694695 0.069365956 0.029596142
0.030521022 0.051793247 -0.0055492767 0.08693867 -0.022197107 0.079539634 0.11745969 0.010173674
-0.013873192 0.10173674 0.010173674 0.025896624 0.08416403 -0.0018497589 0.08323915 0.009248795
-0.012023433 -0.026821503 0.0943377 -0.013873192 0.05086837 0.0721406 -0.013873192 0.037920058
-0.014798071 -0.04994349 -0.01572295 0.06474156 -0.04716885 0.0073990356 0.06659132 0.0721406
0.041619577 -0.04716885 -0.010173674 0.040694695 0.048093732 -0.0055492767 0.0943377 0.022197107
0.0027746384 -0.055492766 0.05086837 -0.006474156 0.01849759 0.0036995178 0.029596142 0.05086837
0.055492766 0.110060655 -0.012948312 0.042544454 0.023121987 -0.020347347 -0.00092487945 0.061966922
-0.05086837 -0.014798071 0.0721406 0.048093732 0.103586495 -0.01664783 -0.01572295 0.037920058
-0.006474156 0.04994349 -0.00092487945 -0.03514542 0.027746383 0.008323915 0.061042044 -0.0314459
0.09803722 0.08416403 0.08138939 -0.058267407 -0.014798071 0.0046243975 -0.012023433 0.09063818
0.061966922 -0.043469336 0.056417648 -0.044394214 -0.040694695 0.024046866 -0.057342526 0.01849759
-0.026821503 -0.01757271 0.025896624 -0.023121987 -0.039769817 -0.026821503 0.041619577 0.07121572
-0.044394214 0.012948312 -0.01849759 0.05086837 -0.012023433 0.08878843 0.05271813 -0.024046866
0.01664783 -0.020347347 -0.04531909 0.0675162 0.01572295 -0.041619577 -0.05456789 -0.0018497589
-0.0046243975 -0.0073990356 0.060117163 0.039769817 0.038844936 0.0675162 -0.01664783 -0.030521022
0.051793247 -0.058267407 0.0036995178 0.07768987 0.0036995178 0.10173674 -0.053643007 0.03514542
-0.040694695 0.08601379 0.069365956 0.089713305 -0.05271813 -0.04716885 0.01849759 -0.025896624
0.037920058 0.06381668 0.010173674 -0.044394214 0.07676499 0.024046866 -0.020347347 0.053643007
-0.0073990356 0.0027746384 0.056417648 0.012948312 -0.006474156 0.053643007 -0.03237078 0.022197107
0.01849759 0.01849759 0.08878843 0.0027746384 0.061042044 -0.008323915 0.09988698 0.07768987

tfl.pseudo_qconst3 i1 [64, 1, 1, 64]
00000000: f1d6 0dde c3fc a741 b0c8 9f20 f061 13dd
00000010: fc54 cac3 f4a2 e381 69bb c5db 95f6 2ed1
00000020: 9b0e 6fcd 1cf2 14eb 033e 1803 48c2 b431
00000030: bed5 12e7 9abc 36ab fa0c bc2f 1358 311f
00000040: a1f9 babd 2336 7429 3ce6 03f4 2914 9912
00000050: 6820 9cf7 4c9d ea94 49ee 56bb e3da 4fbd
00000060: 1f12 b2ec 314d c4c2 97c6 7ff3 f30e b228
00000070: 77fb c253 df10 0fa0 66dd 8da6 e89b 600d
00000080: 92ef 4284 f8b2 9257 b887 1861 fc73 59a8
00000090: dff2 d295 4615 bdab e7a2 3d9f 53c6 5fa3
000000a0: 64e0 d8a1 6ade dcea c933 ea0b ee77 49b1
000000b0: 4d7f 6f3d cbb6 f4c3 59bc 4d63 ba8d e9d9
000000c0: 02ef 74e8 afa7 2358 4604 e52a a3eb a326
000000d0: 0197 5f24 13e0 0792 8d22 f58e a9ce dbde
000000e0: c8cf 126f 3608 a316 7f41 3af3 f861 413a
000000f0: 5ebf b027 bc2a 53a6 d3bf 4b51 14e9 4566
-15 -42 13 -34 -61 -4 -89 65
-80 -56 -97 32 -16 97 19 -35
-4 84 -54 -61 -12 -94 -29 -127
105 -69 -59 -37 -107 -10 46 -47
-101 14 111 -51 28 -14 20 -21
3 62 24 3 72 -62 -76 49
-66 -43 18 -25 -102 -68 54 -85
-6 12 -68 47 19 88 49 31
-95 -7 -70 -67 35 54 116 41
60 -26 3 -12 41 20 -103 18
104 32 -100 -9 76 -99 -22 -108
73 -18 86 -69 -29 -38 79 -67
31 18 -78 -20 49 77 -60 -62
-105 -58 127 -13 -13 14 -78 40
119 -5 -62 83 -33 16 15 -96
102 -35 -115 -90 -24 -101 96 13
-110 -17 66 -124 -8 -78 -110 87
-72 -121 24 97 -4 115 89 -88
-33 -14 -46 -107 70 21 -67 -85
-25 -94 61 -97 83 -58 95 -93
100 -32 -40 -95 106 -34 -36 -22
-55 51 -22 11 -18 119 73 -79
77 127 111 61 -53 -74 -12 -61
89 -68 77 99 -70 -115 -23 -39
2 -17 116 -24 -81 -89 35 88
70 4 -27 42 -93 -21 -93 38
1 -105 95 36 19 -32 7 -110
-115 34 -11 -114 -87 -50 -37 -34
-56 -49 18 111 54 8 -93 22
127 65 58 -13 -8 97 65 58
94 -65 -80 39 -68 42 83 -90
-45 -65 75 81 20 -23 69 102

tfl.pseudo_qconst5 i1 [1, 23, 1, 64]
00000000: e638 d025 7f22 5e81 3842 381f e3ed 2ed2
00000010: 48ad 2511 4f64 d21f 7f7a 37e9 10b9 b4f4
00000020: 8f41 c33e 7de0 f058 0d10 6cfe 4e8e b4c9
00000030: 373f 7693 1aa9 3150 c852 49a0 f714 d289
00000040: d93c d0da 121b 4dab 1734 2137 d8d2 ac30
00000050: 0431 022b 3192 ba83 ee3a e127 02b4 da3c
00000060: 250f a7ae 162e e88a 0d41 68c4 4e94 4836
00000070: 7f11 2bb4 607f 8b1c c377 81e1 e82f 3f1f
00000080: fbcd 522f 6ba5 3dfe e0d8 a4fc e51c f3ae
00000090: 30c7 ed51 b971 7fe8 b834 929a 3099 17b7
000000a0: 1947 3646 7fdf a081 3bf8 0781 725f 21b4
000000b0: 16cb 4d81 6570 dd37 444f 23b7 4a01 f998
000000c0: a452 6eb5 03bf 2822 ff06 e924 4476 7ffc
000000d0: ca5a 914f 7fb2 6a91 eeeb f430 a43b e3b0
000000e0: d960 cb53 c2d3 e7d4 d245 0691 e8f6 27e0
000000f0: 4be3 b6df 7f4c 28ac f3ac d328 b920 2281
-26 56 -48 37 127 34 94 -127
56 66 56 31 -29 -19 46 -46
72 -83 37 17 79 100 -46 31
127 122 55 -23 16 -71 -76 -12
-113 65 -61 62 125 -32 -16 88
13 16 108 -2 78 -114 -76 -55
55 63 118 -109 26 -87 49 80
-56 82 73 -96 -9 20 -46 -119
-39 60 -48 -38 18 27 77 -85
23 52 33 55 -40 -46 -84 48
4 49 2 43 49 -110 -70 -125
-18 58 -31 39 2 -76 -38 60
37 15 -89 -82 22 46 -24 -118
13 65 104 -60 78 -108 72 54
127 17 43 -76 96 127 -117 28
-61 119 -127 -31 -24 47 63 31
-5 -51 82 47 107 -91 61 -2
-32 -40 -92 -4 -27 28 -13 -82
48 -57 -19 81 -71 113 127 -24
-72 52 -110 -102 48 -103 23 -73
25 71 54 70 127 -33 -96 -127
59 -8 7 -127 114 95 33 -76
22 -53 77 -127 101 112 -35 55
68 79 35 -73 74 1 -7 -104
-92 82 110 -75 3 -65 40 34
-1 6 -23 36 68 118 127 -4
-54 90 -111 79 127 -78 106 -111
-18 -21 -12 48 -92 59 -29 -80
-39 96 -53 83 -62 -45 -25 -44
-46 69 6 -111 -24 -10 39 -32
75 -29 -74 -33 127 76 40 -84
-13 -84 -45 40 -71 32 34 -127

tfl.pseudo_qconst7 i1 [64, 1, 1, 64]
00000000: ea7a 3f6b 418c 2366 7a67 49c8 16ef 52ae
00000010: 0de6 59e1 592a 1532 7624 9eaf 6015 1d90
00000020: eae5 253c bda9 e449 e322 aea4 811c fb58
00000030: 7a77 f37c 0529 ac77 a46e 98df 8fd9 5775
00000040: 98cd 3b07 07a7 ce70 959c c6cf a542 9ae4
00000050: 45b7 31c1 930c 812b d286 522a 4a10 5e33
00000060: 62ad 9f6e 0fc0 a52a 354a 571f 1eda a6ff
00000070: 0134 baca 14b3 06aa 30ef 993f 4422 d4f4
00000080: ceb1 6e89 dd9a 1481 6a3e f80d 1b09 9b1a
00000090: 30b1 47c2 d909 665e 39b3 c25a 614a d6c9
000000a0: 556d 5e4b e069 132c 6a89 4ed0 756a d008
000000b0: 4c04 70ee 0f0a 6fc6 6090 288a a902 1c60
000000c0: f018 9f3d 7c77 fd54 a187 a2f3 6ce4 d248
000000d0: c878 3dd5 b9a1 c87f c508 da92 4197 95d2
000000e0: 004d 83b0 245e 3cb1 3631 0633 d64c 74d2
000000f0: 3a9f dbfe 0024 d411 d4e1 0e28 982e 23a8
-22 122 63 107 65 -116 35 102
122 103 73 -56 22 -17 82 -82
13 -26 89 -31 89 42 21 50
118 36 -98 -81 96 21 29 -112
-22 -27 37 60 -67 -87 -28 73
-29 34 -82 -92 -127 28 -5 88
122 119 -13 124 5 41 -84 119
-92 110 -104 -33 -113 -39 87 117
-104 -51 59 7 7 -89 -50 112
-107 -100 -58 -49 -91 66 -102 -28
69 -73 49 -63 -109 12 -127 43
-46 -122 82 42 74 16 94 51
98 -83 -97 110 15 -64 -91 42
53 74 87 31 30 -38 -90 -1
1 52 -70 -54 20 -77 6 -86
48 -17 -103 63 68 34 -44 -12
-50 -79 110 -119 -35 -102 20 -127
106 62 -8 13 27 9 -101 26
48 -79 71 -62 -39 9 102 94
57 -77 -62 90 97 74 -42 -55
85 109 94 75 -32 105 19 44
106 -119 78 -48 117 106 -48 8
76 4 112 -18 15 10 111 -58
96 -112 40 -118 -87 2 28 96
-16 24 -97 61 124 119 -3 84
-95 -121 -94 -13 108 -28 -46 72
-56 120 61 -43 -71 -95 -56 127
-59 8 -38 -110 65 -105 -107 -46
0 77 -125 -80 36 94 60 -79
54 49 6 51 -42 76 116 -46
58 -97 -37 -2 0 36 -44 17
-44 -31 14 40 -104 46 35 -88

tfl.pseudo_qconst9 i1 [1, 15, 1, 32]
00000000: e48f 0a82 81e1 e2ec 3103 255e df0d 8d81
00000010: cc5c d9f2 33a5 21a0 4172 ff67 c2de dc34
00000020: ed6d b330 354d 1b56 ad28 a820 f77f 0b3a
00000030: b2e6 de63 a7c7 f5a1 c73b 439a ba1b a197
00000040: afff 7fca 65d6 2ded 8196 2248 1e36 1f78
00000050: d029 851f 4504 089a 1553 9d21 aaef e081
00000060: 384c 225c 1edb 3673 536c 18e2 0143 da72
00000070: d80c ecf7 6840 712b 7d27 d835 91f7 f6b2
00000080: a1d9 1785 ba2e 2702 5f44 12aa a9e8 a794
00000090: 3593 6bf0 983e d481 b74e a0fe bda7 d0b2
000000a0: 6340 5749 f62b dbdc efe1 7f57 4b7b ff35
000000b0: 7c50 c67f b7ab 7f1c 4383 319b 0853 ca17
000000c0: 530e f1b6 0fc2 287a 7dcf 7f6b e94d af40
000000d0: c6cb 5068 7fbc 5a8c 11d3 234f b3fd 13b8
000000e0: 17c7 3e0f b460 7de7 9c9f 5037 5c3c 7f05
000000f0: 675b 3906 b412 2e4a 4398 77ba 83a8 0c2c
-28 -113 10 -126 -127 -31 -30 -20
49 3 37 94 -33 13 -115 -127
-52 92 -39 -14 51 -91 33 -96
65 114 -1 103 -62 -34 -36 52
-19 109 -77 48 53 77 27 86
-83 40 -88 32 -9 127 11 58
-78 -26 -34 99 -89 -57 -11 -95
-57 59 67 -102 -70 27 -95 -105
-81 -1 127 -54 101 -42 45 -19
-127 -106 34 72 30 54 31 120
-48 41 -123 31 69 4 8 -102
21 83 -99 33 -86 -17 -32 -127
56 76 34 92 30 -37 54 115
83 108 24 -30 1 67 -38 114
-40 12 -20 -9 104 64 113 43
125 39 -40 53 -111 -9 -10 -78
-95 -39 23 -123 -70 46 39 2
95 68 18 -86 -87 -24 -89 -108
53 -109 107 -16 -104 62 -44 -127
-73 78 -96 -2 -67 -89 -48 -78
99 64 87 73 -10 43 -37 -36
-17 -31 127 87 75 123 -1 53
124 80 -58 127 -73 -85 127 28
67 -125 49 -101 8 83 -54 23
83 14 -15 -74 15 -62 40 122
125 -49 127 107 -23 77 -81 64
-58 -53 80 104 127 -68 90 -116
17 -45 35 79 -77 -3 19 -72
23 -57 62 15 -76 96 125 -25
-100 -97 80 55 92 60 127 5
103 91 57 6 -76 18 46 74
67 -104 119 -70 -125 -88 12 44

tfl.pseudo_qconst11 i1 [1, 9, 1, 32]
00000000: fc50 9482 7d73 8d05 29a2 c5c8 245a c69a
00000010: 9b64 7f61 2be9 31d5 eae5 b003 6281 f97f
00000020: 7f66 f15c 2981 7f56 db8d a513 0c58 819e
00000030: d18b df37 2481 8dc5 6298 9d81 0d8a 9f45
00000040: c5cf 53ef f268 4d81 d5a0 2a8c 1619 29da
00000050: 05ce 0f31 6106 beba 6695 ad54 a227 4435
00000060: 007f 5060 fccd dc1c 8c83 8982 5281 d967
00000070: 587f 39ee 61d0 ba34 7f9a 2fab 50bd 45b0
00000080: 4e8c d8c0 a199 4d82 237f a9e7 81ae bd7f
00000090: 8112 b210 8119 4b7f 60bb a19c a2d0 3f41
000000a0: ab2a 7f27 7faf dd05 214d 00de df1e 4723
000000b0: fde6 a65b 6e41 81a6 31cb fc62 1037 2d99
000000c0: 890a 723c 7c16 31a5 4daa 5e04 7c2d ae04
000000d0: 0d98 7973 a258 0709 e981 5cb5 81a3 8686
000000e0: 135d 4c8b 9dd1 88b2 7f09 aa7f 402a 3937
000000f0: a545 a29c 5aea beb9 3e1e 7f40 c7a7 81d8
-4 80 -108 -126 125 115 -115 5
41 -94 -59 -56 36 90 -58 -102
-101 100 127 97 43 -23 49 -43
-22 -27 -80 3 98 -127 -7 127
127 102 -15 92 41 -127 127 86
-37 -115 -91 19 12 88 -127 -98
-47 -117 -33 55 36 -127 -115 -59
98 -104 -99 -127 13 -118 -97 69
-59 -49 83 -17 -14 104 77 -127
-43 -96 42 -116 22 25 41 -38
5 -50 15 49 97 6 -66 -70
102 -107 -83 84 -94 39 68 53
0 127 80 96 -4 -51 -36 28
-116 -125 -119 -126 82 -127 -39 103
88 127 57 -18 97 -48 -70 52
127 -102 47 -85 80 -67 69 -80
78 -116 -40 -64 -95 -103 77 -126
35 127 -87 -25 -127 -82 -67 127
-127 18 -78 16 -127 25 75 127
96 -69 -95 -100 -94 -48 63 65
-85 42 127 39 127 -81 -35 5
33 77 0 -34 -33 30 71 35
-3 -26 -90 91 110 65 -127 -90
49 -53 -4 98 16 55 45 -103
-119 10 114 60 124 22 49 -91
77 -86 94 4 124 45 -82 4
13 -104 121 115 -94 88 7 9
-23 -127 92 -75 -127 -93 -122 -122
19 93 76 -117 -99 -47 -120 -78
127 9 -86 127 64 42 57 55
-91 69 -94 -100 90 -22 -66 -71
62 30 127 64 -57 -89 -127 -40

tfl.pseudo_qconst13 i1 [64, 1, 1, 64]
00000000: adee 7b01 268b fc8b 724e ad64 6909 64c1
00000010: 2c59 d958 7f11 53fa a22a b407 fb4d c1d6
00000020: 7a7b 6641 f1be 43d8 6f11 a820 041c d816
00000030: 761d 2263 05dd 44e3 e51d 269a c8c8 5cb8
00000040: 362d 7a25 babe 82ce 44a1 6008 557f e79b
00000050: 47ef 45b0 17a8 3da6 67e0 97c2 c36e a84e
00000060: 7564 7ebd 1dfa b116 4bff 70e8 faf0 796f
00000070: 75df f12d e610 2517 6e62 cdb6 0c0c cd9f
00000080: 94c4 7261 e460 9f31 ad61 26de f823 30e0
00000090: b694 0a9b 7637 ce91 f25f 8f26 fe4e 729b
000000a0: f93f 682d 66ab d330 f1bd d478 257f 24e8
000000b0: e2bd 5b39 d23d a5e6 5caf d7be e81a 5cbe
000000c0: 5ad7 a43f 6441 40ad 8f67 bac1 71d2 6109
000000d0: 37f4 5cb0 33f0 cf73 be9b 4951 3247 72f6
000000e0: 174c e51d a294 2784 e00c c7e1 ddce eada
000000f0: 2444 ba08 7f9c 2bd5 fc70 ddf4 f6f5 152f
-83 -18 123 1 38 -117 -4 -117
114 78 -83 100 105 9 100 -63
44 89 -39 88 127 17 83 -6
-94 42 -76 7 -5 77 -63 -42
122 123 102 65 -15 -66 67 -40
111 17 -88 32 4 28 -40 22
118 29 34 99 5 -35 68 -29
-27 29 38 -102 -56 -56 92 -72
54 45 122 37 -70 -66 -126 -50
68 -95 96 8 85 127 -25 -101
71 -17 69 -80 23 -88 61 -90
103 -32 -105 -62 -61 110 -88 78
117 100 126 -67 29 -6 -79 22
75 -1 112 -24 -6 -16 121 111
117 -33 -15 45 -26 16 37 23
110 98 -51 -74 12 12 -51 -97
-108 -60 114 97 -28 96 -97 49
-83 97 38 -34 -8 35 48 -32
-74 -108 10 -101 118 55 -50 -111
-14 95 -113 38 -2 78 114 -101
-7 63 104 45 102 -85 -45 48
-15 -67 -44 120 37 127 36 -24
-30 -67 91 57 -46 61 -91 -26
92 -81 -41 -66 -24 26 92 -66
90 -41 -92 63 100 65 64 -83
-113 103 -70 -63 113 -46 97 9
55 -12 92 -80 51 -16 -49 115
-66 -101 73 81 50 71 114 -10
23 76 -27 29 -94 -108 39 -124
-32 12 -57 -31 -35 -50 -22 -38
36 68 -70 8 127 -100 43 -43
-4 112 -35 -12 -10 -11 21 47

tfl.pseudo_qconst15 i1 [1, 11, 1, 32]
00000000: 1419 c7cc b91b bb14 620d 5cb8 7c81 1b76
00000010: f02d 3d56 1d39 2e29 cd1e 4a95 3abd 580a
00000020: 4854 c981 f14d 195d 378f f422 1a11 e2e4
00000030: ff9c 6d4a 81e3 93e5 13eb 9ea5 29ee 0f7f
00000040: b009 df1a 813a ed79 c94d ad0e 2c19 7f95
00000050: 4b7e 6aee 83d9 a881 2825 4781 c0ca 4fce
00000060: fc1a 0fe9 4150 7c77 7fe7 367f 819b eae8
00000070: 86e8 5848 f0a8 a031 937f dd35 31df 0cda
00000080: 6b43 6746 098f cb33 b59f b1c1 ae7d d945
00000090: 5a6d 7f7f 4afd 844d 7ac5 ad68 97e4 6508
000000a0: a2d4 c812 0137 5fcb 1a81 0d68 bd25 48b0
000000b0: 34aa 9651 aa7f 5a4e be66 a6e2 1563 793c
000000c0: 817f 9b37 311c b82b f133 50e0 e3ef 8cba
000000d0: 810a 0c64 52c6 81b4 0a25 2197 cd00 8121
000000e0: a714 7a41 8a7f 812b a413 7f32 01da cd0f
000000f0: 5def 48cc 5c91 2cac 7f79 9889 711a 2dba
20 25 -57 -52 -71 27 -69 20
98 13 92 -72 124 -127 27 118
-16 45 61 86 29 57 46 41
-51 30 74 -107 58 -67 88 10
72 84 -55 -127 -15 77 25 93
55 -113 -12 34 26 17 -30 -28
-1 -100 109 74 -127 -29 -109 -27
19 -21 -98 -91 41 -18 15 127
-80 9 -33 26 -127 58 -19 121
-55 77 -83 14 44 25 127 -107
75 126 106 -18 -125 -39 -88 -127
40 37 71 -127 -64 -54 79 -50
-4 26 15 -23 65 80 124 119
127 -25 54 127 -127 -101 -22 -24
-122 -24 88 72 -16 -88 -96 49
-109 127 -35 53 49 -33 12 -38
107 67 103 70 9 -113 -53 51
-75 -97 -79 -63 -82 125 -39 69
90 109 127 127 74 -3 -124 77
122 -59 -83 104 -105 -28 101 8
-94 -44 -56 18 1 55 95 -53
26 -127 13 104 -67 37 72 -80
52 -86 -106 81 -86 127 90 78
-66 102 -90 -30 21 99 121 60
-127 127 -101 55 49 28 -72 43
-15 51 80 -32 -29 -17 -116 -70
-127 10 12 100 82 -58 -127 -76
10 37 33 -105 -51 0 -127 33
-89 20 122 65 -118 127 -127 43
-92 19 127 50 1 -38 -51 15
93 -17 72 -52 92 -111 44 -84
127 121 -104 -119 113 26 45 -70

tfl.pseudo_qconst17 i1 [1, 7, 1, 32]
00000000: ff01 6c7f 7f6d b6b3 04e7 8143 58b6 a5d7
00000010: a981 03ec 338f d04b 33a7 73e9 34a9 95f5
00000020: 354f de9b b081 6f24 214d b643 c291 812b
00000030: 8158 f079 df8b f47e 5178 0a81 65a7 2e1b
00000040: 65b4 4fd1 3ec8 b6f5 b381 9d7f eee3 8e81
00000050: c102 2e7e 8c19 e69f 217f 8500 7fe2 60c3
00000060: 7f46 8198 1294 4f97 1169 9adc 8105 47ba
00000070: d8bd e512 9786 817f bf15 7fb9 2900 e4e7
00000080: 5f55 dfc8 7b56 e338 276b 6a9b fe44 c9f8
00000090: 81cb 2597 f572 66a0 810f 0085 4d07 3916
000000a0: e306 cfcb eab2 747f ba33 6fed c59f 7492
000000b0: 7eda 817f 810a 1c77 f1c7 5700 1b46 fe09
000000c0: 587f a805 4485 7f70 7ff1 b31e d87f e1df
000000d0: 117b bb0c fc7f f103 e2df df07 3a7f 817f
-1 1 108 127 127 109 -74 -77
4 -25 -127 67 88 -74 -91 -41
-87 -127 3 -20 51 -113 -48 75
51 -89 115 -23 52 -87 -107 -11
53 79 -34 -101 -80 -127 111 36
33 77 -74 67 -62 -111 -127 43
-127 88 -16 121 -33 -117 -12 126
81 120 10 -127 101 -89 46 27
101 -76 79 -47 62 -56 -74 -11
-77 -127 -99 127 -18 -29 -114 -127
-63 2 46 126 -116 25 -26 -97
33 127 -123 0 127 -30 96 -61
127 70 -127 -104 18 -108 79 -105
17 105 -102 -36 -127 5 71 -70
-40 -67 -27 18 -105 -122 -127 127
-65 21 127 -71 41 0 -28 -25
95 85 -33 -56 123 86 -29 56
39 107 106 -101 -2 68 -55 -8
-127 -53 37 -105 -11 114 102 -96
-127 15 0 -123 77 7 57 22
-29 6 -49 -53 -22 -78 116 127
-70 51 111 -19 -59 -97 116 -110
126 -38 -127 127 -127 10 28 119
-15 -57 87 0 27 70 -2 9
88 127 -88 5 68 -123 127 112
127 -15 -77 30 -40 127 -31 -33
17 123 -69 12 -4 127 -15 3
-30 -33 -33 7 58 127 -127 127

tfl.pseudo_qconst19 i1 [64, 1, 1, 32]
00000000: 74d4 bd68 898c 63b7 caac b5c1 68f7 cb7f
00000010: 3d00 81c3 4042 c329 1c52 a7e9 dff6 e99c
00000020: e1e3 70ee 5e96 ac69 a1a0 c474 d909 2faf
00000030: 4dd4 8d2f 3da6 2a7f 661b 0ea4 d376 d117
00000040: 07f3 f4f3 02c2 08f5 f0fb 19b6 7ff0 1106
00000050: d52f a397 cef9 662b 54cb c528 f220 72ce
00000060: 0955 d75b b457 813f 8c75 39ce 4f4d ee0d
00000070: b57a 1cef 3ce9 1675 0ae8 42b2 de17 f963
00000080: 1c23 b915 7971 10f5 3f19 0655 8199 9c17
00000090: 4aa4 cd1f ec19 9722 639d 8779 a4e6 1676
000000a0: 71f6 f344 82ae 21c7 b1cf d6b6 fbeb 7c2c
000000b0: be39 b31f b8ca 7f5e e221 f4f8 3cea 1911
000000c0: bb10 fead 663d 3dca 6cfc edf8 c659 a7c2
000000d0: 3158 9c81 6911 13ca e602 9451 15fc 39c5
000000e0: 1c46 b015 9e88 551f 7b4c 5e8e 4244 be6b
000000f0: 7983 6d06 21f2 b0ae fa2f e492 af81 9514
116 -44 -67 104 -119 -116 99 -73
-54 -84 -75 -63 104 -9 -53 127
61 0 -127 -61 64 66 -61 41
28 82 -89 -23 -33 -10 -23 -100
-31 -29 112 -18 94 -106 -84 105
-95 -96 -60 116 -39 9 47 -81
77 -44 -115 47 61 -90 42 127
102 27 14 -92 -45 118 -47 23
7 -13 -12 -13 2 -62 8 -11
-16 -5 25 -74 127 -16 17 6
-43 47 -93 -105 -50 -7 102 43
84 -53 -59 40 -14 32 114 -50
9 85 -41 91 -76 87 -127 63
-116 117 57 -50 79 77 -18 13
-75 122 28 -17 60 -23 22 117
10 -24 66 -78 -34 23 -7 99
28 35 -71 21 121 113 16 -11
63 25 6 85 -127 -103 -100 23
74 -92 -51 31 -20 25 -105 34
99 -99 -121 121 -92 -26 22 118
113 -10 -13 68 -126 -82 33 -57
-79 -49 -42 -74 -5 -21 124 44
-66 57 -77 31 -72 -54 127 94
-30 33 -12 -8 60 -22 25 17
-69 16 -2 -83 102 61 61 -54
108 -4 -19 -8 -58 89 -89 -62
49 88 -100 -127 105 17 19 -54
-26 2 -108 81 21 -4 57 -59
28 70 -80 21 -98 -120 85 31
123 76 94 -114 66 68 -66 107
121 -125 109 6 33 -14 -80 -82
-6 47 -28 -110 -81 -127 -107 20

tfl.pseudo_qconst21 i1 [1, 5, 1, 32]
00000000: 7fb5 81ca 7019 c978 7fde fbb9 7f14 9508
00000010: 5cde 817f 53fb 83b6 1d8b c286 8742 9589
00000020: 2c45 fad1 7f8f 7272 4fff 7f0a 3086 1bb3
00000030: fbfd e48c 0021 a320 986a aba8 c069 8181
00000040: 999c 971d 0823 aa28 219a 84e0 af81 a581
00000050: bc52 fd07 209b 6418 4216 81ce 237f 3cbe
00000060: 2aa7 4908 e37f 6481 6581 277f 70c2 6078
00000070: ed7f 6a92 3efd 337f a3ba 027f 81b0 29b0
00000080: 387f 557f 900d 7fe4 6a03 a34a 2be3 7fdf
00000090: 81e8 79b5 8181 7ff3 7f81 18c4 1a5a 7b43
127 -75 -127 -54 112 25 -55 120
127 -34 -5 -71 127 20 -107 8
92 -34 -127 127 83 -5 -125 -74
29 -117 -62 -122 -121 66 -107 -119
44 69 -6 -47 127 -113 114 114
79 -1 127 10 48 -122 27 -77
-5 -3 -28 -116 0 33 -93 32
-104 106 -85 -88 -64 105 -127 -127
-103 -100 -105 29 8 35 -86 40
33 -102 -124 -32 -81 -127 -91 -127
-68 82 -3 7 32 -101 100 24
66 22 -127 -50 35 127 60 -66
42 -89 73 8 -29 127 100 -127
101 -127 39 127 112 -62 96 120
-19 127 106 -110 62 -3 51 127
-93 -70 2 127 -127 -80 41 -80
56 127 85 127 -112 13 127 -28
106 3 -93 74 43 -29 127 -33
-127 -24 121 -75 -127 -127 127 -13
127 -127 24 -60 26 90 123 67

tfl.pseudo_qconst23 i1 [32, 5, 1, 40]
00000000: eb1b 03a4 7d1e fba5 0468 329e ab66 ce27
00000010: bba8 af81 3498 2e1d 1209 688e 2b53 d02c
00000020: dca8 0792 f334 296a 4c0d 4c56 c006 4453
00000030: da06 a53f 65c4 6b6b 01dd 525d 5933 3711
00000040: d8be 0b59 a764 f100 2ebb 064f a1ba 4a5b
00000050: 4c2a 6c21 0870 e467 f7fd 53d8 2832 07c6
00000060: c4dc 06db 239c 693c 0a15 d614 37df d4fe
00000070: 3d1d d111 f399 53c1 e931 793d 74f4 f3a8
00000080: 513b e6d8 4d5d b54f c8cf b524 55b0 6852
00000090: 0c97 14d9 2b44 e88b 26bd be73 ea24 3992
000000a0: 04f9 9eb5 e766 7aa6 4932 f140 52a5 0ba5
000000b0: bcdb 131b dadd 166a eb16 45f0 4fe4 089f
000000c0: e2ca d352 c553 a1c8 711c 50d7 363b 1993
000000d0: cc92 c287 2cb7 dbad 763e 50a6 3bb1 37d2
000000e0: 9ac6 12b7 63ce 02ef 6202 3be9 10d0 ffcd
000000f0: 73a3 af9e 4412 2096 9768 9fa3 74b8 a4d6
-21 27 3 -92 125 30 -5 -91
4 104 50 -98 -85 102 -50 39
-69 -88 -81 -127 52 -104 46 29
18 9 104 -114 43 83 -48 44
-36 -88 7 -110 -13 52 41 106
76 13 76 86 -64 6 68 83
-38 6 -91 63 101 -60 107 107
1 -35 82 93 89 51 55 17
-40 -66 11 89 -89 100 -15 0
46 -69 6 79 -95 -70 74 91
76 42 108 33 8 112 -28 103
-9 -3 83 -40 40 50 7 -58
-60 -36 6 -37 35 -100 105 60
10 21 -42 20 55 -33 -44 -2
61 29 -47 17 -13 -103 83 -63
-23 49 121 61 116 -12 -13 -88
81 59 -26 -40 77 93 -75 79
-56 -49 -75 36 85 -80 104 82
12 -105 20 -39 43 68 -24 -117
38 -67 -66 115 -22 36 57 -110
4 -7 -98 -75 -25 102 122 -90
73 50 -15 64 82 -91 11 -91
-68 -37 19 27 -38 -35 22 106
-21 22 69 -16 79 -28 8 -97
-30 -54 -45 82 -59 83 -95 -56
113 28 80 -41 54 59 25 -109
-52 -110 -62 -121 44 -73 -37 -83
118 62 80 -90 59 -79 55 -46
-102 -58 18 -73 99 -50 2 -17
98 2 59 -23 16 -48 -1 -51
115 -93 -81 -98 68 18 32 -106
-105 104 -97 -93 116 -72 -92 -42

tfl.pseudo_qconst24 i1 [1, 22, 1, 64] scale=0.02356046 zero_point=-128
00000000: 8080 8080 8080 8080 8080 8080 8080 8080
00000010: 8080 8080 8080 8080 8080 8080 8080 8080
00000020: 8080 8080 8080 8080 8080 8080 8080 8080
00000030: 8080 8080 8080 8080 8080 8080 8080 8080
00000040: 8080 8080 8080 8080 8080 8080 8080 8080
00000050: 8080 8080 8080 8080 8080 8080 8080 8080
00000060: 8080 8080 8080 8080 8080 8080 8080 8080
00000070: 8080 8080 8080 8080 8080 8080 8080 8080
00000080: 8080 8080 8080 8080 8080 8080 8080 8080
00000090: 8080 8080 8080 8080 8080 8080 8080 8080
000000a0: 8080 8080 8080 8080 8080 8080 8080 8080
000000b0: 8080 8080 8080 8080 8080 8080 8080 8080
000000c0: 8080 8080 8080 8080 8080 8080 8080 8080
000000d0: 8080 8080 8080 8080 8080 8080 8080 8080
000000e0: 8080 8080 8080 8080 8080 8080 8080 8080
000000f0: 8080 8080 8080 8080 8080 8080 8080 8080
0.0 0.0 0.0 0.0 0.0 0.0 0.0 0.0
0.0 0.0 0.0 0.0 0.0 0.0 0.0 0.0
0.0 0.0 0.0 0.0 0.0 0.0 0.0 0.0
0.0 0.0 0.0 0.0 0.0 0.0 0.0 0.0
0.0 0.0 0.0 0.0 0.0 0.0 0.0 0.0
0.0 0.0 0.0 0.0 0.0 0.0 0.0 0.0
0.0 0.0 0.0 0.0 0.0 0.0 0.0 0.0
0.0 0.0 0.0 0.0 0.0 0.0 0.0 0.0
0.0 0.0 0.0 0.0 0.0 0.0 0.0 0.0
0.0 0.0 0.0 0.0 0.0 0.0 0.0 0.0
0.0 0.0 0.0 0.0 0.0 0.0 0.0 0.0
0.0 0.0 0.0 0.0 0.0 0.0 0.0 0.0
0.0 0.0 0.0 0.0 0.0 0.0 0.0 0.0
0.0 0.0 0.0 0.0 0.0 0.0 0.0 0.0
0.0 0.0 0.0 0.0 0.0 0.0 0.0 0.0
0.0 0.0 0.0 0.0 0.0 0.0 0.0 0.0
0.0 0.0 0.0 0.0 0.0 0.0 0.0 0.0
0.0 0.0 0.0 0.0 0.0 0.0 0.0 0.0
0.0 0.0 0.0 0.0 0.0 0.0 0.0 0.0
0.0 0.0 0.0 0.0 0.0 0.0 0.0 0.0
0.0 0.0 0.0 0.0 0.0 0.0 0.0 0.0
0.0 0.0 0.0 0.0 0.0 0.0 0.0 0.0
0.0 0.0 0.0 0.0 0.0 0.0 0.0 0.0
0.0 0.0 0.0 0.0 0.0 0.0 0.0 0.0
0.0 0.0 0.0 0.0 0.0 0.0 0.0 0.0
0.0 0.0 0.0 0.0 0.0 0.0 0.0 0.0
0.0 0.0 0.0 0.0 0.0 0.0 0.0 0.0
0.0 0.0 0.0 0.0 0.0 0.0 0.0 0.0
0.0 0.0 0.0 0.0 0.0 0.0 0.0 0.0
0.0 0.0 0.0 0.0 0.0 0.0 0.0 0.0
0.0 0.0 0.0 0.0 0.0 0.0 0.0 0.0
0.0 0.0 0.0 0.0 0.0 0.0 0.0 0.0

tfl.pseudo_qconst25 i1 [1, 16, 1, 64] scale=0.018288692 zero_point=-128
00000000: 8080 8080 8080 8080 8080 8080 8080 8080
00000010: 8080 8080 8080 8080 8080 8080 8080 8080
00000020: 8080 8080 8080 8080 8080 8080 8080 8080
00000030: 8080 8080 8080 8080 8080 8080 8080 8080
00000040: 8080 8080 8080 8080 8080 8080 8080 8080
00000050: 8080 8080 8080 8080 8080 8080 8080 8080
00000060: 8080 8080 8080 8080 8080 8080 8080 8080
00000070: 8080 8080 8080 8080 8080 8080 8080 8080
00000080: 8080 8080 8080 8080 8080 8080 8080 8080
00000090: 8080 8080 8080 8080 8080 8080 8080 8080
000000a0: 8080 8080 8080 8080 8080 8080 8080 8080
000000b0: 8080 8080 8080 8080 8080 8080 8080 8080
000000c0: 8080 8080 8080 8080 8080 8080 8080 8080
000000d0: 8080 8080 8080 8080 8080 8080 8080 8080
000000e0: 8080 8080 8080 8080 8080 8080 8080 8080
000000f0: 8080 8080 8080 8080 8080 8080 8080 8080
0.0 0.0 0.0 0.0 0.0 0.0 0.0 0.0
0.0 0.0 0.0 0.0 0.0 0.0 0.0 0.0
0.0 0.0 0.0 0.0 0.0 0.0 0.0 0.0
0.0 0.0 0.0 0.0 0.0 0.0 0.0 0.0
0.0 0.0 0.0 0.0 0.0 0.0 0.0 0.0
0.0 0.0 0.0 0.0 0.0 0.0 0.0 0.0
0.0 0.0 0.0 0.0 0.0 0.0 0.0 0.0
0.0 0.0 0.0 0.0 0.0 0.0 0.0 0.0
0.0 0.0 0.0 0.0 0.0 0.0 0.0 0.0
0.0 0.0 0.0 0.0 0.0 0.0 0.0 0.0
0.0 0.0 0.0 0.0 0.0 0.0 0.0 0.0
0.0 0.0 0.0 0.0 0.0 0.0 0.0 0.0
0.0 0.0 0.0 0.0 0.0 0.0 0.0 0.0
0.0 0.0 0.0 0.0 0.0 0.0 0.0 0.0
0.0 0.0 0.0 0.0 0.0 0.0 0.0 0.0
0.0 0.0 0.0 0.0 0.0 0.0 0.0 0.0
0.0 0.0 0.0 0.0 0.0 0.0 0.0 0.0
0.0 0.0 0.0 0.0 0.0 0.0 0.0 0.0
0.0 0.0 0.0 0.0 0.0 0.0 0.0 0.0
0.0 0.0 0.0 0.0 0.0 0.0 0.0 0.0
0.0 0.0 0.0 0.0 0.0 0.0 0.0 0.0
0.0 0.0 0.0 0.0 0.0 0.0 0.0 0.0
0.0 0.0 0.0 0.0 0.0 0.0 0.0 0.0
0.0 0.0 0.0 0.0 0.0 0.0 0.0 0.0
0.0 0.0 0.0 0.0 0.0 0.0 0.0 0.0
0.0 0.0 0.0 0.0 0.0 0.0 0.0 0.0
0.0 0.0 0.0 0.0 0.0 0.0 0.0 0.0
0.0 0.0 0.0 0.0 0.0 0.0 0.0 0.0
0.0 0.0 0.0 0.0 0.0 0.0 0.0 0.0
0.0 0.0 0.0 0.0 0.0 0.0 0.0 0.0
0.0 0.0 0.0 0.0 0.0 0.0 0.0 0.0
0.0 0.0 0.0 0.0 0.0 0.0 0.0 0.0

tfl.pseudo_qconst26 i1 [1, 2, 1, 40] scale=0.101960786 zero_point=-128
00000000: 8080 8080 8080 8080 8080 8080 8080 8080
00000010: 8080 8080 8080 8080 8080 8080 8080 8080
00000020: 8080 8080 8080 8080 8080 8080 8080 8080
00000030: 8080 8080 8080 8080 8080 8080 8080 8080
00000040: 8080 8080 8080 8080 8080 8080 8080 8080
0.0 0.0 0.0 0.0 0.0 0.0 0.0 0.0
0.0 0.0 0.0 0.0 0.0 0.0 0.0 0.0
0.0 0.0 0.0 0.0 0.0 0.0 0.0 0.0
0.0 0.0 0.0 0.0 0.0 0.0 0.0 0.0
0.0 0.0 0.0 0.0 0.0 0.0 0.0 0.0
0.0 0.0 0.0 0.0 0.0 0.0 0.0 0.0
0.0 0.0 0.0 0.0 0.0 0.0 0.0 0.0
0.0 0.0 0.0 0.0 0.0 0.0 0.0 0.0
0.0 0.0 0.0 0.0 0.0 0.0 0.0 0.0
0.0 0.0 0.0 0.0 0.0 0.0 0.0 0.0

tfl.pseudo_qconst27 i1 [1, 4, 1, 32] scale=0.2659828 zero_point=-128
00000000: 8080 8080 8080 8080 8080 8080 8080 8080
00000010: 8080 8080 8080 8080 8080 8080 8080 8080
00000020: 8080 8080 8080 8080 8080 8080 8080 8080
00000030: 8080 8080 8080 8080 8080 8080 8080 8080
00000040: 8080 8080 8080 8080 8080 8080 8080 8080
00000050: 8080 8080 8080 8080 8080 8080 8080 8080
00000060: 8080 8080 8080 8080 8080 8080 8080 8080
00000070: 8080 8080 8080 8080 8080 8080 8080 8080
0.0 0.0 0.0 0.0 0.0 0.0 0.0 0.0
0.0 0.0 0.0 0.0 0.0 0.0 0.0 0.0
0.0 0.0 0.0 0.0 0.0 0.0 0.0 0.0
0.0 0.0 0.0 0.0 0.0 0.0 0.0 0.0
0.0 0.0 0.0 0.0 0.0 0.0 0.0 0.0
0.0 0.0 0.0 0.0 0.0 0.0 0.0 0.0
0.0 0.0 0.0 0.0 0.0 0.0 0.0 0.0
0.0 0.0 0.0 0.0 0.0 0.0 0.0 0.0
0.0 0.0 0.0 0.0 0.0 0.0 0.0 0.0
0.0 0.0 0.0 0.0 0.0 0.0 0.0 0.0
0.0 0.0 0.0 0.0 0.0 0.0 0.0 0.0
0.0 0.0 0.0 0.0 0.0 0.0 0.0 0.0
0.0 0.0 0.0 0.0 0.0 0.0 0.0 0.0
0.0 0.0 0.0 0.0 0.0 0.0 0.0 0.0
0.0 0.0 0.0 0.0 0.0 0.0 0.0 0.0
0.0 0.0 0.0 0.0 0.0 0.0 0.0 0.0

tfl.pseudo_qconst28 i1 [1, 10, 1, 64] scale=0.030619392 zero_point=-128
00000000: 8080 8080 8080 8080 8080 8080 8080 8080
00000010: 8080 8080 8080 8080 8080 8080 8080 8080
00000020: 8080 8080 8080 8080 8080 8080 8080 8080
00000030: 8080 8080 8080 8080 8080 8080 8080 8080
00000040: 8080 8080 8080 8080 8080 8080 8080 8080
00000050: 8080 8080 8080 8080 8080 8080 8080 8080
00000060: 8080 8080 8080 8080 8080 8080 8080 8080
00000070: 8080 8080 8080 8080 8080 8080 8080 8080
00000080: 8080 8080 8080 8080 8080 8080 8080 8080
00000090: 8080 8080 8080 8080 8080 8080 8080 8080
000000a0: 8080 8080 8080 8080 8080 8080 8080 8080
000000b0: 8080 8080 8080 8080 8080 8080 8080 8080
000000c0: 8080 8080 8080 8080 8080 8080 8080 8080
000000d0: 8080 8080 8080 8080 8080 8080 8080 8080
000000e0: 8080 8080 8080 8080 8080 8080 8080 8080
000000f0: 8080 8080 8080 8080 8080 8080 8080 8080
0.0 0.0 0.0 0.0 0.0 0.0 0.0 0.0
0.0 0.0 0.0 0.0 0.0 0.0 0.0 0.0
0.0 0.0 0.0 0.0 0.0 0.0 0.0 0.0
0.0 0.0 0.0 0.0 0.0 0.0 0.0 0.0
0.0 0.0 0.0 0.0 0.0 0.0 0.0 0.0
0.0 0.0 0.0 0.0 0.0 0.0 0.0 0.0
0.0 0.0 0.0 0.0 0.0 0.0 0.0 0.0
0.0 0.0 0.0 0.0 0.0 0.0 0.0 0.0
0.0 0.0 0.0 0.0 0.0 0.0 0.0 0.0
0.0 0.0 0.0 0.0 0.0 0.0 0.0 0.0
0.0 0.0 0.0 0.0 0.0 0.0 0.0 0.0
0.0 0.0 0.0 0.0 0.0 0.0 0.0 0.0
0.0 0.0 0.0 0.0 0.0 0.0 0.0 0.0
0.0 0.0 0.0 0.0 0.0 0.0 0.0 0.0
0.0 0.0 0.0 0.0 0.0 0.0 0.0 0.0
0.0 0.0 0.0 0.0 0.0 0.0 0.0 0.0
0.0 0.0 0.0 0.0 0.0 0.0 0.0 0.0
0.0 0.0 0.0 0.0 0.0 0.0 0.0 0.0
0.0 0.0 0.0 0.0 0.0 0.0 0.0 0.0
0.0 0.0 0.0 0.0 0.0 0.0 0.0 0.0
0.0 0.0 0.0 0.0 0.0 0.0 0.0 0.0
0.0 0.0 0.0 0.0 0.0 0.0 0.0 0.0
0.0 0.0 0.0 0.0 0.0 0.0 0.0 0.0
0.0 0.0 0.0 0.0 0.0 0.0 0.0 0.0
0.0 0.0 0.0 0.0 0.0 0.0 0.0 0.0
0.0 0.0 0.0 0.0 0.0 0.0 0.0 0.0
0.0 0.0 0.0 0.0 0.0 0.0 0.0 0.0
0.0 0.0 0.0 0.0 0.0 0.0 0.0 0.0
0.0 0.0 0.0 0.0 0.0 0.0 0.0 0.0
0.0 0.0 0.0 0.0 0.0 0.0 0.0 0.0
0.0 0.0 0.0 0.0 0.0 0.0 0.0 0.0
0.0 0.0 0.0 0.0 0.0 0.0 0.0 0.0

tfl.pseudo_qconst29 i1 [1, 14, 1, 64] scale=0.027764104 zero_point=-128
00000000: 8080 8080 8080 8080 8080 8080 8080 8080
00000010: 8080 8080 8080 8080 8080 8080 8080 8080
00000020: 8080 8080 8080 8080 8080 8080 8080 8080
00000030: 8080 8080 8080 8080 8080 8080 8080 8080
00000040: 8080 8080 8080 8080 8080 8080 8080 8080
00000050: 8080 8080 8080 8080 8080 8080 8080 8080
00000060: 8080 8080 8080 8080 8080 8080 8080 8080
00000070: 8080 8080 8080 8080 8080 8080 8080 8080
00000080: 8080 8080 8080 8080 8080 8080 8080 8080
00000090: 8080 8080 8080 8080 8080 8080 8080 8080
000000a0: 8080 8080 8080 8080 8080 8080 8080 8080
000000b0: 8080 8080 8080 8080 8080 8080 8080 8080
000000c0: 8080 8080 8080 8080 8080 8080 8080 8080
000000d0: 8080 8080 8080 8080 8080 8080 8080 8080
000000e0: 8080 8080 8080 8080 8080 8080 8080 8080
000000f0: 8080 8080 8080 8080 8080 8080 8080 8080
0.0 0.0 0.0 0.0 0.0 0.0 0.0 0.0
0.0 0.0 0.0 0.0 0.0 0.0 0.0 0.0
0.0 0.0 0.0 0.0 0.0 0.0 0.0 0.0
0.0 0.0 0.0 0.0 0.0 0.0 0.0 0.0
0.0 0.0 0.0 0.0 0.0 0.0 0.0 0.0
0.0 0.0 0.0 0.0 0.0 0.0 0.0 0.0
0.0 0.0 0.0 0.0 0.0 0.0 0.0 0.0
0.0 0.0 0.0 0.0 0.0 0.0 0.0 0.0
0.0 0.0 0.0 0.0 0.0 0.0 0.0 0.0
0.0 0.0 0.0 0.0 0.0 0.0 0.0 0.0
0.0 0.0 0.0 0.0 0.0 0.0 0.0 0.0
0.0 0.0 0.0 0.0 0.0 0.0 0.0 0.0
0.0 0.0 0.0 0.0 0.0 0.0 0.0 0.0
0.0 0.0 0.0 0.0 0.0 0.0 0.0 0.0
0.0 0.0 0.0 0.0 0.0 0.0 0.0 0.0
0.0 0.0 0.0 0.0 0.0 0.0 0.0 0.0
0.0 0.0 0.0 0.0 0.0 0.0 0.0 0.0
0.0 0.0 0.0 0.0 0.0 0.0 0.0 0.0
0.0 0.0 0.0 0.0 0.0 0.0 0.0 0.0
0.0 0.0 0.0 0.0 0.0 0.0 0.0 0.0
0.0 0.0 0.0 0.0 0.0 0.0 0.0 0.0
0.0 0.0 0.0 0.0 0.0 0.0 0.0 0.0
0.0 0.0 0.0 0.0 0.0 0.0 0.0 0.0
0.0 0.0 0.0 0.0 0.0 0.0 0.0 0.0
0.0 0.0 0.0 0.0 0.0 0.0 0.0 0.0
0.0 0.0 0.0 0.0 0.0 0.0 0.0 0.0
0.0 0.0 0.0 0.0 0.0 0.0 0.0 0.0
0.0 0.0 0.0 0.0 0.0 0.0 0.0 0.0
0.0 0.0 0.0 0.0 0.0 0.0 0.0 0.0
0.0 0.0 0.0 0.0 0.0 0.0 0.0 0.0
0.0 0.0 0.0 0.0 0.0 0.0 0.0 0.0
0.0 0.0 0.0 0.0 0.0 0.0 0.0 0.0
