mww/khum_puter.tflite (tflite, 60808 bytes, 18 tensors)

tfl.pseudo_qconst1 i1 [1, 1088] scale=0.00074228604 zero_point=0
0	0x1b	0.020041723
1	0xbc	-0.050475452
2	0xe9	-0.017072579
3	0xf2	-0.010392005
4	0xff	-0.00074228604
5	0xc0	-0.047506306
6	0xe6	-0.019299436
7	0xdb	-0.027464584
8	0x1b	0.020041723
9	0xc1	-0.04676402
10	0x61	0.07200175
11	0xbc	-0.050475452
12	0x19	0.018557152
13	0x6b	0.079424605
14	0xde	-0.025237726
15	0x61	0.07200175
16	0xdd	-0.02598001
17	0x6e	0.081651464
18	0x0f	0.01113429
19	0x6a	0.07868232
20	0xe2	-0.02226858
21	0x38	0.04156802
22	0x5e	0.06977489
23	0x00	0.0
24	0xb4	-0.05641374
25	0xb5	-0.055671453
26	0x2b	0.0319183
27	0x13	0.014103435
28	0x3d	0.045279447
29	0xc9	-0.040825732
30	0xce	-0.037114304
31	0x50	0.059382882
32	0x1a	0.019299436
33	0x01	0.00074228604
34	0x35	0.03934116
35	0xce	-0.037114304
36	0x27	0.028949155
37	0x75	0.08684747
38	0xc4	-0.04453716
39	0x38	0.04156802
40	0x5f	0.070517175
41	0x73	0.0853629
42	0x10	0.011876577
43	0xc5	-0.043794878
44	0x2f	0.034887444
45	0x60	0.07125946
46	0xf3	-0.009649718
47	0x1f	0.023010867
48	0xdc	-0.026722297
49	0xeb	-0.015588007
50	0xd5	-0.0319183
51	0xb9	-0.052702308
52	0xdb	-0.027464584
53	0xff	-0.00074228604
54	0x74	0.08610518
55	0x36	0.040083446
56	0x14	0.0148457205
57	0x2f	0.034887444
58	0xe4	-0.02078401
59	0xd9	-0.028949155
60	0x07	0.0051960023
61	0xc9	-0.040825732
62	0x5f	0.070517175
63	0x4d	0.057156026
64	0x5a	0.06680574
65	0x18	0.017814865
66	0x09	0.0066805743
67	0x1a	0.019299436
68	0xd3	-0.03340287
69	0xba	-0.05196002
70	0x74	0.08610518
71	0x4f	0.058640596
72	0x51	0.06012517
73	0xe3	-0.021526296
74	0xfa	-0.0044537163
75	0x56	0.0638366
76	0x6d	0.08090918
77	0x08	0.0059382883
78	0x38	0.04156802
79	0x31	0.036372017
80	0x15	0.015588007
81	0x72	0.08462061
82	0xd4	-0.032660585
83	0x79	0.08981661
84	0xbd	-0.049733166
85	0xba	-0.05196002
86	0xd0	-0.03562973
87	0x67	0.07645546
88	0x65	0.074970886
89	0xf2	-0.010392005
90	0x09	0.0066805743
91	0xd6	-0.031176014
92	0x66	0.07571317
93	0xb9	-0.052702308
94	0x5c	0.068290316
95	0x12	0.013361149
96	0x22	0.025237726
97	0x38	0.04156802
98	0xeb	-0.015588007
99	0x6a	0.07868232
100	0xe1	-0.023010867
101	0x5e	0.06977489
102	0x72	0.08462061
103	0x03	0.0022268582
104	0xce	-0.037114304
105	0x74	0.08610518
106	0x0b	0.008165146
107	0x22	0.025237726
108	0x5a	0.06680574
109	0xec	-0.0148457205
110	0x6d	0.08090918
111	0xfb	-0.0037114301
112	0xed	-0.014103435
113	0xd9	-0.028949155
114	0x6c	0.08016689
115	0xec	-0.0148457205
116	0x44	0.050475452
117	0x4b	0.055671453
118	0xec	-0.0148457205
119	0x27	0.028949155
120	0xea	-0.016330292
121	0xba	-0.05196002
122	0xd5	-0.0319183
123	0x4d	0.057156026
124	0xb9	-0.052702308
125	0x03	0.0022268582
126	0x44	0.050475452
127	0x47	0.052702308
128	0x2c	0.032660585
129	0xbe	-0.04899088
130	0xf2	-0.010392005
131	0x30	0.03562973
132	0x3b	0.043794878
133	0xf1	-0.01113429
134	0x67	0.07645546
135	0x1a	0.019299436
136	0xeb	-0.015588007
137	0xb2	-0.05789831
138	0x3d	0.045279447
139	0xed	-0.014103435
140	0x0f	0.01113429
141	0x02	0.0014845721
142	0x25	0.027464584
143	0x2f	0.034887444
144	0x46	0.05196002
145	0x74	0.08610518
146	0xeb	-0.015588007
147	0x25	0.027464584
148	0x1b	0.020041723
149	0xdf	-0.02449544
150	0xf4	-0.008907433
151	0x4f	0.058640596
152	0xb9	-0.052702308
153	0xeb	-0.015588007
154	0x55	0.06309431
155	0x3f	0.04676402
156	0x72	0.08462061
157	0xd7	-0.030433727
158	0xea	-0.016330292
159	0x22	0.025237726
160	0xf0	-0.011876577
161	0x32	0.037114304
162	0xf1	-0.01113429
163	0xc5	-0.043794878
164	0x24	0.026722297
165	0xfd	-0.0022268582
166	0x25	0.027464584
167	0xce	-0.037114304
168	0x65	0.074970886
169	0x5d	0.0690326
170	0x6c	0.08016689
171	0xb0	-0.059382882
172	0xd9	-0.028949155
173	0xf7	-0.0066805743
174	0xec	-0.0148457205
175	0x6d	0.08090918
176	0x52	0.060867455
177	0xc2	-0.046021733
178	0x39	0.042310305
179	0xc2	-0.046021733
180	0xc8	-0.04156802
181	0x0b	0.008165146
182	0xb0	-0.059382882
183	0x0e	0.010392005
184	0xda	-0.02820687
185	0xe6	-0.019299436
186	0x0f	0.01113429
187	0xd8	-0.029691441
188	0xc2	-0.046021733
189	0xd4	-0.032660585
190	0x24	0.026722297
191	0x4c	0.05641374
192	0xb7	-0.05418688
193	0x0e	0.010392005
194	0xe6	-0.019299436
195	0x3e	0.046021733
196	0xe9	-0.017072579
197	0x70	0.08313604
198	0x2e	0.034145158
199	0xdb	-0.027464584
200	0xff	-0.00074228604
201	0xe1	-0.023010867
202	0xbc	-0.050475452
203	0x51	0.06012517
204	0x0b	0.008165146
205	0xc4	-0.04453716
206	0xb3	-0.057156026
207	0xea	-0.016330292
208	0xf5	-0.008165146
209	0xdc	-0.026722297
210	0x4e	0.05789831
211	0x26	0.02820687
212	0x2f	0.034887444
213	0x54	0.062352028
214	0xe0	-0.023753153
215	0xd2	-0.034145158
216	0x44	0.050475452
217	0xb0	-0.059382882
218	0xf9	-0.0051960023
219	0x67	0.07645546
220	0xed	-0.014103435
221	0x77	0.088332035
222	0xb7	-0.05418688
223	0x1f	0.023010867
224	0xc2	-0.046021733
225	0x66	0.07571317
226	0x50	0.059382882
227	0x6e	0.081651464
228	0xb8	-0.053444594
229	0xb6	-0.054929167
230	0xfb	-0.0037114301
231	0xd5	-0.0319183
232	0x1e	0.02226858
233	0x46	0.05196002
234	0x0b	0.008165146
235	0xc2	-0.046021733
236	0x55	0.06309431
237	0x14	0.0148457205
238	0xe1	-0.023010867
239	0x3d	0.045279447
240	0xf4	-0.008907433
241	0x00	0.0
242	0x3b	0.043794878
243	0x10	0.011876577
244	0xf5	-0.008165146
245	0x33	0.037856586
246	0xd2	-0.034145158
247	0x16	0.016330292
248	0x16	0.016330292
249	0x15	0.015588007
250	0x69	0.07794003
251	0xfb	-0.0037114301
252	0x4a	0.054929167
253	0xed	-0.014103435
254	0x73	0.0853629
255	0x53	0.06160974

tfl.pseudo_qconst3 i1 [64, 1, 1, 64]
0	0xf0	-16
1	0xcb	-53
2	0x0a	10
3	0xe6	-26
4	0xc8	-56
5	0xfb	-5
6	0xa5	-91
7	0x48	72
8	0xaf	-81
9	0xc3	-61
10	0x98	-104
11	0x1d	29
12	0xee	-18
13	0x6e	110
14	0x16	22
15	0xd9	-39
16	0xfc	-4
17	0x5c	92
18	0xc6	-58
19	0xbe	-66
20	0xf3	-13
21	0x99	-103
22	0xe2	-30
23	0x81	-127
24	0x6f	111
25	0xb8	-72
26	0xc2	-62
27	0xd3	-45
28	0x92	-110
29	0xfa	-6
30	0x31	49
31	0xcd	-51
32	0x99	-103
33	0x0f	15
34	0x6f	111
35	0xc9	-55
36	0x22	34
37	0xf0	-16
38	0x11	17
39	0xe7	-25
40	0xfd	-3
41	0x36	54
42	0x19	25
43	0x02	2
44	0x48	72
45	0xbe	-66
46	0xb0	-80
47	0x35	53
48	0xbc	-68
49	0xd1	-47
50	0x15	21
51	0xe4	-28
52	0x96	-106
53	0xb8	-72
54	0x33	51
55	0xa3	-93
56	0xde	-34
57	0x12	18
58	0xbe	-66
59	0x30	48
60	0x0f	15
61	0x5f	95
62	0x35	53
63	0x1d	29
64	0xa6	-90
65	0xf6	-10
66	0xb8	-72
67	0xc1	-63
68	0x25	37
69	0x38	56
70	0x76	118
71	0x2c	44
72	0x3f	63
73	0xe7	-25
74	0xff	-1
75	0xee	-18
76	0x26	38
77	0x16	22
78	0xa0	-96
79	0x19	25
80	0x62	98
81	0x23	35
82	0x93	-109
83	0xf4	-12
84	0x4d	77
85	0x97	-105
86	0xe9	-23
87	0x98	-104
88	0x4d	77
89	0xf3	-13
90	0x5a	90
91	0xb8	-72
92	0xe1	-31
93	0xdf	-33
94	0x50	80
95	0xbb	-69
96	0x1f	31
97	0x13	19
98	0xae	-82
99	0xec	-20
100	0x32	50
101	0x4d	77
102	0xc3	-61
103	0xbd	-67
104	0x91	-111
105	0xcb	-53
106	0x7f	127
107	0xf3	-13
108	0xef	-17
109	0x0d	13
110	0xae	-82
111	0x25	37
112	0x7a	122
113	0xf8	-8
114	0xc4	-60
115	0x4f	79
116	0xeb	-21
117	0x11	17
118	0x0c	12
119	0xa2	-94
120	0x6a	106
121	0xe1	-31
122	0x96	-106
123	0xa4	-92
124	0xdf	-33
125	0x99	-103
126	0x60	96
127	0x08	8
128	0x94	-108
129	0xec	-20
130	0x42	66
131	0x8a	-118
132	0xf9	-7
133	0xb1	-79
134	0x92	-110
135	0x59	89
136	0xb7	-73
137	0x87	-121
138	0x18	24
139	0x5e	94
140	0xfa	-6
141	0x75	117
142	0x5c	92
143	0xa9	-87
144	0xde	-34
145	0xf1	-15
146	0xd2	-46
147	0x94	-108
148	0x47	71
149	0x15	21
150	0xbc	-68
151	0xae	-82
152	0xe7	-25
153	0xa2	-94
154	0x3d	61
155	0x9d	-99
156	0x53	83
157	0xc8	-56
158	0x5f	95
159	0xa3	-93
160	0x65	101
161	0xdf	-33
162	0xd5	-43
163	0x9f	-97
164	0x6c	108
165	0xdd	-35
166	0xdc	-36
167	0xe7	-25
168	0xc6	-58
169	0x34	52
170	0xe9	-23
171	0x0b	11
172	0xed	-19
173	0x77	119
174	0x46	70
175	0xb0	-80
176	0x4e	78
177	0x7f	127
178	0x74	116
179	0x3b	59
180	0xcd	-51
181	0xb5	-75
182	0xf3	-13
183	0xc4	-60
184	0x5a	90
185	0xbd	-67
186	0x50	80
187	0x64	100
188	0xb9	-71
189	0x8b	-117
190	0xe9	-23
191	0xd8	-40
192	0x03	3
193	0xee	-18
194	0x7c	124
195	0xed	-19
196	0xaa	-86
197	0xa1	-95
198	0x27	39
199	0x61	97
200	0x4d	77
201	0xfd	-3
202	0xe3	-29
203	0x25	37
204	0x9e	-98
205	0xee	-18
206	0xa2	-94
207	0x2e	46
208	0xfe	-2
209	0x94	-108
210	0x5a	90
211	0x22	34
212	0x14	20
213	0xd6	-42
214	0x09	9
215	0x91	-111
216	0x84	-124
217	0x27	39
218	0xf6	-10
219	0x88	-120
220	0xa0	-96
221	0xd7	-41
222	0xcf	-49
223	0xdf	-33
224	0xc6	-58
225	0xd2	-46
226	0x10	16
227	0x79	121
228	0x41	65
229	0x06	6
230	0x9b	-101
231	0x16	22
232	0x7f	127
233	0x4d	77
234	0x3e	62
235	0xf6	-10
236	0xf7	-9
237	0x67	103
238	0x4f	79
239	0x3b	59
240	0x6a	106
241	0xbe	-66
242	0xb0	-80
243	0x24	36
244	0xc1	-63
245	0x2f	47
246	0x52	82
247	0xa7	-89
248	0xdc	-36
249	0xbe	-66
250	0x53	83
251	0x59	89
252	0x00	0
253	0xea	-22
254	0x4b	75
255	0x5d	93

tfl.pseudo_qconst5 i1 [1, 23, 1, 64]
0	0xf7	-9
1	0x3c	60
2	0xcd	-51
3	0x34	52
4	0x7f	127
5	0x1f	31
6	0x66	102
7	0x81	-127
8	0x45	69
9	0x4c	76
10	0x2f	47
11	0x1d	29
12	0xe2	-30
13	0xed	-19
14	0x31	49
15	0xd3	-45
16	0x57	87
17	0x9c	-100
18	0x28	40
19	0x16	22
20	0x52	82
21	0x63	99
22	0xc0	-64
23	0x26	38
24	0x6a	106
25	0x70	112
26	0x34	52
27	0xe8	-24
28	0x24	36
29	0xb5	-75
30	0xa9	-87
31	0xf9	-7
32	0x81	-127
33	0x4c	76
34	0xb9	-71
35	0x3b	59
36	0x6b	107
37	0xd3	-45
38	0xf0	-16
39	0x55	85
40	0x0c	12
41	0x0e	14
42	0x71	113
43	0x03	3
44	0x48	72
45	0x92	-110
46	0xb4	-76
47	0xc6	-58
48	0x30	48
49	0x3e	62
50	0x79	121
51	0x90	-112
52	0x08	8
53	0xae	-82
54	0x34	52
55	0x4e	78
56	0xb3	-77
57	0x4e	78
58	0x50	80
59	0x96	-106
60	0xf7	-9
61	0x19	25
62	0xc9	-55
63	0x9c	-100
64	0xdc	-36
65	0x3b	59
66	0xcd	-51
67	0xd3	-45
68	0x1a	26
69	0x17	23
70	0x59	89
71	0xae	-82
72	0x20	32
73	0x40	64
74	0x1a	26
75	0x38	56
76	0xd7	-41
77	0xd3	-45
78	0xab	-85
79	0x33	51
80	0xff	-1
81	0x27	39
82	0x08	8
83	0x37	55
84	0x32	50
85	0x9f	-97
86	0xa8	-88
87	0x91	-111
88	0xd3	-45
89	0x30	48
90	0xd8	-40
91	0x23	35
92	0x08	8
93	0xb5	-75
94	0xd4	-44
95	0x44	68
96	0x28	40
97	0x17	23
98	0xa2	-94
99	0xb1	-79
100	0x03	3
101	0x2b	43
102	0xea	-22
103	0x89	-119
104	0x0a	10
105	0x4d	77
106	0x6e	110
107	0xc9	-55
108	0x43	67
109	0x96	-106
110	0x5e	94
111	0x38	56
112	0x7a	122
113	0x0e	14
114	0x28	40
115	0xbd	-67
116	0x61	97
117	0x7f	127
118	0x8b	-117
119	0x1e	30
120	0xab	-85
121	0x73	115
122	0x81	-127
123	0xde	-34
124	0xe6	-26
125	0x39	57
126	0x40	64
127	0x48	72
128	0x05	5
129	0xb8	-72
130	0x56	86
131	0x43	67
132	0x6e	110
133	0xa7	-89
134	0x4b	75
135	0x01	1
136	0xf9	-7
137	0xd4	-44
138	0x94	-108
139	0xf7	-9
140	0xe5	-27
141	0x1b	27
142	0xf1	-15
143	0xae	-82
144	0x36	54
145	0xba	-70
146	0xf2	-14
147	0x5c	92
148	0xb2	-78
149	0x71	113
150	0x7f	127
151	0xf5	-11
152	0xa1	-95
153	0x23	35
154	0x89	-119
155	0x93	-109
156	0x42	66
157	0x97	-105
158	0x18	24
159	0xb9	-71
160	0x1a	26
161	0x55	85
162	0x35	53
163	0x49	73
164	0x65	101
165	0xd7	-41
166	0x9f	-97
167	0x81	-127
168	0x37	55
169	0xe4	-28
170	0x03	3
171	0x89	-119
172	0x68	104
173	0x64	100
174	0x28	40
175	0xaf	-81
176	0x14	20
177	0xc7	-57
178	0x45	69
179	0x81	-127
180	0x61	97
181	0x6e	110
182	0xde	-34
183	0x42	66
184	0x45	69
185	0x48	72
186	0x27	39
187	0xb4	-76
188	0x5f	95
189	0x0c	12
190	0xfa	-6
191	0xa2	-94
192	0x9b	-101
193	0x54	84
194	0x76	118
195	0xa1	-95
196	0x0c	12
197	0xc2	-62
198	0x31	49
199	0x2a	42
200	0x09	9
201	0x0b	11
202	0xe0	-32
203	0x24	36
204	0x45	69
205	0x72	114
206	0x7f	127
207	0x00	0
208	0xb4	-76
209	0x61	97
210	0x96	-106
211	0x5b	91
212	0x7f	127
213	0xb8	-72
214	0x68	104
215	0x98	-104
216	0xe0	-32
217	0xe4	-28
218	0xef	-17
219	0x2a	42
220	0x99	-103
221	0x4f	79
222	0xe0	-32
223	0xab	-85
224	0xcf	-49
225	0x69	105
226	0xc9	-55
227	0x52	82
228	0xac	-84
229	0xc6	-58
230	0xe8	-24
231	0xd5	-43
232	0xc8	-56
233	0x52	82
234	0x03	3
235	0x9c	-100
236	0xd2	-46
237	0xf5	-11
238	0x32	50
239	0xda	-38
240	0x4c	76
241	0xde	-34
242	0xa8	-88
243	0xea	-22
244	0x7f	127
245	0x4b	75
246	0x2b	43
247	0xb2	-78
248	0xeb	-21
249	0x94	-108
250	0xd3	-45
251	0x27	39
252	0xa8	-88
253	0x23	35
254	0x31	49
255	0x88	-120

tfl.pseudo_qconst7 i1 [64, 1, 1, 64]
0	0xe9	-23
1	0x78	120
2	0x4d	77
3	0x6a	106
4	0x40	64
5	0x9c	-100
6	0x21	33
7	0x5e	94
8	0x6b	107
9	0x6d	109
10	0x46	70
11	0xc5	-59
12	0x14	20
13	0xf5	-11
14	0x55	85
15	0xb0	-80
16	0x0b	11
17	0xe5	-27
18	0x5b	91
19	0xdb	-37
20	0x5a	90
21	0x26	38
22	0x18	24
23	0x30	48
24	0x76	118
25	0x2b	43
26	0xa0	-96
27	0xad	-83
28	0x66	102
29	0x17	23
30	0x1a	26
31	0x9a	-102
32	0xf3	-13
33	0xea	-22
34	0x34	52
35	0x35	53
36	0xbc	-68
37	0xa9	-87
38	0xe4	-28
39	0x44	68
40	0xe0	-32
41	0x25	37
42	0xb1	-79
43	0xa3	-93
44	0x81	-127
45	0x1d	29
46	0xfb	-5
47	0x55	85
48	0x78	120
49	0x75	117
50	0xf5	-11
51	0x7c	124
52	0x06	6
53	0x29	41
54	0xac	-84
55	0x7a	122
56	0xa6	-90
57	0x6c	108
58	0x98	-104
59	0xe8	-24
60	0x96	-106
61	0xda	-38
62	0x59	89
63	0x72	114
64	0x9e	-98
65	0xc5	-59
66	0x3f	63
67	0x07	7
68	0x02	2
69	0xa1	-95
70	0xce	-50
71	0x72	114
72	0x97	-105
73	0xa0	-96
74	0xc8	-56
75	0xd0	-48
76	0x9f	-97
77	0x43	67
78	0x9e	-98
79	0xe1	-31
80	0x4d	77
81	0xb2	-78
82	0x36	54
83	0xbe	-66
84	0x8c	-116
85	0x0a	10
86	0x87	-121
87	0x29	41
88	0xcc	-52
89	0x81	-127
90	0x57	87
91	0x29	41
92	0x4d	77
93	0x1c	28
94	0x60	96
95	0x35	53
96	0x63	99
97	0xa9	-87
98	0xa2	-94
99	0x6f	111
100	0x1a	26
101	0xb0	-80
102	0xa1	-95
103	0x2e	46
104	0x38	56
105	0x4d	77
106	0x62	98
107	0x23	35
108	0x1e	30
109	0xd1	-47
110	0xa5	-91
111	0x00	0
112	0x07	7
113	0x33	51
114	0xb9	-71
115	0xcb	-53
116	0x13	19
117	0xb1	-79
118	0x07	7
119	0xa9	-87
120	0x31	49
121	0xf4	-12
122	0x95	-107
123	0x48	72
124	0x41	65
125	0x24	36
126	0xd3	-45
127	0xf5	-11
128	0xc9	-55
129	0xb0	-80
130	0x70	112
131	0x89	-119
132	0xd9	-39
133	0x97	-105
134	0x1a	26
135	0x82	-126
136	0x6f	111
137	0x3f	63
138	0xf7	-9
139	0x09	9
140	0x1a	26
141	0x0b	11
142	0x98	-104
143	0x1b	27
144	0x3a	58
145	0xaa	-86
146	0x44	68
147	0xc1	-63
148	0xd6	-42
149	0x0b	11
150	0x6e	110
151	0x60	96
152	0x39	57
153	0xac	-84
154	0xb7	-73
155	0x61	97
156	0x66	102
157	0x4f	79
158	0xd6	-42
159	0xc5	-59
160	0x5c	92
161	0x6c	108
162	0x57	87
163	0x4e	78
164	0xda	-38
165	0x76	118
166	0x16	22
167	0x31	49
168	0x6b	107
169	0x81	-127
170	0x4f	79
171	0xcd	-51
172	0x7b	123
173	0x6f	111
174	0xce	-50
175	0x0b	11
176	0x51	81
177	0x01	1
178	0x77	119
179	0xec	-20
180	0x11	17
181	0x0c	12
182	0x74	116
183	0xc2	-62
184	0x66	102
185	0x9b	-101
186	0x24	36
187	0x84	-124
188	0xa5	-91
189	0x03	3
190	0x1f	31
191	0x65	101
192	0xf5	-11
193	0x1b	27
194	0x9d	-99
195	0x3d	61
196	0x7e	126
197	0x77	119
198	0xfd	-3
199	0x5a	90
200	0x92	-110
201	0x85	-123
202	0xaa	-86
203	0xf4	-12
204	0x6e	110
205	0xe4	-28
206	0xd5	-43
207	0x4a	74
208	0xc7	-57
209	0x7f	127
210	0x3c	60
211	0xd1	-47
212	0xb5	-75
213	0x9f	-97
214	0xd1	-47
215	0x7e	126
216	0xc2	-62
217	0x03	3
218	0xdb	-37
219	0x8d	-115
220	0x42	66
221	0x9d	-99
222	0x90	-112
223	0xcd	-51
224	0xfc	-4
225	0x52	82
226	0x8d	-115
227	0xab	-85
228	0x2a	42
229	0x57	87
230	0x41	65
231	0xb0	-80
232	0x35	53
233	0x36	54
234	0x0b	11
235	0x37	55
236	0xcf	-49
237	0x4f	79
238	0x7b	123
239	0xd4	-44
240	0x3f	63
241	0x98	-104
242	0xdc	-36
243	0x01	1
244	0xf3	-13
245	0x29	41
246	0xd1	-47
247	0x11	17
248	0xce	-50
249	0xe6	-26
250	0x12	18
251	0x2b	43
252	0x90	-112
253	0x31	49
254	0x28	40
255	0xa1	-95

tfl.pseudo_qconst9 i1 [1, 15, 1, 32]
0	0xe1	-31
1	0x8b	-117
2	0x05	5
3	0x88	-120
4	0x81	-127
5	0xc9	-55
6	0xe4	-28
7	0xea	-22
8	0x2e	46
9	0x03	3
10	0x2a	42
11	0x65	101
12	0xe2	-30
13	0x0c	12
14	0x8a	-118
15	0x8a	-118
16	0xd5	-43
17	0x5d	93
18	0xdb	-37
19	0xf0	-16
20	0x2d	45
21	0xa0	-96
22	0x22	34
23	0xa1	-95
24	0x37	55
25	0x6c	108
26	0x01	1
27	0x69	105
28	0xc1	-63
29	0xd6	-42
30	0xde	-34
31	0x30	48
32	0xe8	-24
33	0x75	117
34	0xa7	-89
35	0x36	54
36	0x3b	59
37	0x2d	45
38	0x20	32
39	0x53	83
40	0xae	-82
41	0x28	40
42	0xba	-70
43	0x23	35
44	0xfb	-5
45	0x7f	127
46	0x0e	14
47	0x42	66
48	0xbd	-67
49	0xdd	-35
50	0xe1	-31
51	0x62	98
52	0xa6	-90
53	0xc6	-58
54	0xf8	-8
55	0xa3	-93
56	0xc3	-61
57	0x39	57
58	0x47	71
59	0x92	-110
60	0xb8	-72
61	0x1a	26
62	0xa3	-93
63	0x96	-106
64	0x9d	-99
65	0x06	6
66	0x7f	127
67	0xd3	-45
68	0x69	105
69	0xba	-70
70	0x39	57
71	0xeb	-21
72	0x81	-127
73	0x9d	-99
74	0x28	40
75	0x4a	74
76	0x21	33
77	0x33	51
78	0x23	35
79	0x7f	127
80	0xd8	-40
81	0x20	32
82	0x81	-127
83	0x21	33
84	0x45	69
85	0x05	5
86	0x08	8
87	0x9d	-99
88	0x0f	15
89	0x52	82
90	0x96	-106
91	0x20	32
92	0xa9	-87
93	0xef	-17
94	0xe0	-32
95	0x81	-127
96	0x37	55
97	0x5a	90
98	0x1b	27
99	0x68	104
100	0x1d	29
101	0xcd	-51
102	0x44	68
103	0x6f	111
104	0x51	81
105	0x68	104
106	0x1b	27
107	0xe3	-29
108	0x07	7
109	0x41	65
110	0xdc	-36
111	0x72	114
112	0xe4	-28
113	0x04	4
114	0xee	-18
115	0xf9	-7
116	0x68	104
117	0x45	69
118	0x68	104
119	0x2f	47
120	0x77	119
121	0x25	37
122	0xd2	-46
123	0x34	52
124	0x94	-108
125	0xf6	-10
126	0xf8	-8
127	0xb0	-80
128	0x97	-105
129	0xe5	-27
130	0x11	17
131	0x89	-119
132	0xb7	-73
133	0x27	39
134	0x2f	47
135	0xfd	-3
136	0x5b	91
137	0x45	69
138	0x1b	27
139	0xac	-84
140	0xab	-85
141	0xe2	-30
142	0xa5	-91
143	0x95	-107
144	0x41	65
145	0x85	-123
146	0x73	115
147	0xf2	-14
148	0x97	-105
149	0x43	67
150	0xd8	-40
151	0x81	-127
152	0xaf	-81
153	0x4d	77
154	0x92	-110
155	0xf9	-7
156	0xbe	-66
157	0x9f	-97
158	0xd2	-46
159	0xb2	-78
160	0x69	105
161	0x4c	76
162	0x58	88
163	0x50	80
164	0xf3	-13
165	0x1d	29
166	0xde	-34
167	0xd9	-39
168	0xec	-20
169	0xea	-22
170	0x7f	127
171	0x53	83
172	0x54	84
173	0x7f	127
174	0xfe	-2
175	0x33	51
176	0x7a	122
177	0x53	83
178	0xc4	-60
179	0x7f	127
180	0xb5	-75
181	0xa7	-89
182	0x78	120
183	0x20	32
184	0x3d	61
185	0x81	-127
186	0x2e	46
187	0x93	-109
188	0x0f	15
189	0x56	86
190	0xcc	-52
191	0x1b	27
192	0x57	87
193	0x24	36
194	0xeb	-21
195	0xb9	-71
196	0x08	8
197	0xab	-85
198	0x2d	45
199	0x77	119
200	0x75	117
201	0xda	-38
202	0x7a	122
203	0x67	103
204	0xec	-20
205	0x4c	76
206	0xa8	-88
207	0x3c	60
208	0xd1	-47
209	0xca	-54
210	0x56	86
211	0x69	105
212	0x7c	124
213	0xb8	-72
214	0x55	85
215	0x8d	-115
216	0x0e	14
217	0xd1	-47
218	0x23	35
219	0x4d	77
220	0xbc	-68
221	0xf8	-8
222	0x17	23
223	0xbb	-69
224	0x14	20
225	0xcd	-51
226	0x3e	62
227	0x14	20
228	0xab	-85
229	0x5e	94
230	0x7f	127
231	0xe2	-30
232	0x9c	-100
233	0xac	-84
234	0x53	83
235	0x32	50
236	0x5c	92
237	0x37	55
238	0x7f	127
239	0xff	-1
240	0x68	104
241	0x61	97
242	0x3d	61
243	0x06	6
244	0xb2	-78
245	0x14	20
246	0x2b	43
247	0x4e	78
248	0x40	64
249	0x99	-103
250	0x7d	125
251	0xb3	-77
252	0x83	-125
253	0x9a	-102
254	0x0f	15
255	0x30	48

tfl.pseudo_qconst11 i1 [1, 9, 1, 32]
0	0xf5	-11
1	0x53	83
2	0x86	-122
3	0x81	-127
4	0x7a	122
5	0x78	120
6	0x9b	-101
7	0x0a	10
8	0x2c	44
9	0xa5	-91
10	0xca	-54
11	0xc8	-56
12	0x22	34
13	0x5b	91
14	0xc1	-63
15	0x92	-110
16	0x9b	-101
17	0x68	104
18	0x7f	127
19	0x66	102
20	0x27	39
21	0xea	-22
22	0x45	69
23	0xd9	-39
24	0xe7	-25
25	0xeb	-21
26	0xa9	-87
27	0x04	4
28	0x65	101
29	0x81	-127
30	0xf6	-10
31	0x7f	127
32	0x7f	127
33	0x67	103
34	0xe4	-28
35	0x58	88
36	0x25	37
37	0x81	-127
38	0x7f	127
39	0x5d	93
40	0xd9	-39
41	0x8e	-114
42	0xab	-85
43	0x13	19
44	0x0b	11
45	0x59	89
46	0x81	-127
47	0x92	-110
48	0xd1	-47
49	0x8a	-118
50	0xe3	-29
51	0x37	55
52	0x24	36
53	0x81	-127
54	0x8d	-115
55	0xca	-54
56	0x5f	95
57	0x94	-108
58	0x95	-107
59	0x81	-127
60	0x0e	14
61	0x8c	-116
62	0x9e	-98
63	0x44	68
64	0xc0	-64
65	0xcd	-51
66	0x38	56
67	0xf1	-15
68	0xed	-19
69	0x77	119
70	0x50	80
71	0x81	-127
72	0xd3	-45
73	0xa0	-96
74	0x30	48
75	0x8e	-114
76	0x10	16
77	0x1b	27
78	0x39	57
79	0xd3	-45
80	0x09	9
81	0xcc	-52
82	0x13	19
83	0x2c	44
84	0x61	97
85	0x05	5
86	0xbe	-66
87	0xc1	-63
88	0x65	101
89	0x8f	-113
90	0xa2	-94
91	0x56	86
92	0xa1	-95
93	0x33	51
94	0x45	69
95	0x37	55
96	0x01	1
97	0x7f	127
98	0x4b	75
99	0x63	99
100	0xfa	-6
101	0xe4	-28
102	0xe2	-30
103	0x22	34
104	0x89	-119
105	0x82	-126
106	0x8a	-118
107	0x83	-125
108	0x49	73
109	0x81	-127
110	0xdb	-37
111	0x64	100
112	0x64	100
113	0x7f	127
114	0x3a	58
115	0xe9	-23
116	0x60	96
117	0xce	-50
118	0xbd	-67
119	0x35	53
120	0x7f	127
121	0x96	-106
122	0x2c	44
123	0xac	-84
124	0x51	81
125	0xc8	-56
126	0x47	71
127	0xb0	-80
128	0x51	81
129	0x87	-121
130	0xcc	-52
131	0xc3	-61
132	0xa2	-94
133	0xa7	-89
134	0x4b	75
135	0x83	-125
136	0x27	39
137	0x7f	127
138	0xa9	-87
139	0xe8	-24
140	0x81	-127
141	0xb1	-79
142	0xb3	-77
143	0x7f	127
144	0x81	-127
145	0x11	17
146	0xb3	-77
147	0x08	8
148	0x81	-127
149	0x14	20
150	0x5b	91
151	0x7f	127
152	0x62	98
153	0xbc	-68
154	0x98	-104
155	0xa0	-96
156	0xa1	-95
157	0xdd	-35
158	0x42	66
159	0x43	67
160	0xad	-83
161	0x29	41
162	0x7f	127
163	0x26	38
164	0x7f	127
165	0xb4	-76
166	0xde	-34
167	0x09	9
168	0x24	36
169	0x4c	76
170	0x00	0
171	0xe0	-32
172	0xdc	-36
173	0x24	36
174	0x5a	90
175	0x1a	26
176	0xff	-1
177	0xe4	-28
178	0xa6	-90
179	0x58	88
180	0x6f	111
181	0x40	64
182	0x81	-127
183	0xb0	-80
184	0x30	48
185	0xce	-50
186	0xf7	-9
187	0x68	104
188	0x11	17
189	0x40	64
190	0x2e	46
191	0x9a	-102
192	0x8a	-118
193	0x0e	14
194	0x6b	107
195	0x3a	58
196	0x7a	122
197	0x1e	30
198	0x2d	45
199	0xa6	-90
200	0x4e	78
201	0xaa	-86
202	0x5f	95
203	0x04	4
204	0x75	117
205	0x32	50
206	0xa0	-96
207	0xf9	-7
208	0x12	18
209	0x94	-108
210	0x75	117
211	0x72	114
212	0xa3	-93
213	0x56	86
214	0x10	16
215	0x0c	12
216	0xe2	-30
217	0x81	-127
218	0x5c	92
219	0xba	-70
220	0x81	-127
221	0xa6	-90
222	0x85	-123
223	0x88	-120
224	0x11	17
225	0x68	104
226	0x48	72
227	0x8d	-115
228	0x9b	-101
229	0xd3	-45
230	0x8f	-113
231	0xb2	-78
232	0x7f	127
233	0x05	5
234	0xa4	-92
235	0x7f	127
236	0x3f	63
237	0x2c	44
238	0x4e	78
239	0x32	50
240	0xa6	-90
241	0x43	67
242	0xa2	-94
243	0x94	-108
244	0x66	102
245	0xe5	-27
246	0xc3	-61
247	0xc5	-59
248	0x2f	47
249	0x22	34
250	0x7f	127
251	0x43	67
252	0xca	-54
253	0xa4	-92
254	0x81	-127
255	0xe5	-27

tfl.pseudo_qconst13 i1 [64, 1, 1, 64]
0	0xac	-84
1	0xec	-20
2	0x7d	125
3	0xff	-1
4	0x27	39
5	0x8a	-118
6	0xfe	-2
7	0x89	-119
8	0x76	118
9	0x50	80
10	0xac	-84
11	0x65	101
12	0x6b	107
13	0x0b	11
14	0x61	97
15	0xbf	-65
16	0x2c	44
17	0x5f	95
18	0xd8	-40
19	0x5b	91
20	0x7f	127
21	0x11	17
22	0x52	82
23	0xfd	-3
24	0xa1	-95
25	0x2b	43
26	0xb2	-78
27	0x07	7
28	0xfc	-4
29	0x4e	78
30	0xc1	-63
31	0xd5	-43
32	0x7e	126
33	0x7f	127
34	0x68	104
35	0x45	69
36	0xf1	-15
37	0xbe	-66
38	0x43	67
39	0xdb	-37
40	0x70	112
41	0x11	17
42	0xa6	-90
43	0x22	34
44	0x04	4
45	0x20	32
46	0xd8	-40
47	0x15	21
48	0x78	120
49	0x20	32
50	0x28	40
51	0x66	102
52	0x05	5
53	0xdd	-35
54	0x43	67
55	0xe3	-29
56	0xe5	-27
57	0x1f	31
58	0x26	38
59	0x9a	-102
60	0xc9	-55
61	0xc4	-60
62	0x5d	93
63	0xb3	-77
64	0x32	50
65	0x29	41
66	0x75	117
67	0x28	40
68	0xb9	-71
69	0xbe	-66
70	0x83	-125
71	0xce	-50
72	0x43	67
73	0xa0	-96
74	0x60	96
75	0x06	6
76	0x55	85
77	0x7f	127
78	0xe7	-25
79	0xa0	-96
80	0x48	72
81	0xf1	-15
82	0x45	69
83	0xb0	-80
84	0x1b	27
85	0xaa	-86
86	0x3c	60
87	0xa6	-90
88	0x61	97
89	0xdf	-33
90	0x97	-105
91	0xc4	-60
92	0xc3	-61
93	0x6f	111
94	0xab	-85
95	0x4c	76
96	0x75	117
97	0x5f	95
98	0x7c	124
99	0xbb	-69
100	0x1d	29
101	0xf9	-7
102	0xb2	-78
103	0x15	21
104	0x49	73
105	0x00	0
106	0x6d	109
107	0xe9	-23
108	0xfd	-3
109	0xf1	-15
110	0x76	118
111	0x6c	108
112	0x72	114
113	0xe0	-32
114	0xf1	-15
115	0x2c	44
116	0xe5	-27
117	0x0e	14
118	0x26	38
119	0x13	19
120	0x6c	108
121	0x5f	95
122	0xd1	-47
123	0xb8	-72
124	0x0b	11
125	0x10	16
126	0xcf	-49
127	0xa0	-96
128	0x9a	-102
129	0xc7	-57
130	0x70	112
131	0x64	100
132	0xe2	-30
133	0x5e	94
134	0xa1	-95
135	0x32	50
136	0xac	-84
137	0x61	97
138	0x23	35
139	0xdd	-35
140	0xf0	-16
141	0x22	34
142	0x30	48
143	0xdd	-35
144	0xb3	-77
145	0x92	-110
146	0x0a	10
147	0x9b	-101
148	0x74	116
149	0x3d	61
150	0xcc	-52
151	0x93	-109
152	0xef	-17
153	0x5c	92
154	0x91	-111
155	0x25	37
156	0x01	1
157	0x51	81
158	0x72	114
159	0x9b	-101
160	0xf9	-7
161	0x42	66
162	0x6a	106
163	0x2d	45
164	0x68	104
165	0xb0	-80
166	0xd5	-43
167	0x32	50
168	0xf3	-13
169	0xb9	-71
170	0xd2	-46
171	0x78	120
172	0x24	36
173	0x7f	127
174	0x27	39
175	0xe9	-23
176	0xe5	-27
177	0xc0	-64
178	0x67	103
179	0x3d	61
180	0xd4	-44
181	0x3d	61
182	0xa5	-91
183	0xe4	-28
184	0x5b	91
185	0xb2	-78
186	0xd2	-46
187	0xbb	-69
188	0xe9	-23
189	0x1c	28
190	0x5c	92
191	0xbf	-65
192	0x56	86
193	0xd6	-42
194	0xa5	-91
195	0x3f	63
196	0x64	100
197	0x43	67
198	0x3f	63
199	0xac	-84
200	0x8f	-113
201	0x68	104
202	0xbc	-68
203	0xc2	-62
204	0x73	115
205	0xd3	-45
206	0x60	96
207	0x0a	10
208	0x39	57
209	0xf4	-12
210	0x5c	92
211	0xb0	-80
212	0x34	52
213	0xef	-17
214	0xcf	-49
215	0x73	115
216	0xbd	-67
217	0x9e	-98
218	0x49	73
219	0x51	81
220	0x30	48
221	0x47	71
222	0x72	114
223	0xf6	-10
224	0x18	24
225	0x4b	75
226	0xe4	-28
227	0x1c	28
228	0xa1	-95
229	0x90	-112
230	0x27	39
231	0x83	-125
232	0xe0	-32
233	0x0d	13
234	0xc8	-56
235	0xe1	-31
236	0xdd	-35
237	0xce	-50
238	0xe9	-23
239	0xd9	-39
240	0x22	34
241	0x45	69
242	0xb9	-71
243	0x08	8
244	0x7f	127
245	0x9b	-101
246	0x2c	44
247	0xd3	-45
248	0xfc	-4
249	0x71	113
250	0xde	-34
251	0xf5	-11
252	0xf6	-10
253	0xf6	-10
254	0x16	22
255	0x2c	44

tfl.pseudo_qconst15 i1 [1, 11, 1, 32]
0	0x12	18
1	0x20	32
2	0xc0	-64
3	0xcd	-51
4	0xbd	-67
5	0x19	25
6	0xb8	-72
7	0x13	19
8	0x63	99
9	0x0f	15
10	0x5c	92
11	0xba	-70
12	0x7d	125
13	0x81	-127
14	0x1a	26
15	0x77	119
16	0xf0	-16
17	0x2f	47
18	0x3e	62
19	0x59	89
20	0x20	32
21	0x37	55
22	0x2e	46
23	0x26	38
24	0xcb	-53
25	0x1c	28
26	0x49	73
27	0x96	-106
28	0x42	66
29	0xae	-82
30	0x58	88
31	0x0d	13
32	0x49	73
33	0x5b	91
34	0xc2	-62
35	0x81	-127
36	0xef	-17
37	0x50	80
38	0x1a	26
39	0x59	89
40	0x36	54
41	0x8c	-116
42	0xf4	-12
43	0x23	35
44	0x1c	28
45	0x10	16
46	0xe3	-29
47	0xe4	-28
48	0x01	1
49	0x96	-106
50	0x70	112
51	0x4a	74
52	0x81	-127
53	0xde	-34
54	0x99	-103
55	0xe3	-29
56	0x11	17
57	0xe6	-26
58	0x98	-104
59	0xa6	-90
60	0x34	52
61	0xea	-22
62	0x12	18
63	0x7f	127
64	0xb2	-78
65	0x0c	12
66	0xd2	-46
67	0x18	24
68	0x81	-127
69	0x3c	60
70	0xec	-20
71	0x71	113
72	0xc6	-58
73	0x51	81
74	0xae	-82
75	0x0f	15
76	0x2f	47
77	0x17	23
78	0x7f	127
79	0x96	-106
80	0x4f	79
81	0x7f	127
82	0x68	104
83	0xdd	-35
84	0x83	-125
85	0xd2	-46
86	0xab	-85
87	0x81	-127
88	0x28	40
89	0x21	33
90	0x4a	74
91	0x81	-127
92	0xc1	-63
93	0xbf	-65
94	0x4e	78
95	0xca	-54
96	0xfd	-3
97	0x16	22
98	0x06	6
99	0xe8	-24
100	0x40	64
101	0x53	83
102	0x7a	122
103	0x72	114
104	0x7f	127
105	0xe7	-25
106	0x41	65
107	0x7f	127
108	0x81	-127
109	0x9a	-102
110	0xe9	-23
111	0xe9	-23
112	0x88	-120
113	0xe5	-27
114	0x58	88
115	0x43	67
116	0xf1	-15
117	0x9c	-100
118	0xa3	-93
119	0x32	50
120	0x91	-111
121	0x7f	127
122	0xdd	-35
123	0x3b	59
124	0x31	49
125	0xda	-38
126	0x0b	11
127	0xd5	-43
128	0x6b	107
129	0x40	64
130	0x68	104
131	0x45	69
132	0x0b	11
133	0x85	-123
134	0xc9	-55
135	0x32	50
136	0xb1	-79
137	0x9f	-97
138	0xb7	-73
139	0xc2	-62
140	0xab	-85
141	0x7a	122
142	0xdb	-37
143	0x47	71
144	0x62	98
145	0x74	116
146	0x7f	127
147	0x7f	127
148	0x4d	77
149	0xf7	-9
150	0x86	-122
151	0x4f	79
152	0x7c	124
153	0xc1	-63
154	0xac	-84
155	0x6e	110
156	0x95	-107
157	0xdb	-37
158	0x5f	95
159	0x01	1
160	0xa2	-94
161	0xcc	-52
162	0xc4	-60
163	0x10	16
164	0x07	7
165	0x35	53
166	0x5f	95
167	0xce	-50
168	0x16	22
169	0x81	-127
170	0x15	21
171	0x67	103
172	0xbb	-69
173	0x21	33
174	0x45	69
175	0xaf	-81
176	0x3b	59
177	0xab	-85
178	0x9c	-100
179	0x57	87
180	0xa9	-87
181	0x7f	127
182	0x56	86
183	0x52	82
184	0xb8	-72
185	0x69	105
186	0xa4	-92
187	0xe0	-32
188	0x17	23
189	0x6f	111
190	0x75	117
191	0x36	54
192	0x81	-127
193	0x7f	127
194	0x96	-106
195	0x34	52
196	0x34	52
197	0x18	24
198	0xb9	-71
199	0x34	52
200	0xec	-20
201	0x35	53
202	0x55	85
203	0xdf	-33
204	0xe0	-32
205	0xf0	-16
206	0x8c	-116
207	0xba	-70
208	0x81	-127
209	0x0d	13
210	0x12	18
211	0x6e	110
212	0x55	85
213	0xc3	-61
214	0x81	-127
215	0xbb	-69
216	0x08	8
217	0x23	35
218	0x24	36
219	0x94	-108
220	0xd6	-42
221	0xf7	-9
222	0x81	-127
223	0x19	25
224	0xa6	-90
225	0x15	21
226	0x7a	122
227	0x3b	59
228	0x90	-112
229	0x7f	127
230	0x81	-127
231	0x2c	44
232	0x9f	-97
233	0x1f	31
234	0x7f	127
235	0x31	49
236	0xfe	-2
237	0xdb	-37
238	0xc9	-55
239	0x0b	11
240	0x60	96
241	0xee	-18
242	0x4f	79
243	0xc8	-56
244	0x5f	95
245	0x8e	-114
246	0x2b	43
247	0xb0	-80
248	0x7f	127
249	0x79	121
250	0x97	-105
251	0x86	-122
252	0x73	115
253	0x16	22
254	0x2f	47
255	0xb9	-71

tfl.pseudo_qconst17 i1 [1, 7, 1, 32]
0	0xf9	-7
1	0x00	0
2	0x68	104
3	0x7f	127
4	0x7d	125
5	0x68	104
6	0xae	-82
7	0xb2	-78
8	0x07	7
9	0xe8	-24
10	0x81	-127
11	0x40	64
12	0x56	86
13	0xad	-83
14	0xa1	-95
15	0xd5	-43
16	0xa9	-87
17	0x81	-127
18	0x02	2
19	0xed	-19
20	0x3e	62
21	0x90	-112
22	0xd1	-47
23	0x48	72
24	0x33	51
25	0xa7	-89
26	0x73	115
27	0xe8	-24
28	0x31	49
29	0xa8	-88
30	0x95	-107
31	0xf7	-9
32	0x32	50
33	0x54	84
34	0xda	-38
35	0x9a	-102
36	0xb3	-77
37	0x81	-127
38	0x75	117
39	0x25	37
40	0x23	35
41	0x4e	78
42	0xb9	-71
43	0x41	65
44	0xbf	-65
45	0x8a	-118
46	0x82	-126
47	0x31	49
48	0x81	-127
49	0x5a	90
50	0xef	-17
51	0x7a	122
52	0xe2	-30
53	0x89	-119
54	0xf4	-12
55	0x7c	124
56	0x50	80
57	0x7a	122
58	0x0b	11
59	0x84	-124
60	0x61	97
61	0xa2	-94
62	0x2d	45
63	0x1d	29
64	0x62	98
65	0xbe	-66
66	0x4d	77
67	0xd1	-47
68	0x3f	63
69	0xca	-54
70	0xb0	-80
71	0xf4	-12
72	0xb1	-79
73	0x81	-127
74	0x9e	-98
75	0x7f	127
76	0xec	-20
77	0xde	-34
78	0x8d	-115
79	0x81	-127
80	0xc2	-62
81	0x00	0
82	0x2f	47
83	0x7e	126
84	0x87	-121
85	0x19	25
86	0xe5	-27
87	0x9f	-97
88	0x20	32
89	0x7f	127
90	0x88	-120
91	0x03	3
92	0x7f	127
93	0xe1	-31
94	0x5f	95
95	0xc3	-61
96	0x7f	127
97	0x4b	75
98	0x81	-127
99	0x98	-104
100	0x19	25
101	0x9d	-99
102	0x47	71
103	0x94	-108
104	0x0e	14
105	0x69	105
106	0x9b	-101
107	0xd6	-42
108	0x81	-127
109	0x07	7
110	0x52	82
111	0xbd	-67
112	0xd9	-39
113	0xbe	-66
114	0xe4	-28
115	0x15	21
116	0x99	-103
117	0x88	-120
118	0x81	-127
119	0x7f	127
120	0xbf	-65
121	0x12	18
122	0x7f	127
123	0xbb	-69
124	0x29	41
125	0x00	0
126	0xe4	-28
127	0xe7	-25
128	0x5f	95
129	0x58	88
130	0xe1	-31
131	0xc7	-57
132	0x7f	127
133	0x57	87
134	0xd8	-40
135	0x36	54
136	0x25	37
137	0x6a	106
138	0x72	114
139	0x97	-105
140	0xfe	-2
141	0x49	73
142	0xc3	-61
143	0xff	-1
144	0x84	-124
145	0xc6	-58
146	0x23	35
147	0x9c	-100
148	0xfc	-4
149	0x73	115
150	0x66	102
151	0xa2	-94
152	0x81	-127
153	0x01	1
154	0x02	2
155	0x81	-127
156	0x49	73
157	0x06	6
158	0x38	56
159	0x16	22
160	0xe2	-30
161	0x06	6
162	0xd2	-46
163	0xc9	-55
164	0xef	-17
165	0xbf	-65
166	0x71	113
167	0x7f	127
168	0xb8	-72
169	0x32	50
170	0x79	121
171	0xe7	-25
172	0xc7	-57
173	0xa2	-94
174	0x7f	127
175	0xa2	-94
176	0x7e	126
177	0xd7	-41
178	0x81	-127
179	0x7f	127
180	0x81	-127
181	0x0a	10
182	0x1b	27
183	0x76	118
184	0xf3	-13
185	0xc7	-57
186	0x55	85
187	0xfd	-3
188	0x19	25
189	0x46	70
190	0xfe	-2
191	0x08	8
192	0x5c	92
193	0x7f	127
194	0xac	-84
195	0x02	2
196	0x47	71
197	0x90	-112
198	0x7f	127
199	0x71	113
200	0x7f	127
201	0xf0	-16
202	0xac	-84
203	0x1b	27
204	0xda	-38
205	0x7f	127
206	0xdd	-35
207	0xe3	-29
208	0x12	18
209	0x78	120
210	0xba	-70
211	0x0e	14
212	0x0a	10
213	0x7f	127
214	0xf0	-16
215	0x03	3
216	0xe6	-26
217	0xe1	-31
218	0xdd	-35
219	0x05	5
220	0x39	57
221	0x7f	127
222	0x81	-127
223	0x7f	127

tfl.pseudo_qconst19 i1 [64, 1, 1, 32]
0	0x74	116
1	0xd6	-42
2	0xbd	-67
3	0x67	103
4	0x8a	-118
5	0x8d	-115
6	0x63	99
7	0xb8	-72
8	0xca	-54
9	0xad	-83
10	0xb6	-74
11	0xc1	-63
12	0x5c	92
13	0xf7	-9
14	0xcc	-52
15	0x7f	127
16	0x3c	60
17	0x00	0
18	0x81	-127
19	0xca	-54
20	0x40	64
21	0x41	65
22	0xc2	-62
23	0x2a	42
24	0x1c	28
25	0x53	83
26	0xa5	-91
27	0xe9	-23
28	0xdf	-33
29	0xed	-19
30	0xe6	-26
31	0x9c	-100
32	0xe0	-32
33	0xe4	-28
34	0x6f	111
35	0xee	-18
36	0x5e	94
37	0x96	-106
38	0xab	-85
39	0x68	104
40	0xa1	-95
41	0xa2	-94
42	0xc5	-59
43	0x74	116
44	0xd6	-42
45	0x09	9
46	0x2f	47
47	0xaf	-81
48	0x4c	76
49	0xd2	-46
50	0x8d	-115
51	0x2f	47
52	0x3e	62
53	0xa6	-90
54	0x29	41
55	0x7f	127
56	0x66	102
57	0x1b	27
58	0x0f	15
59	0xa5	-91
60	0xd3	-45
61	0x77	119
62	0xd2	-46
63	0x16	22
64	0x07	7
65	0xf3	-13
66	0xf1	-15
67	0xf2	-14
68	0x02	2
69	0xc0	-64
70	0x07	7
71	0xf7	-9
72	0xf0	-16
73	0xfc	-4
74	0x1a	26
75	0xb4	-76
76	0x7f	127
77	0xef	-17
78	0x12	18
79	0x06	6
80	0xd2	-46
81	0x2f	47
82	0x9e	-98
83	0x93	-109
84	0xcc	-52
85	0xfa	-6
86	0x69	105
87	0x2b	43
88	0x56	86
89	0xcb	-53
90	0xc3	-61
91	0x29	41
92	0xf2	-14
93	0x22	34
94	0x74	116
95	0xcd	-51
96	0x0a	10
97	0x56	86
98	0xd5	-43
99	0x5c	92
100	0xb4	-76
101	0x57	87
102	0x81	-127
103	0x43	67
104	0x8a	-118
105	0x75	117
106	0x39	57
107	0xcd	-51
108	0x51	81
109	0x4d	77
110	0xee	-18
111	0x0e	14
112	0xb5	-75
113	0x7a	122
114	0x1b	27
115	0xee	-18
116	0x3c	60
117	0xe8	-24
118	0x16	22
119	0x73	115
120	0x0a	10
121	0xe8	-24
122	0x42	66
123	0xb1	-79
124	0xde	-34
125	0x18	24
126	0xfb	-5
127	0x64	100
128	0x1b	27
129	0x22	34
130	0xb7	-73
131	0x15	21
132	0x7a	122
133	0x71	113
134	0x0d	13
135	0xfa	-6
136	0x40	64
137	0x1a	26
138	0x05	5
139	0x58	88
140	0x81	-127
141	0x98	-104
142	0x9c	-100
143	0x17	23
144	0x49	73
145	0xa3	-93
146	0xce	-50
147	0x1f	31
148	0xe9	-23
149	0x1a	26
150	0x94	-108
151	0x28	40
152	0x62	98
153	0x9e	-98
154	0x89	-119
155	0x7a	122
156	0xa3	-93
157	0xe5	-27
158	0x12	18
159	0x76	118
160	0x74	116
161	0xf4	-12
162	0xf1	-15
163	0x45	69
164	0x82	-126
165	0xae	-82
166	0x23	35
167	0xca	-54
168	0xaf	-81
169	0xca	-54
170	0xd5	-43
171	0xb7	-73
172	0xf6	-10
173	0xeb	-21
174	0x7f	127
175	0x2e	46
176	0xbc	-68
177	0x3e	62
178	0xb3	-77
179	0x27	39
180	0xb1	-79
181	0xc6	-58
182	0x7c	124
183	0x65	101
184	0xe0	-32
185	0x24	36
186	0xf6	-10
187	0xf8	-8
188	0x3e	62
189	0xe5	-27
190	0x10	16
191	0x10	16
192	0xb7	-73
193	0x10	16
194	0xfc	-4
195	0xaa	-86
196	0x6e	110
197	0x43	67
198	0x3f	63
199	0xcf	-49
200	0x70	112
201	0xfd	-3
202	0xec	-20
203	0xfa	-6
204	0xc3	-61
205	0x5d	93
206	0xa3	-93
207	0xc1	-63
208	0x32	50
209	0x5b	91
210	0x95	-107
211	0x81	-127
212	0x6c	108
213	0x12	18
214	0x0f	15
215	0xcb	-53
216	0xe4	-28
217	0x03	3
218	0x8f	-113
219	0x5b	91
220	0x16	22
221	0xf2	-14
222	0x36	54
223	0xc2	-62
224	0x1d	29
225	0x46	70
226	0xad	-83
227	0x16	22
228	0x9d	-99
229	0x86	-122
230	0x55	85
231	0x22	34
232	0x7d	125
233	0x4d	77
234	0x5f	95
235	0x8b	-117
236	0x44	68
237	0x45	69
238	0xbd	-67
239	0x6d	109
240	0x7a	122
241	0x81	-127
242	0x6d	109
243	0x05	5
244	0x22	34
245	0xf4	-12
246	0xae	-82
247	0xab	-85
248	0xf8	-8
249	0x2f	47
250	0xe3	-29
251	0x90	-112
252	0xad	-83
253	0x81	-127
254	0x93	-109
255	0x15	21

tfl.pseudo_qconst21 i1 [1, 5, 1, 32]
0	0x7f	127
1	0xb4	-76
2	0x81	-127
3	0xca	-54
4	0x71	113
5	0x19	25
6	0xc8	-56
7	0x7a	122
8	0x7f	127
9	0xdc	-36
10	0xfa	-6
11	0xc1	-63
12	0x7f	127
13	0x14	20
14	0x95	-107
15	0x08	8
16	0x5c	92
17	0xd8	-40
18	0x81	-127
19	0x7f	127
20	0x50	80
21	0xfb	-5
22	0x81	-127
23	0xaf	-81
24	0x1d	29
25	0x8b	-117
26	0xc2	-62
27	0x89	-119
28	0x84	-124
29	0x40	64
30	0x98	-104
31	0x88	-120
32	0x2c	44
33	0x45	69
34	0xfc	-4
35	0xd1	-47
36	0x7f	127
37	0x91	-111
38	0x74	116
39	0x73	115
40	0x50	80
41	0xff	-1
42	0x7e	126
43	0x0d	13
44	0x30	48
45	0x86	-122
46	0x1c	28
47	0xb2	-78
48	0xfb	-5
49	0xfb	-5
50	0xe4	-28
51	0x93	-109
52	0xfb	-5
53	0x23	35
54	0xa1	-95
55	0x1c	28
56	0x98	-104
57	0x6b	107
58	0xac	-84
59	0xab	-85
60	0xbe	-66
61	0x6e	110
62	0x81	-127
63	0x81	-127
64	0x9b	-101
65	0x98	-104
66	0x9a	-102
67	0x1d	29
68	0x07	7
69	0x23	35
70	0xab	-85
71	0x2b	43
72	0x24	36
73	0x9a	-102
74	0x81	-127
75	0xe6	-26
76	0x93	-109
77	0x81	-127
78	0xa6	-90
79	0x81	-127
80	0xbb	-69
81	0x53	83
82	0xfd	-3
83	0x0a	10
84	0x1c	28
85	0x9c	-100
86	0x68	104
87	0x15	21
88	0x43	67
89	0x16	22
90	0x81	-127
91	0xd1	-47
92	0x24	36
93	0x7f	127
94	0x3e	62
95	0xbe	-66
96	0x27	39
97	0xa3	-93
98	0x4e	78
99	0x08	8
100	0xe2	-30
101	0x7f	127
102	0x69	105
103	0x81	-127
104	0x69	105
105	0x81	-127
106	0x27	39
107	0x7f	127
108	0x79	121
109	0xc2	-62
110	0x60	96
111	0x78	120
112	0xec	-20
113	0x7f	127
114	0x6b	107
115	0x97	-105
116	0x3f	63
117	0xfe	-2
118	0x31	49
119	0x7f	127
120	0xa3	-93
121	0xba	-70
122	0x02	2
123	0x7f	127
124	0x81	-127
125	0x8b	-117
126	0x22	34
127	0xb0	-80
128	0x33	51
129	0x7f	127
130	0x59	89
131	0x7f	127
132	0x8f	-113
133	0x0d	13
134	0x7f	127
135	0xeb	-21
136	0x6b	107
137	0x03	3
138	0xa1	-95
139	0x4b	75
140	0x2c	44
141	0xe4	-28
142	0x7f	127
143	0xe0	-32
144	0x81	-127
145	0xe5	-27
146	0x79	121
147	0xb9	-71
148	0x81	-127
149	0x81	-127
150	0x7d	125
151	0xf2	-14
152	0x7f	127
153	0x81	-127
154	0x18	24
155	0xc7	-57
156	0x1c	28
157	0x5f	95
158	0x76	118
159	0x42	66

tfl.pseudo_qconst23 i1 [32, 5, 1, 40]
0	0xdd	-35
1	0x16	22
2	0xfe	-2
3	0xa0	-96
4	0x7f	127
5	0x1f	31
6	0xfb	-5
7	0xa1	-95
8	0x03	3
9	0x6d	109
10	0x34	52
11	0x9b	-101
12	0xa9	-87
13	0x6a	106
14	0xcd	-51
15	0x29	41
16	0xb8	-72
17	0xa6	-90
18	0xb2	-78
19	0x83	-125
20	0x3a	58
21	0x9b	-101
22	0x33	51
23	0x22	34
24	0x15	21
25	0x0e	14
26	0x6e	110
27	0x93	-109
28	0x32	50
29	0x59	89
30	0xd2	-46
31	0x30	48
32	0xde	-34
33	0xa8	-88
34	0x09	9
35	0x92	-110
36	0xf6	-10
37	0x3a	58
38	0x2f	47
39	0x71	113
40	0x46	70
41	0x09	9
42	0x49	73
43	0x56	86
44	0xbc	-68
45	0x05	5
46	0x45	69
47	0x55	85
48	0xd9	-39
49	0x08	8
50	0xa4	-92
51	0x42	66
52	0x69	105
53	0xc5	-59
54	0x71	113
55	0x70	112
56	0x01	1
57	0xde	-34
58	0x5e	94
59	0x6d	109
60	0x61	97
61	0x3a	58
62	0x42	66
63	0x14	20
64	0xda	-38
65	0xc1	-63
66	0x0d	13
67	0x63	99
68	0xa9	-87
69	0x70	112
70	0xf4	-12
71	0x03	3
72	0x33	51
73	0xba	-70
74	0x09	9
75	0x55	85
76	0xa1	-95
77	0xbd	-67
78	0x50	80
79	0x60	96
80	0x46	70
81	0x27	39
82	0x6b	107
83	0x1e	30
84	0x05	5
85	0x72	114
86	0xe3	-29
87	0x6a	106
88	0xf7	-9
89	0x00	0
90	0x57	87
91	0xd7	-41
92	0x2b	43
93	0x36	54
94	0x08	8
95	0xc5	-59
96	0xc2	-62
97	0xdc	-36
98	0x0b	11
99	0xdf	-33
100	0x31	49
101	0x9e	-98
102	0x72	114
103	0x40	64
104	0x0c	12
105	0x18	24
106	0xd7	-41
107	0x18	24
108	0x3c	60
109	0xe3	-29
110	0xd6	-42
111	0xff	-1
112	0x42	66
113	0x21	33
114	0xd3	-45
115	0x14	20
116	0xf7	-9
117	0x9b	-101
118	0x5a	90
119	0xc1	-63
120	0xe0	-32
121	0x2e	46
122	0x76	118
123	0x3a	58
124	0x75	117
125	0xf1	-15
126	0xf2	-14
127	0xa6	-90
128	0x54	84
129	0x40	64
130	0xe6	-26
131	0xd7	-41
132	0x51	81
133	0x61	97
134	0xb3	-77
135	0x51	81
136	0xc7	-57
137	0xd0	-48
138	0xb8	-72
139	0x28	40
140	0x5d	93
141	0xb1	-79
142	0x6f	111
143	0x56	86
144	0x0e	14
145	0x94	-108
146	0x17	23
147	0xda	-38
148	0x30	48
149	0x48	72
150	0xe8	-24
151	0x88	-120
152	0x28	40
153	0xbd	-67
154	0xbf	-65
155	0x78	120
156	0xeb	-21
157	0x28	40
158	0x3d	61
159	0x8f	-113
160	0xfd	-3
161	0xf5	-11
162	0x97	-105
163	0xaf	-81
164	0xe2	-30
165	0x67	103
166	0x7c	124
167	0xa5	-91
168	0x4d	77
169	0x37	55
170	0xf3	-13
171	0x43	67
172	0x56	86
173	0xa4	-92
174	0x0c	12
175	0xa3	-93
176	0xbb	-69
177	0xde	-34
178	0x19	25
179	0x1e	30
180	0xdb	-37
181	0xdd	-35
182	0x1b	27
183	0x6e	110
184	0xeb	-21
185	0x16	22
186	0x48	72
187	0xf0	-16
188	0x54	84
189	0xe6	-26
190	0x09	9
191	0x9c	-100
192	0xe1	-31
193	0xc9	-55
194	0xd3	-45
195	0x55	85
196	0xc4	-60
197	0x56	86
198	0xa0	-96
199	0xc5	-59
200	0x6e	110
201	0x19	25
202	0x4f	79
203	0xd7	-41
204	0x35	53
205	0x3b	59
206	0x19	25
207	0x93	-109
208	0xcd	-51
209	0x96	-106
210	0xc5	-59
211	0x8a	-118
212	0x2f	47
213	0xb8	-72
214	0xdd	-35
215	0xad	-83
216	0x78	120
217	0x3f	63
218	0x51	81
219	0xa6	-90
220	0x3c	60
221	0xb1	-79
222	0x38	56
223	0xd4	-44
224	0x9c	-100
225	0xc8	-56
226	0x15	21
227	0xb9	-71
228	0x65	101
229	0xd0	-48
230	0x04	4
231	0xf1	-15
232	0x64	100
233	0x05	5
234	0x3d	61
235	0xea	-22
236	0x13	19
237	0xd1	-47
238	0x00	0
239	0xcd	-51
240	0x6f	111
241	0x9f	-97
242	0xae	-82
243	0x9e	-98
244	0x42	66
245	0x12	18
246	0x21	33
247	0x98	-104
248	0x99	-103
249	0x6a	106
250	0xa2	-94
251	0xa6	-90
252	0x77	119
253	0xba	-70
254	0xa5	-91
255	0xd8	-40

tfl.pseudo_qconst24 i1 [1, 22, 1, 64] scale=0.021564877 zero_point=-128
0	0x80	0.0
1	0x80	0.0
2	0x80	0.0
3	0x80	0.0
4	0x80	0.0
5	0x80	0.0
6	0x80	0.0
7	0x80	0.0
8	0x80	0.0
9	0x80	0.0
10	0x80	0.0
11	0x80	0.0
12	0x80	0.0
13	0x80	0.0
14	0x80	0.0
15	0x80	0.0
16	0x80	0.0
17	0x80	0.0
18	0x80	0.0
19	0x80	0.0
20	0x80	0.0
21	0x80	0.0
22	0x80	0.0
23	0x80	0.0
24	0x80	0.0
25	0x80	0.0
26	0x80	0.0
27	0x80	0.0
28	0x80	0.0
29	0x80	0.0
30	0x80	0.0
31	0x80	0.0
32	0x80	0.0
33	0x80	0.0
34	0x80	0.0
35	0x80	0.0
36	0x80	0.0
37	0x80	0.0
38	0x80	0.0
39	0x80	0.0
40	0x80	0.0
41	0x80	0.0
42	0x80	0.0
43	0x80	0.0
44	0x80	0.0
45	0x80	0.0
46	0x80	0.0
47	0x80	0.0
48	0x80	0.0
49	0x80	0.0
50	0x80	0.0
51	0x80	0.0
52	0x80	0.0
53	0x80	0.0
54	0x80	0.0
55	0x80	0.0
56	0x80	0.0
57	0x80	0.0
58	0x80	0.0
59	0x80	0.0
60	0x80	0.0
61	0x80	0.0
62	0x80	0.0
63	0x80	0.0
64	0x80	0.0
65	0x80	0.0
66	0x80	0.0
67	0x80	0.0
68	0x80	0.0
69	0x80	0.0
70	0x80	0.0
71	0x80	0.0
72	0x80	0.0
73	0x80	0.0
74	0x80	0.0
75	0x80	0.0
76	0x80	0.0
77	0x80	0.0
78	0x80	0.0
79	0x80	0.0
80	0x80	0.0
81	0x80	0.0
82	0x80	0.0
83	0x80	0.0
84	0x80	0.0
85	0x80	0.0
86	0x80	0.0
87	0x80	0.0
88	0x80	0.0
89	0x80	0.0
90	0x80	0.0
91	0x80	0.0
92	0x80	0.0
93	0x80	0.0
94	0x80	0.0
95	0x80	0.0
96	0x80	0.0
97	0x80	0.0
98	0x80	0.0
99	0x80	0.0
100	0x80	0.0
101	0x80	0.0
102	0x80	0.0
103	0x80	0.0
104	0x80	0.0
105	0x80	0.0
106	0x80	0.0
107	0x80	0.0
108	0x80	0.0
109	0x80	0.0
110	0x80	0.0
111	0x80	0.0
112	0x80	0.0
113	0x80	0.0
114	0x80	0.0
115	0x80	0.0
116	0x80	0.0
117	0x80	0.0
118	0x80	0.0
119	0x80	0.0
120	0x80	0.0
121	0x80	0.0
122	0x80	0.0
123	0x80	0.0
124	0x80	0.0
125	0x80	0.0
126	0x80	0.0
127	0x80	0.0
128	0x80	0.0
129	0x80	0.0
130	0x80	0.0
131	0x80	0.0
132	0x80	0.0
133	0x80	0.0
134	0x80	0.0
135	0x80	0.0
136	0x80	0.0
137	0x80	0.0
138	0x80	0.0
139	0x80	0.0
140	0x80	0.0
141	0x80	0.0
142	0x80	0.0
143	0x80	0.0
144	0x80	0.0
145	0x80	0.0
146	0x80	0.0
147	0x80	0.0
148	0x80	0.0
149	0x80	0.0
150	0x80	0.0
151	0x80	0.0
152	0x80	0.0
153	0x80	0.0
154	0x80	0.0
155	0x80	0.0
156	0x80	0.0
157	0x80	0.0
158	0x80	0.0
159	0x80	0.0
160	0x80	0.0
161	0x80	0.0
162	0x80	0.0
163	0x80	0.0
164	0x80	0.0
165	0x80	0.0
166	0x80	0.0
167	0x80	0.0
168	0x80	0.0
169	0x80	0.0
170	0x80	0.0
171	0x80	0.0
172	0x80	0.0
173	0x80	0.0
174	0x80	0.0
175	0x80	0.0
176	0x80	0.0
177	0x80	0.0
178	0x80	0.0
179	0x80	0.0
180	0x80	0.0
181	0x80	0.0
182	0x80	0.0
183	0x80	0.0
184	0x80	0.0
185	0x80	0.0
186	0x80	0.0
187	0x80	0.0
188	0x80	0.0
189	0x80	0.0
190	0x80	0.0
191	0x80	0.0
192	0x80	0.0
193	0x80	0.0
194	0x80	0.0
195	0x80	0.0
196	0x80	0.0
197	0x80	0.0
198	0x80	0.0
199	0x80	0.0
200	0x80	0.0
201	0x80	0.0
202	0x80	0.0
203	0x80	0.0
204	0x80	0.0
205	0x80	0.0
206	0x80	0.0
207	0x80	0.0
208	0x80	0.0
209	0x80	0.0
210	0x80	0.0
211	0x80	0.0
212	0x80	0.0
213	0x80	0.0
214	0x80	0.0
215	0x80	0.0
216	0x80	0.0
217	0x80	0.0
218	0x80	0.0
219	0x80	0.0
220	0x80	0.0
221	0x80	0.0
222	0x80	0.0
223	0x80	0.0
224	0x80	0.0
225	0x80	0.0
226	0x80	0.0
227	0x80	0.0
228	0x80	0.0
229	0x80	0.0
230	0x80	0.0
231	0x80	0.0
232	0x80	0.0
233	0x80	0.0
234	0x80	0.0
235	0x80	0.0
236	0x80	0.0
237	0x80	0.0
238	0x80	0.0
239	0x80	0.0
240	0x80	0.0
241	0x80	0.0
242	0x80	0.0
243	0x80	0.0
244	0x80	0.0
245	0x80	0.0
246	0x80	0.0
247	0x80	0.0
248	0x80	0.0
249	0x80	0.0
250	0x80	0.0
251	0x80	0.0
252	0x80	0.0
253	0x80	0.0
254	0x80	0.0
255	0x80	0.0

tfl.pseudo_qconst25 i1 [1, 16, 1, 64] scale=0.015620137 zero_point=-128
0	0x80	0.0
1	0x80	0.0
2	0x80	0.0
3	0x80	0.0
4	0x80	0.0
5	0x80	0.0
6	0x80	0.0
7	0x80	0.0
8	0x80	0.0
9	0x80	0.0
10	0x80	0.0
11	0x80	0.0
12	0x80	0.0
13	0x80	0.0
14	0x80	0.0
15	0x80	0.0
16	0x80	0.0
17	0x80	0.0
18	0x80	0.0
19	0x80	0.0
20	0x80	0.0
21	0x80	0.0
22	0x80	0.0
23	0x80	0.0
24	0x80	0.0
25	0x80	0.0
26	0x80	0.0
27	0x80	0.0
28	0x80	0.0
29	0x80	0.0
30	0x80	0.0
31	0x80	0.0
32	0x80	0.0
33	0x80	0.0
34	0x80	0.0
35	0x80	0.0
36	0x80	0.0
37	0x80	0.0
38	0x80	0.0
39	0x80	0.0
40	0x80	0.0
41	0x80	0.0
42	0x80	0.0
43	0x80	0.0
44	0x80	0.0
45	0x80	0.0
46	0x80	0.0
47	0x80	0.0
48	0x80	0.0
49	0x80	0.0
50	0x80	0.0
51	0x80	0.0
52	0x80	0.0
53	0x80	0.0
54	0x80	0.0
55	0x80	0.0
56	0x80	0.0
57	0x80	0.0
58	0x80	0.0
59	0x80	0.0
60	0x80	0.0
61	0x80	0.0
62	0x80	0.0
63	0x80	0.0
64	0x80	0.0
65	0x80	0.0
66	0x80	0.0
67	0x80	0.0
68	0x80	0.0
69	0x80	0.0
70	0x80	0.0
71	0x80	0.0
72	0x80	0.0
73	0x80	0.0
74	0x80	0.0
75	0x80	0.0
76	0x80	0.0
77	0x80	0.0
78	0x80	0.0
79	0x80	0.0
80	0x80	0.0
81	0x80	0.0
82	0x80	0.0
83	0x80	0.0
84	0x80	0.0
85	0x80	0.0
86	0x80	0.0
87	0x80	0.0
88	0x80	0.0
89	0x80	0.0
90	0x80	0.0
91	0x80	0.0
92	0x80	0.0
93	0x80	0.0
94	0x80	0.0
95	0x80	0.0
96	0x80	0.0
97	0x80	0.0
98	0x80	0.0
99	0x80	0.0
100	0x80	0.0
101	0x80	0.0
102	0x80	0.0
103	0x80	0.0
104	0x80	0.0
105	0x80	0.0
106	0x80	0.0
107	0x80	0.0
108	0x80	0.0
109	0x80	0.0
110	0x80	0.0
111	0x80	0.0
112	0x80	0.0
113	0x80	0.0
114	0x80	0.0
115	0x80	0.0
116	0x80	0.0
117	0x80	0.0
118	0x80	0.0
119	0x80	0.0
120	0x80	0.0
121	0x80	0.0
122	0x80	0.0
123	0x80	0.0
124	0x80	0.0
125	0x80	0.0
126	0x80	0.0
127	0x80	0.0
128	0x80	0.0
129	0x80	0.0
130	0x80	0.0
131	0x80	0.0
132	0x80	0.0
133	0x80	0.0
134	0x80	0.0
135	0x80	0.0
136	0x80	0.0
137	0x80	0.0
138	0x80	0.0
139	0x80	0.0
140	0x80	0.0
141	0x80	0.0
142	0x80	0.0
143	0x80	0.0
144	0x80	0.0
145	0x80	0.0
146	0x80	0.0
147	0x80	0.0
148	0x80	0.0
149	0x80	0.0
150	0x80	0.0
151	0x80	0.0
152	0x80	0.0
153	0x80	0.0
154	0x80	0.0
155	0x80	0.0
156	0x80	0.0
157	0x80	0.0
158	0x80	0.0
159	0x80	0.0
160	0x80	0.0
161	0x80	0.0
162	0x80	0.0
163	0x80	0.0
164	0x80	0.0
165	0x80	0.0
166	0x80	0.0
167	0x80	0.0
168	0x80	0.0
169	0x80	0.0
170	0x80	0.0
171	0x80	0.0
172	0x80	0.0
173	0x80	0.0
174	0x80	0.0
175	0x80	0.0
176	0x80	0.0
177	0x80	0.0
178	0x80	0.0
179	0x80	0.0
180	0x80	0.0
181	0x80	0.0
182	0x80	0.0
183	0x80	0.0
184	0x80	0.0
185	0x80	0.0
186	0x80	0.0
187	0x80	0.0
188	0x80	0.0
189	0x80	0.0
190	0x80	0.0
191	0x80	0.0
192	0x80	0.0
193	0x80	0.0
194	0x80	0.0
195	0x80	0.0
196	0x80	0.0
197	0x80	0.0
198	0x80	0.0
199	0x80	0.0
200	0x80	0.0
201	0x80	0.0
202	0x80	0.0
203	0x80	0.0
204	0x80	0.0
205	0x80	0.0
206	0x80	0.0
207	0x80	0.0
208	0x80	0.0
209	0x80	0.0
210	0x80	0.0
211	0x80	0.0
212	0x80	0.0
213	0x80	0.0
214	0x80	0.0
215	0x80	0.0
216	0x80	0.0
217	0x80	0.0
218	0x80	0.0
219	0x80	0.0
220	0x80	0.0
221	0x80	0.0
222	0x80	0.0
223	0x80	0.0
224	0x80	0.0
225	0x80	0.0
226	0x80	0.0
227	0x80	0.0
228	0x80	0.0
229	0x80	0.0
230	0x80	0.0
231	0x80	0.0
232	0x80	0.0
233	0x80	0.0
234	0x80	0.0
235	0x80	0.0
236	0x80	0.0
237	0x80	0.0
238	0x80	0.0
239	0x80	0.0
240	0x80	0.0
241	0x80	0.0
242	0x80	0.0
243	0x80	0.0
244	0x80	0.0
245	0x80	0.0
246	0x80	0.0
247	0x80	0.0
248	0x80	0.0
249	0x80	0.0
250	0x80	0.0
251	0x80	0.0
252	0x80	0.0
253	0x80	0.0
254	0x80	0.0
255	0x80	0.0

tfl.pseudo_qconst26 i1 [1, 2, 1, 40] scale=0.101960786 zero_point=-128
0	0x80	0.0
1	0x80	0.0
2	0x80	0.0
3	0x80	0.0
4	0x80	0.0
5	0x80	0.0
6	0x80	0.0
7	0x80	0.0
8	0x80	0.0
9	0x80	0.0
10	0x80	0.0
11	0x80	0.0
12	0x80	0.0
13	0x80	0.0
14	0x80	0.0
15	0x80	0.0
16	0x80	0.0
17	0x80	0.0
18	0x80	0.0
19	0x80	0.0
20	0x80	0.0
21	0x80	0.0
22	0x80	0.0
23	0x80	0.0
24	0x80	0.0
25	0x80	0.0
26	0x80	0.0
27	0x80	0.0
28	0x80	0.0
29	0x80	0.0
30	0x80	0.0
31	0x80	0.0
32	0x80	0.0
33	0x80	0.0
34	0x80	0.0
35	0x80	0.0
36	0x80	0.0
37	0x80	0.0
38	0x80	0.0
39	0x80	0.0
40	0x80	0.0
41	0x80	0.0
42	0x80	0.0
43	0x80	0.0
44	0x80	0.0
45	0x80	0.0
46	0x80	0.0
47	0x80	0.0
48	0x80	0.0
49	0x80	0.0
50	0x80	0.0
51	0x80	0.0
52	0x80	0.0
53	0x80	0.0
54	0x80	0.0
55	0x80	0.0
56	0x80	0.0
57	0x80	0.0
58	0x80	0.0
59	0x80	0.0
60	0x80	0.0
61	0x80	0.0
62	0x80	0.0
63	0x80	0.0
64	0x80	0.0
65	0x80	0.0
66	0x80	0.0
67	0x80	0.0
68	0x80	0.0
69	0x80	0.0
70	0x80	0.0
71	0x80	0.0
72	0x80	0.0
73	0x80	0.0
74	0x80	0.0
75	0x80	0.0
76	0x80	0.0
77	0x80	0.0
78	0x80	0.0
79	0x80	0.0

tfl.pseudo_qconst27 i1 [1, 4, 1, 32] scale=0.2780113 zero_point=-128
0	0x80	0.0
1	0x80	0.0
2	0x80	0.0
3	0x80	0.0
4	0x80	0.0
5	0x80	0.0
6	0x80	0.0
7	0x80	0.0
8	0x80	0.0
9	0x80	0.0
10	0x80	0.0
11	0x80	0.0
12	0x80	0.0
13	0x80	0.0
14	0x80	0.0
15	0x80	0.0
16	0x80	0.0
17	0x80	0.0
18	0x80	0.0
19	0x80	0.0
20	0x80	0.0
21	0x80	0.0
22	0x80	0.0
23	0x80	0.0
24	0x80	0.0
25	0x80	0.0
26	0x80	0.0
27	0x80	0.0
28	0x80	0.0
29	0x80	0.0
30	0x80	0.0
31	0x80	0.0
32	0x80	0.0
33	0x80	0.0
34	0x80	0.0
35	0x80	0.0
36	0x80	0.0
37	0x80	0.0
38	0x80	0.0
39	0x80	0.0
40	0x80	0.0
41	0x80	0.0
42	0x80	0.0
43	0x80	0.0
44	0x80	0.0
45	0x80	0.0
46	0x80	0.0
47	0x80	0.0
48	0x80	0.0
49	0x80	0.0
50	0x80	0.0
51	0x80	0.0
52	0x80	0.0
53	0x80	0.0
54	0x80	0.0
55	0x80	0.0
56	0x80	0.0
57	0x80	0.0
58	0x80	0.0
59	0x80	0.0
60	0x80	0.0
61	0x80	0.0
62	0x80	0.0
63	0x80	0.0
64	0x80	0.0
65	0x80	0.0
66	0x80	0.0
67	0x80	0.0
68	0x80	0.0
69	0x80	0.0
70	0x80	0.0
71	0x80	0.0
72	0x80	0.0
73	0x80	0.0
74	0x80	0.0
75	0x80	0.0
76	0x80	0.0
77	0x80	0.0
78	0x80	0.0
79	0x80	0.0
80	0x80	0.0
81	0x80	0.0
82	0x80	0.0
83	0x80	0.0
84	0x80	0.0
85	0x80	0.0
86	0x80	0.0
87	0x80	0.0
88	0x80	0.0
89	0x80	0.0
90	0x80	0.0
91	0x80	0.0
92	0x80	0.0
93	0x80	0.0
94	0x80	0.0
95	0x80	0.0
96	0x80	0.0
97	0x80	0.0
98	0x80	0.0
99	0x80	0.0
100	0x80	0.0
101	0x80	0.0
102	0x80	0.0
103	0x80	0.0
104	0x80	0.0
105	0x80	0.0
106	0x80	0.0
107	0x80	0.0
108	0x80	0.0
109	0x80	0.0
110	0x80	0.0
111	0x80	0.0
112	0x80	0.0
113	0x80	0.0
114	0x80	0.0
115	0x80	0.0
116	0x80	0.0
117	0x80	0.0
118	0x80	0.0
119	0x80	0.0
120	0x80	0.0
121	0x80	0.0
122	0x80	0.0
123	0x80	0.0
124	0x80	0.0
125	0x80	0.0
126	0x80	0.0
127	0x80	0.0
