mww/ohkay_boohmar.tflite (tflite, 60808 bytes, 18 tensors)

tfl.pseudo_qconst1 i1 [1, 1088] scale=0.0012759666 zero_point=0
0.058694467 -0.0459348 -0.0153116 0.0012759666 0.010207733 -0.037003033 0.035727065 -0.021691432
0.1033533 -0.039554965 0.08676573 -0.025519334 0.0421069 0.085489765 -0.016587567 0.12376876
-0.012759667 0.14290826 0.017863533 0.13525246 -0.0153116 0.0497627 0.09442153 0.0063798334
-0.05231463 -0.0535906 0.054866567 0.016587567 0.11611296 -0.0038279 -0.035727065 0.11228506
0.035727065 0.040830933 0.076558 -0.016587567 0.031899165 0.1301486 0.029347233 0.05231463
0.14290826 0.13652843 0.0153116 -0.0421069 0.0880417 0.1186649 -0.0051038666 0.058694467
-0.0229674 -0.0114837 0.012759667 -0.0497627 -0.025519334 0.0497627 0.089317665 0.0612464
0.0191395 0.038279 0.0267953 -0.0012759666 0.0153116 -0.029347233 0.11994086 0.109733135
0.10462926 0.021691432 0.008931766 0.031899165 -0.024243366 -0.040830933 0.13652843 0.06379833
0.12759666 -0.014035633 0.010207733 0.085489765 0.0995254 0.012759667 0.05231463 0.0803859
0.0306232 0.1454602 -0.025519334 0.13652843 -0.040830933 -0.044658832 -0.016587567 0.08293783
0.077833965 -0.0076558 0.0267953 -0.028071266 0.1301486 -0.017863533 0.070178166 0.05997043
0.0421069 0.076558 0.0191395 0.0956975 -0.020415466 0.1071812 0.16204776 0.014035633
0.0229674 0.12887263 0.012759667 0.028071266 0.114837 0.025519334 0.08676573 0.029347233
-0.010207733 -0.024243366 0.12376876 -0.0114837 0.0535906 0.0995254 -0.0114837 0.047210764
-0.012759667 -0.047210764 0.010207733 0.08293783 -0.0421069 0.0153116 0.09442153 0.10462926
0.0612464 -0.0459348 -0.008931766 0.0459348 0.05231463 0.0012759666 0.12121683 0.0267953
0.0344511 -0.048486732 0.0574185 0.0025519333 0.0267953 0.0076558 0.039554965 0.076558
0.0689022 0.14801213 -0.008931766 0.06762623 0.0306232 -0.0153116 0.008931766 0.0650743
-0.0497627 -0.0114837 0.081661865 0.051038668 0.13270053 0.0063798334 -0.014035633 0.06379833
0.0051038666 0.0727301 0.0229674 -0.025519334 0.0306232 0.031899165 0.102077335 -0.028071266
0.13270053 0.10845716 0.085489765 -0.05614253 0.012759667 0.029347233 -0.0076558 0.1071812
0.0650743 -0.039554965 0.0842138 -0.0421069 -0.037003033 0.048486732 -0.054866567 0.025519334
-0.024243366 -0.0153116 0.0497627 -0.0051038666 -0.0344511 -0.017863533 0.06762623 0.09824943
-0.0267953 0.0153116 -0.016587567 0.05614253 -0.008931766 0.09442153 0.077833965 -0.020415466
0.044658832 -0.012759667 -0.038279 0.07528203 0.024243366 -0.037003033 -0.043382864 0.020415466
0.008931766 0.025519334 0.06379833 0.0612464 0.0459348 0.0727301 -0.0076558 -0.0267953
0.0535906 -0.0535906 0.0114837 0.081661865 0.029347233 0.12376876 -0.051038668 0.0574185
-0.029347233 0.105905235 0.0918696 0.0995254 -0.0497627 -0.028071266 0.0497627 -0.0229674
0.06379833 0.0842138 0.014035633 -0.0421069 0.0995254 0.044658832 -0.014035633 0.06762623
-0.0025519333 0.0076558 0.081661865 0.016587567 -0.0025519333 0.076558 -0.028071266 0.029347233
0.020415466 0.021691432 0.1071812 0.020415466 0.0689022 0.0012759666 0.1224928 0.102077335
00000000: 2edc f401 08e3 1cef 51e1 44ec 2143 f361
00000010: f670 0e6a f427 4a05 d7d6 2b0d 5bfd e458
00000020: 1c20 3cf3 1966 1729 706b 0cdf 455d fc2e
00000030: eef7 0ad9 ec27 4630 0f1e 15ff 0ce9 5e56
00000040: 5211 0719 ede0 6b32 64f5 0843 4e0a 293f
00000050: 1872 ec6b e0dd f341 3dfa 15ea 66f2 372f
00000060: 213c 0f4b f054 7f0b 1265 0a16 5a14 4417
00000070: f8ed 61f7 2a4e f725 f6db 0841 df0c 4a52
00000080: 30dc f924 2901 5f15 1bda 2d02 1506 1f3c
00000090: 3674 f935 18f4 0733 d9f7 4028 6805 f532
000000a0: 0439 12ec 1819 50ea 6855 43d4 0a17 fa54
000000b0: 33e1 42df e326 d514 edf4 27fc e5f2 354d
000000c0: eb0c f32c f94a 3df0 23f6 e23b 13e3 de10
000000d0: 0714 3230 2439 faeb 2ad6 0940 1761 d82d
000000e0: e953 484e d9ea 27ee 3242 0bdf 4e23 f535
000000f0: fe06 400d fe3c ea17 1011 5410 3601 6050

tfl.pseudo_qconst3 i1 [64, 1, 1, 64]
-10 -41 13 -37 -62 -4 -90 64
-81 -53 -98 35 -16 93 19 -35
-6 84 -53 -60 -10 -92 -29 -127
105 -69 -59 -36 -109 -12 48 -47
-102 14 112 -50 25 -12 22 -21
6 66 24 4 73 -62 -77 48
-68 -44 22 -28 -100 -67 54 -82
5 11 -70 48 22 87 48 31
-96 -5 -70 -70 34 55 115 41
59 -25 2 -9 41 20 -105 15
103 31 -97 -10 76 -97 -23 -109
71 -20 85 -69 -28 -41 81 -68
30 18 -77 -21 48 78 -59 -62
-102 -58 127 -13 -12 14 -78 41
118 -5 -63 84 -36 16 15 -97
102 -36 -119 -90 -23 -101 94 15
-109 -15 65 -127 -7 -77 -109 86
-72 -120 23 98 -4 114 87 -87
-32 -14 -45 -106 70 21 -66 -85
-25 -94 60 -96 82 -59 94 -93
99 -32 -39 -94 105 -32 -36 -21
-54 51 -22 10 -18 118 72 -78
75 126 110 62 -54 -74 -11 -61
88 -68 75 98 -69 -114 -23 -38
4 -16 112 -25 -79 -86 33 86
68 9 -27 43 -92 -22 -92 33
0 -104 96 33 19 -31 5 -108
-111 32 -11 -112 -83 -52 -33 -35
-56 -47 18 109 50 12 -89 21
127 63 57 -12 -8 94 60 58
89 -66 -79 39 -70 40 80 -89
-43 -65 70 79 21 -22 65 102
00000000: f6d7 0ddb c2fc a640 afcb 9e23 f05d 13dd
00000010: fa54 cbc4 f6a4 e381 69bb c5dc 93f4 30d1
00000020: 9a0e 70ce 19f4 16eb 0642 1804 49c2 b330
00000030: bcd4 16e4 9cbd 36ae 050b ba30 1657 301f
00000040: a0fb baba 2237 7329 3be7 02f7 2914 970f
00000050: 671f 9ff6 4c9f e993 47ec 55bb e4d7 51bc
00000060: 1e12 b3eb 304e c5c2 9ac6 7ff3 f40e b229
00000070: 76fb c154 dc10 0f9f 66dc 89a6 e99b 5e0f
00000080: 93f1 4181 f9b3 9356 b888 1762 fc72 57a9
00000090: e0f2 d396 4615 beab e7a2 3ca0 52c5 5ea3
000000a0: 63e0 d9a2 69e0 dceb ca33 ea0a ee76 48b2
000000b0: 4b7e 6e3e cab6 f5c3 58bc 4b62 bb8e e9da
000000c0: 04f0 70e7 b1aa 2156 4409 e52b a4ea a421
000000d0: 0098 6021 13e1 0594 9120 f590 adcc dfdd
000000e0: c8d1 126d 320c a715 7f3f 39f4 f85e 3c3a
000000f0: 59be b127 ba28 50a7 d5bf 464f 15ea 4166

tfl.pseudo_qconst5 i1 [1, 23, 1, 64]
-33 62 -49 29 127 34 84 -127
36 57 51 25 -31 -23 44 -47
75 -76 35 15 91 97 -33 25
127 127 60 -9 1 -78 -74 -16
-100 61 -64 69 123 -25 -13 83
19 21 126 -6 92 -119 -76 -53
64 59 117 -109 41 -95 45 78
-43 92 44 -89 -10 19 -51 -125
-43 68 -49 -42 6 27 67 -85
13 46 32 41 -41 -50 -69 41
8 54 -2 41 56 -116 -60 -122
-26 67 -26 59 -6 -81 -38 55
34 12 -90 -82 26 51 -21 -116
20 67 122 -62 90 -113 60 53
127 18 48 -82 96 127 -123 27
-47 127 -127 -30 -21 51 51 16
-7 -42 82 33 104 -93 52 -2
-36 -34 -93 -10 -27 21 0 -81
56 -48 -22 82 -78 112 127 -13
-83 62 -108 -79 36 -107 20 -73
24 62 50 71 127 -23 -88 -127
64 -1 8 -127 127 96 27 -73
25 -44 81 -127 99 114 -40 57
72 89 11 -71 77 5 -17 -106
-88 91 108 -81 -6 -67 34 36
4 3 -23 23 72 106 127 -9
-42 94 -113 80 127 -80 101 -99
-31 -13 -10 61 -89 57 -36 -78
-32 88 -58 85 -54 -33 -24 -49
-32 70 3 -104 -15 -14 30 -30
69 -21 -59 -39 120 75 36 -77
-7 -63 -55 36 -61 39 20 -126
00000000: df3e cf1d 7f22 5481 2439 3319 e1e9 2cd1
00000010: 4bb4 230f 5b61 df19 7f7f 3cf7 01b2 b6f0
00000020: 9c3d c045 7be7 f353 1315 7efa 5c89 b4cb
00000030: 403b 7593 29a1 2d4e d55c 2ca7 f613 cd83
00000040: d544 cfd6 061b 43ab 0d2e 2029 d7ce bb29
00000050: 0836 fe29 388c c486 e643 e63b faaf da37
00000060: 220c a6ae 1a33 eb8c 1443 7ac2 5a8f 3c35
00000070: 7f12 30ae 607f 851b d17f 81e2 eb33 3310
00000080: f9d6 5221 68a3 34fe dcde a3f6 e515 00af
00000090: 38d0 ea52 b270 7ff3 ad3e 94b1 2495 14b7
000000a0: 183e 3247 7fe9 a881 40ff 0881 7f60 1bb7
000000b0: 19d4 5181 6372 d839 4859 0bb9 4d05 ef96
000000c0: a85b 6caf fabd 2224 0403 e917 486a 7ff7
000000d0: d65e 8f50 7fb0 659d e1f3 f63d a739 dcb2
000000e0: e058 c655 cadf e8cf e046 0398 f1f2 1ee2
000000f0: 45eb c5d9 784b 24b3 f9c1 c924 c327 1482

tfl.pseudo_qconst7 i1 [64, 1, 1, 64]
-22 124 61 107 64 -121 34 103
125 101 74 -57 22 -19 82 -82
13 -25 87 -30 89 47 21 50
118 33 -98 -81 94 22 29 -112
-23 -27 35 64 -66 -88 -27 73
-28 34 -83 -92 -127 29 -5 89
121 116 -10 124 4 42 -83 119
-91 108 -104 -35 -117 -38 86 118
-101 -50 56 7 11 -84 -48 104
-100 -99 -55 -49 -86 62 -99 -26
65 -69 45 -60 -101 13 -127 40
-39 -113 78 40 69 7 87 50
94 -75 -93 104 12 -54 -86 39
50 69 81 27 29 -33 -87 -3
0 49 -67 -51 19 -72 6 -82
45 -16 -96 59 66 32 -42 -13
-49 -80 110 -118 -34 -100 19 -127
103 62 -8 15 26 8 -99 26
48 -78 71 -62 -40 6 102 94
56 -75 -58 88 96 74 -42 -53
82 110 100 73 -29 101 17 42
105 -117 78 -47 116 104 -47 7
75 4 110 -17 15 10 111 -56
94 -112 44 -115 -84 2 29 95
-16 23 -96 59 123 115 -3 81
-91 -120 -93 -12 106 -29 -48 72
-54 119 58 -43 -70 -94 -60 125
-54 10 -37 -109 63 -106 -106 -44
3 78 -127 -78 33 95 58 -78
53 48 5 49 -40 73 114 -48
56 -96 -37 -2 1 36 -44 18
-43 -32 14 39 -102 45 32 -86
00000000: ea7c 3d6b 4087 2267 7d65 4ac7 16ed 52ae
00000010: 0de7 57e2 592f 1532 7621 9eaf 5e16 1d90
00000020: e9e5 2340 bea8 e549 e422 ada4 811d fb59
00000030: 7974 f67c 042a ad77 a56c 98dd 8bda 5676
00000040: 9bce 3807 0bac d068 9c9d c9cf aa3e 9de6
00000050: 41bb 2dc4 9b0d 8128 d98f 4e28 4507 5732
00000060: 5eb5 a368 0cca aa27 3245 511b 1ddf a9fd
00000070: 0031 bdcd 13b8 06ae 2df0 a03b 4220 d6f3
00000080: cfb0 6e8a de9c 1381 673e f80f 1a08 9d1a
00000090: 30b2 47c2 d806 665e 38b5 c658 604a d6cb
000000a0: 526e 6449 e365 112a 698b 4ed1 7468 d107
000000b0: 4b04 6eef 0f0a 6fc8 5e90 2c8d ac02 1d5f
000000c0: f017 a03b 7b73 fd51 a588 a3f4 6ae3 d048
000000d0: ca77 3ad5 baa2 c47d ca0a db93 3f96 96d4
000000e0: 034e 81b2 215f 3ab2 3530 0531 d849 72d0
000000f0: 38a0 dbfe 0124 d412 d5e0 0e27 9a2d 20aa

tfl.pseudo_qconst9 i1 [1, 15, 1, 32]
-21 -115 17 -127 -127 -7 -28 -17
49 5 35 93 -40 15 -108 -127
-59 90 -42 -12 48 -94 28 -104
71 107 -2 104 -72 -35 -40 48
-10 90 -64 38 54 110 31 89
-82 39 -93 30 -15 125 14 59
-86 -24 -38 102 -91 -62 -15 -98
-52 53 63 -98 -77 30 -101 -104
-65 -15 127 -59 100 -19 47 -18
-127 -109 32 71 22 56 35 122
-54 42 -122 32 65 -2 5 -104
25 77 -97 35 -90 -15 -35 -127
62 59 40 80 27 -24 56 119
80 108 22 -30 -6 71 -29 116
-52 15 -23 -10 100 60 113 34
127 34 -39 55 -115 -8 -10 -78
-89 -50 29 -121 -77 56 39 4
91 68 15 -86 -91 -13 -77 -103
38 -100 98 -18 -107 58 -49 -127
-66 74 -95 0 -70 -93 -50 -78
102 52 86 62 -16 51 -38 -36
-21 -32 125 87 71 127 5 59
119 78 -58 127 -75 -89 127 19
70 -123 44 -97 5 87 -58 24
87 5 -9 -75 6 -58 39 123
122 -53 127 107 -24 80 -72 71
-66 -50 75 103 124 -73 92 -113
19 -44 33 80 -79 -2 17 -67
28 -57 62 10 -81 96 126 -26
-100 -104 79 54 95 64 127 12
98 85 56 5 -80 14 50 65
68 -103 114 -67 -125 -90 10 48
00000000: eb8d 1181 81f9 e4ef 3105 235d d80f 9481
00000010: c55a d6f4 30a2 1c98 476b fe68 b8dd d830
00000020: f65a c026 366e 1f59 ae27 a31e f17d 0e3b
00000030: aae8 da66 a5c2 f19e cc35 3f9e b31e 9b98
00000040: bff1 7fc5 64ed 2fee 8193 2047 1638 237a
00000050: ca2a 8620 41fe 0598 194d 9f23 a6f1 dd81
00000060: 3e3b 2850 1be8 3877 506c 16e2 fa47 e374
00000070: cc0f e9f6 643c 7122 7f22 d937 8df8 f6b2
00000080: a7ce 1d87 b338 2704 5b44 0faa a5f3 b399
00000090: 269c 62ee 953a cf81 be4a a100 baa3 ceb2
000000a0: 6634 563e f033 dadc ebe0 7d57 477f 053b
000000b0: 774e c67f b5a7 7f13 4685 2c9f 0557 c618
000000c0: 5705 f7b5 06c6 277b 7acb 7f6b e850 b847
000000d0: bece 4b67 7cb7 5c8f 13d4 2150 b1fe 11bd
000000e0: 1cc7 3e0a af60 7ee6 9c98 4f36 5f40 7f0c
000000f0: 6255 3805 b00e 3241 4499 72bd 83a6 0a30

tfl.pseudo_qconst11 i1 [1, 9, 1, 32]
1 82 -99 -121 119 101 -122 2
43 -92 -55 -57 30 90 -58 -93
-102 98 127 100 42 -23 35 -46
-22 -30 -82 -1 92 -127 -7 122
127 102 -8 90 38 -127 127 80
-31 -110 -87 18 8 84 -127 -90
-48 -110 -42 59 35 -127 -119 -64
97 -102 -100 -127 8 -119 -97 64
-57 -48 91 -18 -13 87 73 -127
-33 -91 42 -116 19 22 32 -33
3 -43 10 54 96 9 -71 -77
101 -102 -85 80 -98 27 65 48
-1 127 81 90 -2 -61 -43 25
-102 -120 -114 -127 82 -127 -41 104
86 127 57 -13 97 -46 -73 49
127 -99 44 -85 75 -73 65 -84
74 -116 -35 -63 -91 -107 72 -122
44 127 -83 -26 -127 -84 -64 127
-127 19 -86 23 -127 29 68 127
96 -67 -96 -99 -97 -54 61 62
-84 40 127 38 127 -82 -39 6
44 77 3 -37 -33 26 62 38
-4 -24 -100 97 110 67 -127 -99
50 -52 -5 93 13 43 44 -106
-114 6 114 60 123 18 50 -87
80 -85 95 1 125 41 -75 7
12 -101 125 121 -94 89 6 6
-21 -127 91 -74 -127 -96 -120 -127
22 89 78 -110 -97 -46 -126 -75
127 9 -80 125 62 40 50 55
-91 65 -99 -100 93 -24 -62 -78
66 30 127 63 -57 -88 -127 -49
00000000: 0152 9d87 7765 8602 2ba4 c9c7 1e5a c6a3
00000010: 9a62 7f64 2ae9 23d2 eae2 aeff 5c81 f97a
00000020: 7f66 f85a 2681 7f50 e192 a912 0854 81a6
00000030: d092 d63b 2381 89c0 619a 9c81 0889 9f40
00000040: c7d0 5bee f357 4981 dfa5 2a8c 1316 20df
00000050: 03d5 0a36 6009 b9b3 659a ab50 9e1b 4130
00000060: ff7f 515a fec3 d519 9a88 8e81 5281 d768
00000070: 567f 39f3 61d2 b731 7f9d 2cab 4bb7 41ac
00000080: 4a8c ddc1 a595 4886 2c7f ade6 81ac c07f
00000090: 8113 aa17 811d 447f 60bd a09d 9fca 3d3e
000000a0: ac28 7f26 7fae d906 2c4d 03db df1a 3e26
000000b0: fce8 9c61 6e43 819d 32cc fb5d 0d2b 2c96
000000c0: 8e06 723c 7b12 32a9 50ab 5f01 7d29 b507
000000d0: 0c9b 7d79 a259 0606 eb81 5bb6 81a0 8881
000000e0: 1659 4e92 9fd2 82b5 7f09 b07d 3e28 3237
000000f0: a541 9d9c 5de8 c2b2 421e 7f3f c7a8 81cf

tfl.pseudo_qconst13 i1 [64, 1, 1, 64]
-83 -17 123 1 40 -119 0 -118
114 79 -83 102 106 9 101 -64
44 86 -39 88 127 17 83 -6
-94 42 -75 7 -4 78 -64 -41
123 124 101 66 -15 -66 67 -39
111 17 -87 32 5 27 -40 23
120 29 33 100 4 -35 68 -30
-27 29 38 -103 -57 -55 92 -71
55 46 122 37 -69 -66 -124 -50
68 -95 96 8 85 127 -26 -103
70 -18 70 -80 21 -89 60 -89
104 -33 -104 -64 -60 109 -88 79
117 103 126 -66 28 -5 -80 24
75 -1 113 -24 -6 -16 122 111
119 -32 -14 46 -27 17 35 23
110 98 -53 -73 12 10 -51 -96
-110 -62 116 97 -30 97 -100 49
-84 97 41 -34 -9 35 51 -30
-73 -107 10 -101 119 54 -49 -114
-14 96 -116 41 -4 78 114 -102
-7 60 104 43 107 -87 -46 46
-16 -65 -43 120 36 127 34 -24
-31 -69 88 54 -46 61 -90 -25
93 -82 -40 -65 -25 27 93 -68
91 -42 -93 64 100 65 66 -83
-113 104 -71 -63 112 -46 97 9
55 -12 92 -80 52 -16 -49 115
-67 -101 74 81 51 72 114 -10
24 77 -27 29 -95 -107 39 -124
-32 12 -58 -32 -35 -50 -21 -39
36 69 -70 10 127 -100 43 -44
-4 113 -36 -13 -10 -11 20 48
00000000: adef 7b01 2889 008a 724f ad66 6a09 65c0
00000010: 2c56 d958 7f11 53fa a22a b507 fc4e c0d7
00000020: 7b7c 6542 f1be 43d9 6f11 a920 051b d817
00000030: 781d 2164 04dd 44e2 e51d 2699 c7c9 5cb9
00000040: 372e 7a25 bbbe 84ce 44a1 6008 557f e699
00000050: 46ee 46b0 15a7 3ca7 68df 98c0 c46d a84f
00000060: 7567 7ebe 1cfb b018 4bff 71e8 faf0 7a6f
00000070: 77e0 f22e e511 2317 6e62 cbb7 0c0a cda0
00000080: 92c2 7461 e261 9c31 ac61 29de f723 33e2
00000090: b795 0a9b 7736 cf8e f260 8c29 fc4e 729a
000000a0: f93c 682b 6ba9 d22e f0bf d578 247f 22e8
000000b0: e1bb 5836 d23d a6e7 5dae d8bf e71b 5dbc
000000c0: 5bd6 a340 6441 42ad 8f68 b9c1 70d2 6109
000000d0: 37f4 5cb0 34f0 cf73 bd9b 4a51 3348 72f6
000000e0: 184d e51d a195 2784 e00c c6e0 ddce ebd9
000000f0: 2445 ba0a 7f9c 2bd4 fc71 dcf3 f6f5 1430

tfl.pseudo_qconst15 i1 [1, 11, 1, 32]
19 32 -50 -52 -72 29 -69 20
101 7 94 -67 120 -127 38 117
-20 46 63 90 25 59 46 41
-50 32 70 -108 56 -55 87 12
69 87 -49 -127 -23 76 25 92
57 -115 -13 36 23 19 -17 -26
-5 -98 111 79 -127 -26 -113 -24
20 -19 -97 -91 38 -9 14 127
-84 12 -24 26 -127 57 -18 117
-55 74 -85 16 41 28 127 -103
67 127 108 -9 -125 -37 -92 -123
42 39 64 -127 -66 -42 78 -47
-7 30 24 -23 54 77 126 113
127 -27 49 127 -127 -101 -16 -22
-120 -23 88 75 -18 -84 -99 49
-107 127 -37 49 46 -22 12 -36
107 69 110 71 0 -109 -52 46
-75 -97 -82 -60 -81 126 -31 68
80 108 127 127 70 -1 -126 74
123 -55 -83 100 -106 -17 97 9
-95 -43 -46 18 -12 56 97 -56
27 -127 11 104 -65 36 72 -82
46 -88 -111 79 -86 127 94 75
-65 101 -90 -30 20 96 117 60
-127 127 -97 54 36 30 -71 42
-14 48 79 -30 -27 -18 -106 -71
-121 8 11 95 80 -57 -127 -79
10 36 28 -100 -51 5 -127 31
-88 17 124 63 -125 127 -127 42
-90 14 126 51 3 -36 -44 14
90 -18 73 -51 90 -111 47 -85
127 118 -105 -111 112 28 44 -70
00000000: 1320 cecc b81d bb14 6507 5ebd 7881 2675
00000010: ec2e 3f5a 193b 2e29 ce20 4694 38c9 570c
00000020: 4557 cf81 e94c 195c 398d f324 1713 efe6
00000030: fb9e 6f4f 81e6 8fe8 14ed 9fa5 26f7 0e7f
00000040: ac0c e81a 8139 ee75 c94a ab10 291c 7f99
00000050: 437f 6cf7 83db a485 2a27 4081 bed6 4ed1
00000060: f91e 18e9 364d 7e71 7fe5 317f 819b f0ea
00000070: 88e9 584b eeac 9d31 957f db31 2eea 0cdc
00000080: 6b45 6e47 0093 cc2e b59f aec4 af7e e144
00000090: 506c 7f7f 46ff 824a 7bc9 ad64 96ef 6109
000000a0: a1d5 d212 f438 61c8 1b81 0b68 bf24 48ae
000000b0: 2ea8 914f aa7f 5e4b bf65 a6e2 1460 753c
000000c0: 817f 9f36 241e b92a f230 4fe2 e5ee 96b9
000000d0: 8708 0b5f 50c7 81b1 0a24 1c9c cd05 811f
000000e0: a811 7c3f 837f 812a a60e 7e33 03dc d40e
000000f0: 5aee 49cd 5a91 2fab 7f76 9791 701c 2cba

tfl.pseudo_qconst17 i1 [1, 7, 1, 32]
1 2 108 127 127 118 -71 -75
2 -25 -127 69 89 -68 -93 -46
-89 -124 3 -21 38 -117 -48 77
48 -92 113 -24 57 -88 -110 -6
53 79 -31 -100 -85 -127 117 40
32 74 -76 69 -63 -106 -127 35
-127 89 -14 118 -40 -121 -10 127
77 116 8 -127 105 -89 46 32
101 -73 79 -45 60 -52 -67 -9
-77 -127 -97 127 -18 -26 -113 -127
-63 1 48 124 -119 27 -24 -95
30 127 -124 -1 127 -28 97 -58
127 69 -127 -102 14 -111 96 -102
17 101 -100 -36 -127 8 66 -71
-40 -68 -26 16 -108 -126 -127 125
-66 23 127 -70 39 2 -28 -22
94 84 -35 -53 122 94 -22 58
39 105 99 -98 -1 71 -54 -9
-126 -50 39 -109 -16 115 104 -93
-127 18 -2 -120 78 9 58 23
-31 8 -52 -51 -25 -76 120 127
-71 50 102 -14 -58 -93 113 -107
123 -34 -127 127 -127 6 29 118
-13 -58 88 1 28 72 -1 9
84 127 -92 8 67 -123 127 111
127 -15 -74 33 -39 127 -30 -31
14 127 -69 9 -10 127 -14 5
-30 -35 -31 8 62 127 -127 127
00000000: 0102 6c7f 7f76 b9b5 02e7 8145 59bc a3d2
00000010: a784 03eb 268b d04d 30a4 71e8 39a8 92fa
00000020: 354f e19c ab81 7528 204a b445 c196 8123
00000030: 8159 f276 d887 f67f 4d74 0881 69a7 2e20
00000040: 65b7 4fd3 3ccc bdf7 b381 9f7f eee6 8f81
00000050: c101 307c 891b e8a1 1e7f 84ff 7fe4 61c6
00000060: 7f45 819a 0e91 609a 1165 9cdc 8108 42b9
00000070: d8bc e610 9482 817d be17 7fba 2702 e4ea
00000080: 5e54 ddcb 7a5e ea3a 2769 639e ff47 caf7
00000090: 82ce 2793 f073 68a3 8112 fe88 4e09 3a17
000000a0: e108 cccd e7b4 787f b932 66f2 c6a3 7195
000000b0: 7bde 817f 8106 1d76 f3c6 5801 1c48 ff09
000000c0: 547f a408 4385 7f6f 7ff1 b621 d97f e2e1
000000d0: 0e7f bb09 f67f f205 e2dd e108 3e7f 817f

tfl.pseudo_qconst19 i1 [64, 1, 1, 32]
116 -44 -67 105 -120 -117 99 -73
-51 -82 -75 -63 107 -9 -54 127
61 -1 -126 -64 65 66 -61 42
27 81 -92 -25 -32 -2 -23 -101
-31 -29 110 -17 92 -105 -84 103
-92 -95 -59 115 -39 9 47 -80
76 -43 -113 46 61 -89 41 127
101 26 12 -91 -44 118 -47 23
7 -13 -11 -12 2 -62 9 -11
-16 -6 25 -73 127 -16 17 6
-43 48 -90 -104 -50 -7 101 43
84 -53 -59 39 -13 32 115 -49
8 85 -40 90 -75 86 -127 63
-114 117 57 -49 77 76 -18 13
-74 120 27 -15 58 -23 21 118
10 -24 66 -77 -33 21 -8 99
29 35 -71 21 121 112 15 -7
62 25 6 85 -127 -103 -100 23
74 -92 -51 31 -22 25 -106 34
99 -98 -119 121 -91 -26 21 118
111 -10 -12 67 -126 -81 37 -60
-74 -48 -42 -74 -2 -20 122 44
-65 57 -75 29 -69 -53 127 91
-29 31 -12 -9 59 -18 29 17
-73 15 -2 -83 101 60 60 -58
113 0 -20 -9 -58 88 -89 -62
48 86 -98 -127 107 18 20 -58
-26 2 -105 76 21 2 58 -59
27 70 -78 21 -96 -118 84 30
120 76 92 -112 64 67 -65 105
119 -124 108 6 32 -14 -78 -81
-5 45 -27 -108 -80 -127 -105 20
00000000: 74d4 bd69 888b 63b7 cdae b5c1 6bf7 ca7f
00000010: 3dff 82c0 4142 c32a 1b51 a4e7 e0fe e99b
00000020: e1e3 6eef 5c97 ac67 a4a1 c573 d909 2fb0
00000030: 4cd5 8f2e 3da7 297f 651a 0ca5 d476 d117
00000040: 07f3 f5f4 02c2 09f5 f0fa 19b7 7ff0 1106
00000050: d530 a698 cef9 652b 54cb c527 f320 73cf
00000060: 0855 d85a b556 813f 8e75 39cf 4d4c ee0d
00000070: b678 1bf1 3ae9 1576 0ae8 42b3 df15 f863
00000080: 1d23 b915 7970 0ff9 3e19 0655 8199 9c17
00000090: 4aa4 cd1f ea19 9622 639e 8979 a5e6 1576
000000a0: 6ff6 f443 82af 25c4 b6d0 d6b6 feec 7a2c
000000b0: bf39 b51d bbcb 7f5b e31f f4f7 3bee 1d11
000000c0: b70f fead 653c 3cc6 7100 ecf7 c658 a7c2
000000d0: 3056 9e81 6b12 14c6 e602 974c 1502 3ac5
000000e0: 1b46 b215 a08a 541e 784c 5c90 4043 bf69
000000f0: 7784 6c06 20f2 b2af fb2d e594 b081 9714

tfl.pseudo_qconst21 i1 [1, 5, 1, 32]
127 -71 -127 -50 113 25 -53 116
127 -34 -4 -75 127 20 -108 7
93 -35 -127 127 88 -9 -121 -65
24 -115 -68 -125 -119 74 -103 -120
45 71 -7 -44 127 -113 112 110
81 1 127 7 45 -122 25 -78
-4 -10 -26 -124 5 29 -92 41
-103 108 -89 -91 -62 109 -123 -127
-102 -98 -102 31 10 35 -85 34
36 -103 -121 -38 -78 -127 -92 -127
-68 78 -3 3 31 -103 101 27
66 22 -127 -51 35 127 65 -66
43 -89 74 10 -28 127 98 -127
105 -127 39 127 106 -62 95 119
-18 127 111 -121 56 -4 55 127
-87 -69 7 127 -127 -61 50 -80
62 127 85 127 -111 14 127 -31
108 9 -92 72 40 -28 127 -35
-127 -30 127 -81 -127 -127 127 -18
127 -127 28 -63 25 98 127 67
00000000: 7fb9 81ce 7119 cb74 7fde fcb5 7f14 9407
00000010: 5ddd 817f 58f7 87bf 188d bc83 894a 9988
00000020: 2d47 f9d4 7f8f 706e 5101 7f07 2d86 19b2
00000030: fcf6 e684 051d a429 996c a7a5 c26d 8581
00000040: 9a9e 9a1f 0a23 ab22 2499 87da b281 a481
00000050: bc4e fd03 1f99 651b 4216 81cd 237f 41be
00000060: 2ba7 4a0a e47f 6281 6981 277f 6ac2 5f77
00000070: ee7f 6f87 38fc 377f a9bb 077f 81c3 32b0
00000080: 3e7f 557f 910e 7fe1 6c09 a448 28e4 7fdd
00000090: 81e2 7faf 8181 7fee 7f81 1cc1 1962 7f43

tfl.pseudo_qconst23 i1 [32, 5, 1, 40]
-17 28 6 -90 124 30 -4 -89
4 100 49 -97 -84 100 -50 38
-69 -88 -82 -127 49 -104 45 30
19 9 102 -114 41 81 -48 42
-36 -88 5 -110 -15 50 39 104
77 14 78 86 -61 7 67 81
-37 3 -90 62 99 -60 105 105
0 -35 78 89 85 49 53 17
-39 -65 11 86 -88 96 -16 0
45 -69 4 76 -95 -71 72 90
77 43 108 34 9 111 -26 102
-8 -4 81 -40 39 49 7 -57
-59 -36 4 -38 31 -99 102 60
10 21 -41 19 54 -33 -44 -2
61 29 -48 16 -15 -103 82 -61
-19 51 123 61 116 -10 -10 -85
81 57 -26 -39 76 91 -73 78
-55 -48 -74 35 81 -79 102 81
13 -102 20 -39 43 67 -23 -114
39 -65 -66 113 -23 35 57 -107
7 -4 -94 -72 -23 102 122 -86
74 48 -14 63 81 -89 12 -89
-66 -36 19 26 -39 -34 22 105
-19 23 69 -16 78 -27 8 -93
-28 -51 -45 81 -58 83 -93 -53
113 29 80 -41 54 58 24 -109
-53 -111 -62 -122 43 -74 -37 -84
116 60 79 -91 59 -79 55 -45
-101 -57 18 -73 99 -50 2 -17
97 2 59 -23 16 -48 -1 -52
115 -92 -82 -98 67 17 31 -106
-106 103 -98 -94 115 -73 -92 -42
00000000: ef1c 06a6 7c1e fca7 0464 319f ac64 ce26
00000010: bba8 ae81 3198 2d1e 1309 668e 2951 d02a
00000020: dca8 0592 f132 2768 4d0e 4e56 c307 4351
00000030: db03 a63e 63c4 6969 00dd 4e59 5531 3511
00000040: d9bf 0b56 a860 f000 2dbb 044c a1b9 485a
00000050: 4d2b 6c22 096f e666 f8fc 51d8 2731 07c7
00000060: c5dc 04da 1f9d 663c 0a15 d713 36df d4fe
00000070: 3d1d d010 f199 52c3 ed33 7b3d 74f6 f6ab
00000080: 5139 e6d9 4c5b b74e c9d0 b623 51b1 6651
00000090: 0d9a 14d9 2b43 e98e 27bf be71 e923 3995
000000a0: 07fc a2b8 e966 7aaa 4a30 f23f 51a7 0ca7
000000b0: bedc 131a d9de 1669 ed17 45f0 4ee5 08a3
000000c0: e4cd d351 c653 a3cb 711d 50d7 363a 1893
000000d0: cb91 c286 2bb6 dbac 743c 4fa5 3bb1 37d3
000000e0: 9bc7 12b7 63ce 02ef 6102 3be9 10d0 ffcc
000000f0: 73a4 ae9e 4311 1f96 9667 9ea2 73b7 a4d6

tfl.pseudo_qconst24 i1 [1, 22, 1, 64] scale=0.022770256 zero_point=-128
0.0 0.0 0.0 0.0 0.0 0.0 0.0 0.0
0.0 0.0 0.0 0.0 0.0 0.0 0.0 0.0
0.0 0.0 0.0 0.0 0.0 0.0 0.0 0.0
0.0 0.0 0.0 0.0 0.0 0.0 0.0 0.0
0.0 0.0 0.0 0.0 0.0 0.0 0.0 0.0
0.0 0.0 0.0 0.0 0.0 0.0 0.0 0.0
0.0 0.0 0.0 0.0 0.0 0.0 0.0 0.0
0.0 0.0 0.0 0.0 0.0 0.0 0.0 0.0
0.0 0.0 0.0 0.0 0.0 0.0 0.0 0.0
0.0 0.0 0.0 0.0 0.0 0.0 0.0 0.0
0.0 0.0 0.0 0.0 0.0 0.0 0.0 0.0
0.0 0.0 0.0 0.0 0.0 0.0 0.0 0.0
0.0 0.0 0.0 0.0 0.0 0.0 0.0 0.0
0.0 0.0 0.0 0.0 0.0 0.0 0.0 0.0
0.0 0.0 0.0 0.0 0.0 0.0 0.0 0.0
0.0 0.0 0.0 0.0 0.0 0.0 0.0 0.0
0.0 0.0 0.0 0.0 0.0 0.0 0.0 0.0
0.0 0.0 0.0 0.0 0.0 0.0 0.0 0.0
0.0 0.0 0.0 0.0 0.0 0.0 0.0 0.0
0.0 0.0 0.0 0.0 0.0 0.0 0.0 0.0
0.0 0.0 0.0 0.0 0.0 0.0 0.0 0.0
0.0 0.0 0.0 0.0 0.0 0.0 0.0 0.0
0.0 0.0 0.0 0.0 0.0 0.0 0.0 0.0
0.0 0.0 0.0 0.0 0.0 0.0 0.0 0.0
0.0 0.0 0.0 0.0 0.0 0.0 0.0 0.0
0.0 0.0 0.0 0.0 0.0 0.0 0.0 0.0
0.0 0.0 0.0 0.0 0.0 0.0 0.0 0.0
0.0 0.0 0.0 0.0 0.0 0.0 0.0 0.0
0.0 0.0 0.0 0.0 0.0 0.0 0.0 0.0
0.0 0.0 0.0 0.0 0.0 0.0 0.0 0.0
0.0 0.0 0.0 0.0 0.0 0.0 0.0 0.0
0.0 0.0 0.0 0.0 0.0 0.0 0.0 0.0
00000000: 8080 8080 8080 8080 8080 8080 8080 8080
00000010: 8080 8080 8080 8080 8080 8080 8080 8080
00000020: 8080 8080 8080 8080 8080 8080 8080 8080
00000030: 8080 8080 8080 8080 8080 8080 8080 8080
00000040: 8080 8080 8080 8080 8080 8080 8080 8080
00000050: 8080 8080 8080 8080 8080 8080 8080 8080
00000060: 8080 8080 8080 8080 8080 8080 8080 8080
00000070: 8080 8080 8080 8080 8080 8080 8080 8080
00000080: 8080 8080 8080 8080 8080 8080 8080 8080
00000090: 8080 8080 8080 8080 8080 8080 8080 8080
000000a0: 8080 8080 8080 8080 8080 8080 8080 8080
000000b0: 8080 8080 8080 8080 8080 8080 8080 8080
000000c0: 8080 8080 8080 8080 8080 8080 8080 8080
000000d0: 8080 8080 8080 8080 8080 8080 8080 8080
000000e0: 8080 8080 8080 8080 8080 8080 8080 8080
000000f0: 8080 8080 8080 8080 8080 8080 8080 8080

tfl.pseudo_qconst25 i1 [1, 16, 1, 64] scale=0.01885962 zero_point=-128
0.0 0.0 0.0 0.0 0.0 0.0 0.0 0.0
0.0 0.0 0.0 0.0 0.0 0.0 0.0 0.0
0.0 0.0 0.0 0.0 0.0 0.0 0.0 0.0
0.0 0.0 0.0 0.0 0.0 0.0 0.0 0.0
0.0 0.0 0.0 0.0 0.0 0.0 0.0 0.0
0.0 0.0 0.0 0.0 0.0 0.0 0.0 0.0
0.0 0.0 0.0 0.0 0.0 0.0 0.0 0.0
0.0 0.0 0.0 0.0 0.0 0.0 0.0 0.0
0.0 0.0 0.0 0.0 0.0 0.0 0.0 0.0
0.0 0.0 0.0 0.0 0.0 0.0 0.0 0.0
0.0 0.0 0.0 0.0 0.0 0.0 0.0 0.0
0.0 0.0 0.0 0.0 0.0 0.0 0.0 0.0
0.0 0.0 0.0 0.0 0.0 0.0 0.0 0.0
0.0 0.0 0.0 0.0 0.0 0.0 0.0 0.0
0.0 0.0 0.0 0.0 0.0 0.0 0.0 0.0
0.0 0.0 0.0 0.0 0.0 0.0 0.0 0.0
0.0 0.0 0.0 0.0 0.0 0.0 0.0 0.0
0.0 0.0 0.0 0.0 0.0 0.0 0.0 0.0
0.0 0.0 0.0 0.0 0.0 0.0 0.0 0.0
0.0 0.0 0.0 0.0 0.0 0.0 0.0 0.0
0.0 0.0 0.0 0.0 0.0 0.0 0.0 0.0
0.0 0.0 0.0 0.0 0.0 0.0 0.0 0.0
0.0 0.0 0.0 0.0 0.0 0.0 0.0 0.0
0.0 0.0 0.0 0.0 0.0 0.0 0.0 0.0
0.0 0.0 0.0 0.0 0.0 0.0 0.0 0.0
0.0 0.0 0.0 0.0 0.0 0.0 0.0 0.0
0.0 0.0 0.0 0.0 0.0 0.0 0.0 0.0
0.0 0.0 0.0 0.0 0.0 0.0 0.0 0.0
0.0 0.0 0.0 0.0 0.0 0.0 0.0 0.0
0.0 0.0 0.0 0.0 0.0 0.0 0.0 0.0
0.0 0.0 0.0 0.0 0.0 0.0 0.0 0.0
0.0 0.0 0.0 0.0 0.0 0.0 0.0 0.0
00000000: 8080 8080 8080 8080 8080 8080 8080 8080
00000010: 8080 8080 8080 8080 8080 8080 8080 8080
00000020: 8080 8080 8080 8080 8080 8080 8080 8080
00000030: 8080 8080 8080 8080 8080 8080 8080 8080
00000040: 8080 8080 8080 8080 8080 8080 8080 8080
00000050: 8080 8080 8080 8080 8080 8080 8080 8080
00000060: 8080 8080 8080 8080 8080 8080 8080 8080
00000070: 8080 8080 8080 8080 8080 8080 8080 8080
00000080: 8080 8080 8080 8080 8080 8080 8080 8080
00000090: 8080 8080 8080 8080 8080 8080 8080 8080
000000a0: 8080 8080 8080 8080 8080 8080 8080 8080
000000b0: 8080 8080 8080 8080 8080 8080 8080 8080
000000c0: 8080 8080 8080 8080 8080 8080 8080 8080
000000d0: 8080 8080 8080 8080 8080 8080 8080 8080
000000e0: 8080 8080 8080 8080 8080 8080 8080 8080
000000f0: 8080 8080 8080 8080 8080 8080 8080 8080

tfl.pseudo_qconst26 i1 [1, 2, 1, 40] scale=0.101960786 zero_point=-128
0.0 0.0 0.0 0.0 0.0 0.0 0.0 0.0
0.0 0.0 0.0 0.0 0.0 0.0 0.0 0.0
0.0 0.0 0.0 0.0 0.0 0.0 0.0 0.0
0.0 0.0 0.0 0.0 0.0 0.0 0.0 0.0
0.0 0.0 0.0 0.0 0.0 0.0 0.0 0.0
0.0 0.0 0.0 0.0 0.0 0.0 0.0 0.0
0.0 0.0 0.0 0.0 0.0 0.0 0.0 0.0
0.0 0.0 0.0 0.0 0.0 0.0 0.0 0.0
0.0 0.0 0.0 0.0 0.0 0.0 0.0 0.0
0.0 0.0 0.0 0.0 0.0 0.0 0.0 0.0
00000000: 8080 8080 8080 8080 8080 8080 8080 8080
00000010: 8080 8080 8080 8080 8080 8080 8080 8080
00000020: 8080 8080 8080 8080 8080 8080 8080 8080
00000030: 8080 8080 8080 8080 8080 8080 8080 8080
00000040: 8080 8080 8080 8080 8080 8080 8080 8080

tfl.pseudo_qconst27 i1 [1, 4, 1, 32] scale=0.28464836 zero_point=-128
0.0 0.0 0.0 0.0 0.0 0.0 0.0 0.0
0.0 0.0 0.0 0.0 0.0 0.0 0.0 0.0
0.0 0.0 0.0 0.0 0.0 0.0 0.0 0.0
0.0 0.0 0.0 0.0 0.0 0.0 0.0 0.0
0.0 0.0 0.0 0.0 0.0 0.0 0.0 0.0
0.0 0.0 0.0 0.0 0.0 0.0 0.0 0.0
0.0 0.0 0.0 0.0 0.0 0.0 0.0 0.0
0.0 0.0 0.0 0.0 0.0 0.0 0.0 0.0
0.0 0.0 0.0 0.0 0.0 0.0 0.0 0.0
0.0 0.0 0.0 0.0 0.0 0.0 0.0 0.0
0.0 0.0 0.0 0.0 0.0 0.0 0.0 0.0
0.0 0.0 0.0 0.0 0.0 0.0 0.0 0.0
0.0 0.0 0.0 0.0 0.0 0.0 0.0 0.0
0.0 0.0 0.0 0.0 0.0 0.0 0.0 0.0
0.0 0.0 0.0 0.0 0.0 0.0 0.0 0.0
0.0 0.0 0.0 0.0 0.0 0.0 0.0 0.0
00000000: 8080 8080 8080 8080 8080 8080 8080 8080
00000010: 8080 8080 8080 8080 8080 8080 8080 8080
00000020: 8080 8080 8080 8080 8080 8080 8080 8080
00000030: 8080 8080 8080 8080 8080 8080 8080 8080
00000040: 8080 8080 8080 8080 8080 8080 8080 8080
00000050: 8080 8080 8080 8080 8080 8080 8080 8080
00000060: 8080 8080 8080 8080 8080 8080 8080 8080
00000070: 8080 8080 8080 8080 8080 8080 8080 8080

tfl.pseudo_qconst28 i1 [1, 10, 1, 64] scale=0.024941556 zero_point=-128
0.0 0.0 0.0 0.0 0.0 0.0 0.0 0.0
0.0 0.0 0.0 0.0 0.0 0.0 0.0 0.0
0.0 0.0 0.0 0.0 0.0 0.0 0.0 0.0
0.0 0.0 0.0 0.0 0.0 0.0 0.0 0.0
0.0 0.0 0.0 0.0 0.0 0.0 0.0 0.0
0.0 0.0 0.0 0.0 0.0 0.0 0.0 0.0
0.0 0.0 0.0 0.0 0.0 0.0 0.0 0.0
0.0 0.0 0.0 0.0 0.0 0.0 0.0 0.0
0.0 0.0 0.0 0.0 0.0 0.0 0.0 0.0
0.0 0.0 0.0 0.0 0.0 0.0 0.0 0.0
0.0 0.0 0.0 0.0 0.0 0.0 0.0 0.0
0.0 0.0 0.0 0.0 0.0 0.0 0.0 0.0
0.0 0.0 0.0 0.0 0.0 0.0 0.0 0.0
0.0 0.0 0.0 0.0 0.0 0.0 0.0 0.0
0.0 0.0 0.0 0.0 0.0 0.0 0.0 0.0
0.0 0.0 0.0 0.0 0.0 0.0 0.0 0.0
0.0 0.0 0.0 0.0 0.0 0.0 0.0 0.0
0.0 0.0 0.0 0.0 0.0 0.0 0.0 0.0
0.0 0.0 0.0 0.0 0.0 0.0 0.0 0.0
0.0 0.0 0.0 0.0 0.0 0.0 0.0 0.0
0.0 0.0 0.0 0.0 0.0 0.0 0.0 0.0
0.0 0.0 0.0 0.0 0.0 0.0 0.0 0.0
0.0 0.0 0.0 0.0 0.0 0.0 0.0 0.0
0.0 0.0 0.0 0.0 0.0 0.0 0.0 0.0
0.0 0.0 0.0 0.0 0.0 0.0 0.0 0.0
0.0 0.0 0.0 0.0 0.0 0.0 0.0 0.0
0.0 0.0 0.0 0.0 0.0 0.0 0.0 0.0
0.0 0.0 0.0 0.0 0.0 0.0 0.0 0.0
0.0 0.0 0.0 0.0 0.0 0.0 0.0 0.0
0.0 0.0 0.0 0.0 0.0 0.0 0.0 0.0
0.0 0.0 0.0 0.0 0.0 0.0 0.0 0.0
0.0 0.0 0.0 0.0 0.0 0.0 0.0 0.0
00000000: 8080 8080 8080 8080 8080 8080 8080 8080
00000010: 8080 8080 8080 8080 8080 8080 8080 8080
00000020: 8080 8080 8080 8080 8080 8080 8080 8080
00000030: 8080 8080 8080 8080 8080 8080 8080 8080
00000040: 8080 8080 8080 8080 8080 8080 8080 8080
00000050: 8080 8080 8080 8080 8080 8080 8080 8080
00000060: 8080 8080 8080 8080 8080 8080 8080 8080
00000070: 8080 8080 8080 8080 8080 8080 8080 8080
00000080: 8080 8080 8080 8080 8080 8080 8080 8080
00000090: 8080 8080 8080 8080 8080 8080 8080 8080
000000a0: 8080 8080 8080 8080 8080 8080 8080 8080
000000b0: 8080 8080 8080 8080 8080 8080 8080 8080
000000c0: 8080 8080 8080 8080 8080 8080 8080 8080
000000d0: 8080 8080 8080 8080 8080 8080 8080 8080
000000e0: 8080 8080 8080 8080 8080 8080 8080 8080
000000f0: 8080 8080 8080 8080 8080 8080 8080 8080

tfl.pseudo_qconst29 i1 [1, 14, 1, 64] scale=0.025005786 zero_point=-128
0.0 0.0 0.0 0.0 0.0 0.0 0.0 0.0
0.0 0.0 0.0 0.0 0.0 0.0 0.0 0.0
0.0 0.0 0.0 0.0 0.0 0.0 0.0 0.0
0.0 0.0 0.0 0.0 0.0 0.0 0.0 0.0
0.0 0.0 0.0 0.0 0.0 0.0 0.0 0.0
0.0 0.0 0.0 0.0 0.0 0.0 0.0 0.0
0.0 0.0 0.0 0.0 0.0 0.0 0.0 0.0
0.0 0.0 0.0 0.0 0.0 0.0 0.0 0.0
0.0 0.0 0.0 0.0 0.0 0.0 0.0 0.0
0.0 0.0 0.0 0.0 0.0 0.0 0.0 0.0
0.0 0.0 0.0 0.0 0.0 0.0 0.0 0.0
0.0 0.0 0.0 0.0 0.0 0.0 0.0 0.0
0.0 0.0 0.0 0.0 0.0 0.0 0.0 0.0
0.0 0.0 0.0 0.0 0.0 0.0 0.0 0.0
0.0 0.0 0.0 0.0 0.0 0.0 0.0 0.0
0.0 0.0 0.0 0.0 0.0 0.0 0.0 0.0
0.0 0.0 0.0 0.0 0.0 0.0 0.0 0.0
0.0 0.0 0.0 0.0 0.0 0.0 0.0 0.0
0.0 0.0 0.0 0.0 0.0 0.0 0.0 0.0
0.0 0.0 0.0 0.0 0.0 0.0 0.0 0.0
0.0 0.0 0.0 0.0 0.0 0.0 0.0 0.0
0.0 0.0 0.0 0.0 0.0 0.0 0.0 0.0
0.0 0.0 0.0 0.0 0.0 0.0 0.0 0.0
0.0 0.0 0.0 0.0 0.0 0.0 0.0 0.0
0.0 0.0 0.0 0.0 0.0 0.0 0.0 0.0
0.0 0.0 0.0 0.0 0.0 0.0 0.0 0.0
0.0 0.0 0.0 0.0 0.0 0.0 0.0 0.0
0.0 0.0 0.0 0.0 0.0 0.0 0.0 0.0
0.0 0.0 0.0 0.0 0.0 0.0 0.0 0.0
0.0 0.0 0.0 0.0 0.0 0.0 0.0 0.0
0.0 0.0 0.0 0.0 0.0 0.0 0.0 0.0
0.0 0.0 0.0 0.0 0.0 0.0 0.0 0.0
00000000: 8080 8080 8080 8080 8080 8080 8080 8080
00000010: 8080 8080 8080 8080 8080 8080 8080 8080
00000020: 8080 8080 8080 8080 8080 8080 8080 8080
00000030: 8080 8080 8080 8080 8080 8080 8080 8080
00000040: 8080 8080 8080 8080 8080 8080 8080 8080
00000050: 8080 8080 8080 8080 8080 8080 8080 8080
00000060: 8080 8080 8080 8080 8080 8080 8080 8080
00000070: 8080 8080 8080 8080 8080 8080 8080 8080
00000080: 8080 8080 8080 8080 8080 8080 8080 8080
00000090: 8080 8080 8080 8080 8080 8080 8080 8080
000000a0: 8080 8080 8080 8080 8080 8080 8080 8080
000000b0: 8080 8080 8080 8080 8080 8080 8080 8080
000000c0: 8080 8080 8080 8080 8080 8080 8080 8080
000000d0: 8080 8080 8080 8080 8080 8080 8080 8080
000000e0: 8080 8080 8080 8080 8080 8080 8080 8080
000000f0: 8080 8080 8080 8080 8080 8080 8080 8080
