mww/ohkay_goohdah.tflite (tflite, 60808 bytes, 18 tensors)

tfl.pseudo_qconst1 i1 [1, 1088] scale=0.0012649406 zero_point=0
000000 2e db f4 01 08 e3 1b ee 51 e0 45 ec 21 43 f2 61
       0.05818727 -0.046802804 -0.015179288 0.0012649406 0.010119525 -0.036683276 0.034153394 -0.022768931 0.10246019 -0.0404781 0.0872809 -0.025298811 0.04174304 0.08475102 -0.017709168 0.12269924
000010 f5 6f 0e 6a f4 27 4b 05 d6 d6 2b 0d 5a fc e4 57
       -0.013914347 0.14040841 0.017709168 0.1340837 -0.015179288 0.049332682 0.094870545 0.006324703 -0.053127505 -0.053127505 0.054392446 0.016444229 0.113844655 -0.0050597624 -0.035418335 0.11004983
000020 1b 1f 3b f3 19 66 16 2a 70 6a 0c df 44 5d fc 2e
       0.034153394 0.03921316 0.0746315 -0.016444229 0.031623516 0.12902394 0.027828693 0.053127505 0.14167334 0.1340837 0.015179288 -0.04174304 0.08601596 0.117639475 -0.0050597624 0.05818727
000030 ee f6 08 d9 ec 26 47 30 0f 1e 14 fe 0c e8 5e 56
       -0.022768931 -0.012649406 0.010119525 -0.049332682 -0.025298811 0.04806774 0.08981078 0.06071715 0.018974109 0.037948217 0.025298811 -0.0025298812 0.015179288 -0.030358575 0.11890442 0.10878489
000040 52 11 07 19 ed e0 6b 33 63 f4 08 43 4f 09 28 3f
       0.10372513 0.02150399 0.008854584 0.031623516 -0.02403387 -0.0404781 0.13534865 0.06451197 0.12522912 -0.015179288 0.010119525 0.08475102 0.09993031 0.011384466 0.050597623 0.07969126
000050 17 71 eb 6a df dd f3 42 3d fa 15 ea 66 f0 37 2e
       0.029093634 0.14293829 -0.026563752 0.1340837 -0.04174304 -0.044272922 -0.016444229 0.08348608 0.07716138 -0.007589644 0.026563752 -0.027828693 0.12902394 -0.02023905 0.06957173 0.05818727
000060 21 3c 0e 4c f0 53 7f 0b 11 65 0a 16 5a 13 44 17
       0.04174304 0.075896434 0.017709168 0.09613548 -0.02023905 0.10499007 0.16064745 0.013914347 0.02150399 0.127759 0.012649406 0.027828693 0.113844655 0.02403387 0.08601596 0.029093634
000070 f8 ed 60 f7 2a 4d f7 25 f6 da 07 41 de 0b 4a 52
       -0.010119525 -0.02403387 0.1214343 -0.011384466 0.053127505 0.09740043 -0.011384466 0.046802804 -0.012649406 -0.04806774 0.008854584 0.082221135 -0.04300798 0.013914347 0.09360561 0.10372513
000080 30 dc f9 25 29 01 5f 14 1b d9 2d 02 15 06 1f 3c
       0.06071715 -0.045537863 -0.008854584 0.046802804 0.051862564 0.0012649406 0.12016936 0.025298811 0.034153394 -0.049332682 0.056922328 0.0025298812 0.026563752 0.007589644 0.03921316 0.075896434
000090 35 74 f9 35 18 f4 07 33 d9 f7 40 28 68 04 f5 32
       0.06704185 0.1467331 -0.008854584 0.06704185 0.030358575 -0.015179288 0.008854584 0.06451197 -0.049332682 -0.011384466 0.0809562 0.050597623 0.13155383 0.0050597624 -0.013914347 0.06324703
0000a0 03 39 10 ec 18 19 50 ea 68 55 43 d3 09 17 fa 54
       0.003794822 0.072101615 0.02023905 -0.025298811 0.030358575 0.031623516 0.101195246 -0.027828693 0.13155383 0.107519954 0.08475102 -0.056922328 0.011384466 0.029093634 -0.007589644 0.10625501
0000b0 33 e0 42 df e3 26 d5 14 ed f4 27 fb e5 f1 34 4c
       0.06451197 -0.0404781 0.08348608 -0.04174304 -0.036683276 0.04806774 -0.054392446 0.025298811 -0.02403387 -0.015179288 0.049332682 -0.006324703 -0.034153394 -0.018974109 0.065776914 0.09613548
0000c0 ea 0c f3 2c f9 4b 3c f0 23 f5 e2 3c 13 e3 dd 10
       -0.027828693 0.015179288 -0.016444229 0.055657387 -0.008854584 0.094870545 0.075896434 -0.02023905 0.044272922 -0.013914347 -0.037948217 0.075896434 0.02403387 -0.036683276 -0.044272922 0.02023905
0000d0 06 13 33 30 24 3a fa eb 2a d6 09 40 17 61 d7 2d
       0.007589644 0.02403387 0.06451197 0.06071715 0.045537863 0.07336655 -0.007589644 -0.026563752 0.053127505 -0.053127505 0.011384466 0.0809562 0.029093634 0.12269924 -0.051862564 0.056922328
0000e0 e8 53 47 4e d9 e9 26 ee 32 42 0b df 4e 23 f4 36
       -0.030358575 0.10499007 0.08981078 0.098665364 -0.049332682 -0.029093634 0.04806774 -0.022768931 0.06324703 0.08348608 0.013914347 -0.04174304 0.098665364 0.044272922 -0.015179288 0.06830679
0000f0 fd 06 40 0d fe 3c ea 17 10 11 54 10 36 00 60 50
       -0.003794822 0.007589644 0.0809562 0.016444229 -0.0025298812 0.075896434 -0.027828693 0.029093634 0.02023905 0.02150399 0.10625501 0.02023905 0.06830679 0.0 0.1214343 0.101195246

tfl.pseudo_qconst3 i1 [64, 1, 1, 64]
000000 f5 d7 0d db c2 fc a6 40 af cb 9e 23 f0 5d 13 dd
       -11 -41 13 -37 -62 -4 -90 64 -81 -53 -98 35 -16 93 19 -35
000010 fa 54 cb c4 f6 a4 e3 81 69 bb c5 dc 93 f4 30 d1
       -6 84 -53 -60 -10 -92 -29 -127 105 -69 -59 -36 -109 -12 48 -47
000020 9a 0e 70 ce 19 f4 17 eb 06 42 18 04 49 c2 b3 30
       -102 14 112 -50 25 -12 23 -21 6 66 24 4 73 -62 -77 48
000030 bc d4 16 e4 9c bd 36 ae 05 0b ba 30 16 57 30 1f
       -68 -44 22 -28 -100 -67 54 -82 5 11 -70 48 22 87 48 31
000040 9f fb ba ba 22 37 73 29 3b e7 02 f7 29 14 97 0f
       -97 -5 -70 -70 34 55 115 41 59 -25 2 -9 41 20 -105 15
000050 67 1f 9f f6 4c 9f e9 93 47 eb 55 bb e4 d7 50 bc
       103 31 -97 -10 76 -97 -23 -109 71 -21 85 -69 -28 -41 80 -68
000060 1e 12 b3 eb 30 4e c5 c2 9a c6 7f f3 f4 0e b2 29
       30 18 -77 -21 48 78 -59 -62 -102 -58 127 -13 -12 14 -78 41
000070 76 fb c1 54 dc 10 0f 9f 66 dc 89 a6 e9 9b 5e 0f
       118 -5 -63 84 -36 16 15 -97 102 -36 -119 -90 -23 -101 94 15
000080 93 f1 41 81 f9 b3 93 56 b8 88 17 62 fc 72 57 a9
       -109 -15 65 -127 -7 -77 -109 86 -72 -120 23 98 -4 114 87 -87
000090 e0 f2 d3 96 46 15 be ab e7 a2 3c a0 52 c5 5e a3
       -32 -14 -45 -106 70 21 -66 -85 -25 -94 60 -96 82 -59 94 -93
0000a0 63 e0 d9 a2 69 e0 dc eb ca 33 ea 0a ee 76 48 b2
       99 -32 -39 -94 105 -32 -36 -21 -54 51 -22 10 -18 118 72 -78
0000b0 4b 7e 6e 3e ca b6 f5 c3 58 bc 4b 62 bb 8e e9 da
       75 126 110 62 -54 -74 -11 -61 88 -68 75 98 -69 -114 -23 -38
0000c0 04 f0 70 e7 b1 aa 21 56 44 09 e5 2b a4 ea a4 21
       4 -16 112 -25 -79 -86 33 86 68 9 -27 43 -92 -22 -92 33
0000d0 00 98 60 21 13 e1 05 94 91 20 f5 90 ad cc df dd
       0 -104 96 33 19 -31 5 -108 -111 32 -11 -112 -83 -52 -33 -35
0000e0 c8 d1 12 6d 32 0c a7 15 7f 3f 39 f4 f8 5e 3c 3a
       -56 -47 18 109 50 12 -89 21 127 63 57 -12 -8 94 60 58
0000f0 59 be b1 27 ba 28 50 a7 d5 bf 47 4f 14 ea 41 66
       89 -66 -79 39 -70 40 80 -89 -43 -65 71 79 20 -22 65 102

tfl.pseudo_qconst5 i1 [1, 23, 1, 64]
000000 e1 3d cf 1d 7f 22 54 81 25 38 34 19 e1 e9 2d d1
       -31 61 -49 29 127 34 84 -127 37 56 52 25 -31 -23 45 -47
000010 4b b4 23 0f 5a 61 de 1b 7f 7f 3c f7 02 b4 b6 ef
       75 -76 35 15 90 97 -34 27 127 127 60 -9 2 -76 -74 -17
000020 9b 3d c0 45 7b e6 f2 52 13 14 7e fb 5b 8a b4 cc
       -101 61 -64 69 123 -26 -14 82 19 20 126 -5 91 -118 -76 -52
000030 3e 3b 74 93 26 a2 2e 4d d4 5c 2d a7 f5 14 cc 85
       62 59 116 -109 38 -94 46 77 -44 92 45 -89 -11 20 -52 -123
000040 d6 43 cf d7 06 1c 43 ab 0d 2e 20 2a d7 ce bb 2a
       -42 67 -49 -41 6 28 67 -85 13 46 32 42 -41 -50 -69 42
000050 08 36 fd 29 38 8c c3 86 e6 42 e5 3b fb b1 da 37
       8 54 -3 41 56 -116 -61 -122 -26 66 -27 59 -5 -79 -38 55
000060 22 0b a6 ae 1a 31 ea 8c 14 42 7a c3 59 90 3c 35
       34 11 -90 -82 26 49 -22 -116 20 66 122 -61 89 -112 60 53
000070 7f 12 2f af 5e 7f 85 1a d0 7f 82 e2 ea 34 33 12
       127 18 47 -81 94 127 -123 26 -48 127 -126 -30 -22 52 51 18
000080 fb d5 52 22 68 a3 34 fe dc de a3 f7 e6 15 01 af
       -5 -43 82 34 104 -93 52 -2 -36 -34 -93 -9 -26 21 1 -81
000090 38 d0 e9 51 b1 71 7f f5 ad 3d 93 b1 25 97 14 b6
       56 -48 -23 81 -79 113 127 -11 -83 61 -109 -79 37 -105 20 -74
0000a0 18 3e 32 47 7f e8 a7 81 40 fd 08 81 7f 60 1b b7
       24 62 50 71 127 -24 -89 -127 64 -3 8 -127 127 96 27 -73
0000b0 18 d3 51 81 61 72 d9 39 45 58 0c b9 4b 06 ef 97
       24 -45 81 -127 97 114 -39 57 69 88 12 -71 75 6 -17 -105
0000c0 a8 59 6b b1 fb bd 22 24 04 03 e9 18 47 6c 7f f8
       -88 89 107 -79 -5 -67 34 36 4 3 -23 24 71 108 127 -8
0000d0 d4 5f 8f 50 7f b0 65 9d e1 f2 f5 3d a8 39 dc b1
       -44 95 -113 80 127 -80 101 -99 -31 -14 -11 61 -88 57 -36 -79
0000e0 e0 57 c7 55 ca df e8 cf df 44 03 98 ee f2 1e e2
       -32 87 -57 85 -54 -33 -24 -49 -33 68 3 -104 -18 -14 30 -30
0000f0 45 eb c5 da 77 4b 25 b2 f7 bf ca 24 c3 28 15 83
       69 -21 -59 -38 119 75 37 -78 -9 -65 -54 36 -61 40 21 -125

tfl.pseudo_qconst7 i1 [64, 1, 1, 64]
000000 ea 7c 3d 6b 40 87 22 67 7d 65 4a c7 16 ed 52 ae
       -22 124 61 107 64 -121 34 103 125 101 74 -57 22 -19 82 -82
000010 0d e7 57 e2 59 2f 15 32 76 21 9e af 5e 16 1d 91
       13 -25 87 -30 89 47 21 50 118 33 -98 -81 94 22 29 -111
000020 e9 e5 23 40 be a8 e5 49 e4 22 ad a4 81 1d fb 59
       -23 -27 35 64 -66 -88 -27 73 -28 34 -83 -92 -127 29 -5 89
000030 7a 74 f5 7c 04 2a ad 76 a5 6c 98 dd 8c da 56 76
       122 116 -11 124 4 42 -83 118 -91 108 -104 -35 -116 -38 86 118
000040 9b ce 38 07 0b ac d0 69 9c 9d c9 cf aa 3f 9d e6
       -101 -50 56 7 11 -84 -48 105 -100 -99 -55 -49 -86 63 -99 -26
000050 41 bb 2d c4 9b 0d 81 28 d9 8f 4e 28 45 07 57 32
       65 -69 45 -60 -101 13 -127 40 -39 -113 78 40 69 7 87 50
000060 5e b5 a3 69 0c ca aa 27 32 45 51 1b 1d df a9 fd
       94 -75 -93 105 12 -54 -86 39 50 69 81 27 29 -33 -87 -3
000070 00 31 bd cd 13 b8 06 ae 2d f0 a0 3b 42 20 d6 f3
       0 49 -67 -51 19 -72 6 -82 45 -16 -96 59 66 32 -42 -13
000080 cf b0 6e 8a de 9c 13 81 67 3e f8 0f 1a 08 9d 1a
       -49 -80 110 -118 -34 -100 19 -127 103 62 -8 15 26 8 -99 26
000090 30 b2 47 c2 d8 06 66 5e 38 b5 c6 58 60 4a d6 cb
       48 -78 71 -62 -40 6 102 94 56 -75 -58 88 96 74 -42 -53
0000a0 52 6e 64 49 e3 65 11 2a 69 8b 4e d1 74 68 d1 07
       82 110 100 73 -29 101 17 42 105 -117 78 -47 116 104 -47 7
0000b0 4b 04 6e ef 0f 0a 6f c8 5e 90 2c 8d ac 02 1d 5f
       75 4 110 -17 15 10 111 -56 94 -112 44 -115 -84 2 29 95
0000c0 f0 17 a0 3b 7b 73 fd 51 a4 88 a3 f4 6a e3 d1 48
       -16 23 -96 59 123 115 -3 81 -92 -120 -93 -12 106 -29 -47 72
0000d0 ca 77 3a d5 ba a2 c4 7d c9 0a db 93 3f 96 96 d4
       -54 119 58 -43 -70 -94 -60 125 -55 10 -37 -109 63 -106 -106 -44
0000e0 03 4e 81 b2 21 5f 3a b2 35 30 05 31 d8 49 72 d0
       3 78 -127 -78 33 95 58 -78 53 48 5 49 -40 73 114 -48
0000f0 38 a0 db fe 01 24 d4 12 d5 e0 0e 27 9a 2d 20 ab
       56 -96 -37 -2 1 36 -44 18 -43 -32 14 39 -102 45 32 -85

tfl.pseudo_qconst9 i1 [1, 15, 1, 32]
000000 ea 8d 10 81 81 f7 e3 ef 30 05 23 5d d9 0f 94 81
       -22 -115 16 -127 -127 -9 -29 -17 48 5 35 93 -39 15 -108 -127
000010 c5 59 d6 f4 30 a2 1c 99 47 6b fe 68 ba dd d9 31
       -59 89 -42 -12 48 -94 28 -103 71 107 -2 104 -70 -35 -39 49
000020 f5 5b be 27 37 6d 1f 59 ad 27 a4 1e f2 7c 0e 3b
       -11 91 -66 39 55 109 31 89 -83 39 -92 30 -14 124 14 59
000030 aa e8 da 66 a5 c2 f2 9e cc 35 40 9d b5 1e 9b 98
       -86 -24 -38 102 -91 -62 -14 -98 -52 53 64 -99 -75 30 -101 -104
000040 bf f2 7f c6 65 ea 2f ee 81 93 21 47 17 38 23 7a
       -65 -14 127 -58 101 -22 47 -18 -127 -109 33 71 23 56 35 122
000050 ca 2a 85 20 40 ff 06 99 19 4d 9e 23 a8 f1 de 81
       -54 42 -123 32 64 -1 6 -103 25 77 -98 35 -88 -15 -34 -127
000060 3e 3c 28 51 1b e6 38 77 51 6c 16 e2 fb 46 e2 75
       62 60 40 81 27 -26 56 119 81 108 22 -30 -5 70 -30 117
000070 cc 0f e9 f6 64 3c 71 23 7f 22 d8 37 8f f8 f6 b2
       -52 15 -23 -10 100 60 113 35 127 34 -40 55 -113 -8 -10 -78
000080 a8 ce 1d 87 b3 37 27 04 5b 45 0f aa a6 f2 b3 99
       -88 -50 29 -121 -77 55 39 4 91 69 15 -86 -90 -14 -77 -103
000090 26 9c 64 ee 96 3b d0 81 be 4a a1 00 bb a3 cf b3
       38 -100 100 -18 -106 59 -48 -127 -66 74 -95 0 -69 -93 -49 -77
0000a0 67 35 56 3f f0 33 d9 dc ec e1 7d 57 48 7f 06 3b
       103 53 86 63 -16 51 -39 -36 -20 -31 125 87 72 127 6 59
0000b0 77 4e c6 7f b5 a7 7f 14 46 85 2d 9e 05 57 c7 19
       119 78 -58 127 -75 -89 127 20 70 -123 45 -98 5 87 -57 25
0000c0 58 05 f6 b5 06 c5 26 7b 7b cc 7f 6b e9 51 b8 47
       88 5 -10 -75 6 -59 38 123 123 -52 127 107 -23 81 -72 71
0000d0 bf ce 4c 67 7b b7 5c 8e 13 d4 21 50 b2 fe 12 bd
       -65 -50 76 103 123 -73 92 -114 19 -44 33 80 -78 -2 18 -67
0000e0 1d c8 3e 0a ae 62 7e e7 9c 98 4f 36 60 40 7f 0c
       29 -56 62 10 -82 98 126 -25 -100 -104 79 54 96 64 127 12
0000f0 62 55 39 05 b0 0e 32 41 44 9a 73 bd 83 a6 0a 30
       98 85 57 5 -80 14 50 65 68 -102 115 -67 -125 -90 10 48

tfl.pseudo_qconst11 i1 [1, 9, 1, 32]
000000 01 53 9c 87 77 66 87 02 2b a3 c9 c7 1e 5a c7 a2
       1 83 -100 -121 119 102 -121 2 43 -93 -55 -57 30 90 -57 -94
000010 9a 63 7f 63 2a e8 23 d2 ea e2 ae ff 5c 81 f9 7c
       -102 99 127 99 42 -24 35 -46 -22 -30 -82 -1 92 -127 -7 124
000020 7f 66 f8 5a 26 81 7f 51 e0 91 a9 12 08 55 81 a6
       127 102 -8 90 38 -127 127 81 -32 -111 -87 18 8 85 -127 -90
000030 d0 91 d7 3a 23 81 8a c1 61 9a 9b 81 08 89 9f 42
       -48 -111 -41 58 35 -127 -118 -63 97 -102 -101 -127 8 -119 -97 66
000040 c7 d1 5b ee f2 59 4a 81 de a4 2a 8c 13 16 20 de
       -57 -47 91 -18 -14 89 74 -127 -34 -92 42 -116 19 22 32 -34
000050 03 d4 0a 36 60 08 b9 b3 65 9a ab 50 9f 1b 41 32
       3 -44 10 54 96 8 -71 -77 101 -102 -85 80 -97 27 65 50
000060 ff 7f 51 5a fd c4 d6 19 98 87 8d 81 52 81 d7 68
       -1 127 81 90 -3 -60 -42 25 -104 -121 -115 -127 82 -127 -41 104
000070 56 7f 39 f3 60 d1 b7 31 7f 9d 2c aa 4b b7 41 ac
       86 127 57 -13 96 -47 -73 49 127 -99 44 -86 75 -73 65 -84
000080 4a 8d dd c1 a6 96 49 85 2b 7f ad e6 81 ac c0 7f
       74 -115 -35 -63 -90 -106 73 -123 43 127 -83 -26 -127 -84 -64 127
000090 81 12 ab 17 81 1c 43 7f 60 bd a0 9d 9f cb 3d 40
       -127 18 -85 23 -127 28 67 127 96 -67 -96 -99 -97 -53 61 64
0000a0 ab 28 7f 26 7f af db 06 2b 4d 02 dc df 1b 3e 26
       -85 40 127 38 127 -81 -37 6 43 77 2 -36 -33 27 62 38
0000b0 fc e8 9d 61 6d 42 81 9d 31 cc fa 5d 0e 2c 2c 96
       -4 -24 -99 97 109 66 -127 -99 49 -52 -6 93 14 44 44 -106
0000c0 8e 07 72 3c 7b 14 33 a9 50 ab 5f 02 7d 2a b5 07
       -114 7 114 60 123 20 51 -87 80 -85 95 2 125 42 -75 7
0000d0 0c 9b 7d 79 a2 58 04 07 eb 81 5b b5 81 a0 88 81
       12 -101 125 121 -94 88 4 7 -21 -127 91 -75 -127 -96 -120 -127
0000e0 16 59 4e 91 a0 d4 84 b4 7f 09 b0 7e 3e 29 32 37
       22 89 78 -111 -96 -44 -124 -76 127 9 -80 126 62 41 50 55
0000f0 a5 42 9d 9d 5c e8 c1 b3 42 1e 7f 3e c6 a8 81 d0
       -91 66 -99 -99 92 -24 -63 -77 66 30 127 62 -58 -88 -127 -48

tfl.pseudo_qconst13 i1 [64, 1, 1, 64]
000000 ad ef 7b 01 28 89 00 8a 72 4f ad 66 6a 09 65 c0
       -83 -17 123 1 40 -119 0 -118 114 79 -83 102 106 9 101 -64
000010 2c 56 d9 58 7f 11 53 fa a2 2a b5 07 fc 4e c0 d7
       44 86 -39 88 127 17 83 -6 -94 42 -75 7 -4 78 -64 -41
000020 7b 7c 65 42 f1 be 43 d9 6f 11 a9 20 05 1b d8 17
       123 124 101 66 -15 -66 67 -39 111 17 -87 32 5 27 -40 23
000030 78 1d 21 64 04 dd 44 e2 e5 1d 26 99 c7 c9 5c b9
       120 29 33 100 4 -35 68 -30 -27 29 38 -103 -57 -55 92 -71
000040 37 2e 7a 25 bb be 84 ce 44 a1 60 09 55 7f e6 99
       55 46 122 37 -69 -66 -124 -50 68 -95 96 9 85 127 -26 -103
000050 46 ee 46 b0 15 a7 3c a7 68 df 98 c0 c4 6d a8 4f
       70 -18 70 -80 21 -89 60 -89 104 -33 -104 -64 -60 109 -88 79
000060 75 67 7e be 1c fb b0 18 4b ff 71 e8 fa f0 7a 6f
       117 103 126 -66 28 -5 -80 24 75 -1 113 -24 -6 -16 122 111
000070 77 e0 f2 2e e5 11 23 17 6e 62 cb b7 0c 0a cd a0
       119 -32 -14 46 -27 17 35 23 110 98 -53 -73 12 10 -51 -96
000080 92 c2 74 61 e2 61 9c 31 ac 61 29 de f7 23 33 e1
       -110 -62 116 97 -30 97 -100 49 -84 97 41 -34 -9 35 51 -31
000090 b7 95 0a 9b 77 36 cf 8e f2 60 8c 29 fc 4e 72 9a
       -73 -107 10 -101 119 54 -49 -114 -14 96 -116 41 -4 78 114 -102
0000a0 f9 3c 68 2b 6b a9 d2 2e f0 bf d5 78 24 7f 22 e8
       -7 60 104 43 107 -87 -46 46 -16 -65 -43 120 36 127 34 -24
0000b0 e1 bb 58 36 d3 3d a5 e7 5d ae d8 be e7 1b 5d bc
       -31 -69 88 54 -45 61 -91 -25 93 -82 -40 -66 -25 27 93 -68
0000c0 5b d6 a3 40 64 41 42 ad 8f 68 b9 c1 70 d2 61 09
       91 -42 -93 64 100 65 66 -83 -113 104 -71 -63 112 -46 97 9
0000d0 37 f4 5c b0 34 f0 cf 73 bd 9b 4a 51 33 48 72 f6
       55 -12 92 -80 52 -16 -49 115 -67 -101 74 81 51 72 114 -10
0000e0 18 4d e5 1d a1 95 27 84 e0 0c c6 e0 dd ce eb d9
       24 77 -27 29 -95 -107 39 -124 -32 12 -58 -32 -35 -50 -21 -39
0000f0 24 45 ba 0a 7f 9c 2b d4 fc 71 dc f3 f6 f5 14 30
       36 69 -70 10 127 -100 43 -44 -4 113 -36 -13 -10 -11 20 48

tfl.pseudo_qconst15 i1 [1, 11, 1, 32]
000000 13 20 cd cc b8 1d bb 14 65 08 5e bc 77 81 25 76
       19 32 -51 -52 -72 29 -69 20 101 8 94 -68 119 -127 37 118
000010 ec 2e 3e 5a 19 3b 2d 29 ce 20 45 94 38 c9 57 0c
       -20 46 62 90 25 59 45 41 -50 32 69 -108 56 -55 87 12
000020 46 57 cf 81 ea 4c 19 5c 39 8e f3 24 17 13 ee e7
       70 87 -49 -127 -22 76 25 92 57 -114 -13 36 23 19 -18 -25
000030 fb 9d 6e 4e 81 e6 90 e8 14 ed 9e a5 26 f6 0e 7f
       -5 -99 110 78 -127 -26 -112 -24 20 -19 -98 -91 38 -10 14 127
000040 ad 0b e7 19 81 39 ee 75 c9 4a aa 0f 29 1d 7f 99
       -83 11 -25 25 -127 57 -18 117 -55 74 -86 15 41 29 127 -103
000050 43 7f 6c f6 83 db a5 85 2a 26 40 81 be d5 4e d1
       67 127 108 -10 -125 -37 -91 -123 42 38 64 -127 -66 -43 78 -47
000060 f9 1e 18 e9 37 4d 7d 71 7f e5 31 7f 81 9b ef ea
       -7 30 24 -23 55 77 125 113 127 -27 49 127 -127 -101 -17 -22
000070 87 e9 58 4b ee ac 9d 31 95 7f db 32 2e ea 0b dc
       -121 -23 88 75 -18 -84 -99 49 -107 127 -37 50 46 -22 11 -36
000080 6b 45 6e 46 01 93 cc 2e b5 9f ae c4 af 7f e0 45
       107 69 110 70 1 -109 -52 46 -75 -97 -82 -60 -81 127 -32 69
000090 50 6c 7f 7f 47 ff 82 4b 7b c7 ad 64 96 ef 60 08
       80 108 127 127 71 -1 -126 75 123 -57 -83 100 -106 -17 96 8
0000a0 a1 d5 d2 12 f4 38 61 c8 1b 81 0c 68 bf 25 49 ae
       -95 -43 -46 18 -12 56 97 -56 27 -127 12 104 -65 37 73 -82
0000b0 2d a8 92 50 aa 7f 5d 4c bf 65 a6 e1 14 60 75 3c
       45 -88 -110 80 -86 127 93 76 -65 101 -90 -31 20 96 117 60
0000c0 81 7f 9f 37 24 1e b9 2a f2 30 50 e2 e4 ee 95 b9
       -127 127 -97 55 36 30 -71 42 -14 48 80 -30 -28 -18 -107 -71
0000d0 85 08 0b 5f 51 c7 81 b2 0a 25 1c 9a cd 05 81 1f
       -123 8 11 95 81 -57 -127 -78 10 37 28 -102 -51 5 -127 31
0000e0 a9 11 7c 40 83 7f 81 2b a6 0e 7f 33 02 dc d4 0e
       -87 17 124 64 -125 127 -127 43 -90 14 127 51 2 -36 -44 14
0000f0 59 ee 49 cc 5a 91 2f ac 7f 77 97 8f 71 1c 2b bb
       89 -18 73 -52 90 -111 47 -84 127 119 -105 -113 113 28 43 -69

tfl.pseudo_qconst17 i1 [1, 7, 1, 32]
000000 00 02 6d 7f 7f 78 b9 b5 02 e7 81 45 59 bc a3 d3
       0 2 109 127 127 120 -71 -75 2 -25 -127 69 89 -68 -93 -45
000010 a7 83 03 eb 28 8b d0 4d 31 a5 72 e8 39 a8 92 f9
       -89 -125 3 -21 40 -117 -48 77 49 -91 114 -24 57 -88 -110 -7
000020 35 4f e1 9c ac 81 73 28 20 4a b4 45 c1 96 81 24
       53 79 -31 -100 -84 -127 115 40 32 74 -76 69 -63 -106 -127 36
000030 81 59 f2 76 d9 87 f5 7f 4d 74 09 81 68 a6 2d 20
       -127 89 -14 118 -39 -121 -11 127 77 116 9 -127 104 -90 45 32
000040 64 b7 4f d2 3c cc be f7 b3 81 9f 7f ee e6 8e 81
       100 -73 79 -46 60 -52 -66 -9 -77 -127 -97 127 -18 -26 -114 -127
000050 c1 01 30 7c 8a 1a e8 a1 1e 7f 83 ff 7f e4 61 c6
       -63 1 48 124 -118 26 -24 -95 30 127 -125 -1 127 -28 97 -58
000060 7f 45 81 9a 0e 91 5e 9a 11 64 9b dc 81 08 43 b9
       127 69 -127 -102 14 -111 94 -102 17 100 -101 -36 -127 8 67 -71
000070 d8 bc e6 10 94 81 81 7d be 18 7f ba 27 02 e4 e9
       -40 -68 -26 16 -108 -127 -127 125 -66 24 127 -70 39 2 -28 -23
000080 5e 54 dd ca 7a 5e ea 3a 27 69 62 9e ff 47 ca f7
       94 84 -35 -54 122 94 -22 58 39 105 98 -98 -1 71 -54 -9
000090 82 cd 27 94 f1 73 67 a2 81 12 fe 88 4e 09 3a 17
       -126 -51 39 -108 -15 115 103 -94 -127 18 -2 -120 78 9 58 23
0000a0 e1 07 cc cc e7 b2 78 7f b9 31 65 f3 c6 a3 71 95
       -31 7 -52 -52 -25 -78 120 127 -71 49 101 -13 -58 -93 113 -107
0000b0 7b dd 81 7f 81 06 1d 76 f2 c7 58 01 1c 48 fe 09
       123 -35 -127 127 -127 6 29 118 -14 -57 88 1 28 72 -2 9
0000c0 54 7f a4 07 43 83 7f 6f 7f f1 b5 22 d8 7f e2 e0
       84 127 -92 7 67 -125 127 111 127 -15 -75 34 -40 127 -30 -32
0000d0 0e 7f bb 09 f6 7e f2 04 e2 de e1 08 3e 7f 81 7f
       14 127 -69 9 -10 126 -14 4 -30 -34 -31 8 62 127 -127 127

tfl.pseudo_qconst19 i1 [64, 1, 1, 32]
000000 74 d4 bd 69 88 8b 63 b7 cd ae b5 c1 6b f7 ca 7f
       116 -44 -67 105 -120 -117 99 -73 -51 -82 -75 -63 107 -9 -54 127
000010 3d 00 82 c0 41 42 c3 2a 1c 51 a5 e8 e0 fd e9 9b
       61 0 -126 -64 65 66 -61 42 28 81 -91 -24 -32 -3 -23 -101
000020 e1 e3 6e ef 5c 97 ac 68 a4 a1 c5 73 d9 09 2f b0
       -31 -29 110 -17 92 -105 -84 104 -92 -95 -59 115 -39 9 47 -80
000030 4c d5 8f 2e 3d a7 29 7f 65 1a 0c a5 d4 76 d1 17
       76 -43 -113 46 61 -89 41 127 101 26 12 -91 -44 118 -47 23
000040 07 f3 f5 f4 02 c2 09 f5 f0 fa 19 b7 7f f0 11 06
       7 -13 -11 -12 2 -62 9 -11 -16 -6 25 -73 127 -16 17 6
000050 d5 30 a6 98 ce f9 65 2b 54 cb c5 27 f3 20 73 cf
       -43 48 -90 -104 -50 -7 101 43 84 -53 -59 39 -13 32 115 -49
000060 08 55 d8 5a b5 56 81 3f 8e 75 39 cf 4d 4c ee 0d
       8 85 -40 90 -75 86 -127 63 -114 117 57 -49 77 76 -18 13
000070 b6 78 1b f1 3a e9 15 76 0a e8 41 b3 df 15 f8 63
       -74 120 27 -15 58 -23 21 118 10 -24 65 -77 -33 21 -8 99
000080 1d 23 b9 15 79 70 0f f8 3e 19 06 55 81 99 9c 17
       29 35 -71 21 121 112 15 -8 62 25 6 85 -127 -103 -100 23
000090 4a a4 cd 1f eb 19 96 22 63 9e 89 79 a5 e6 15 76
       74 -92 -51 31 -21 25 -106 34 99 -98 -119 121 -91 -26 21 118
0000a0 6f f6 f4 43 82 af 25 c4 b6 d0 d6 b6 fe ec 7a 2c
       111 -10 -12 67 -126 -81 37 -60 -74 -48 -42 -74 -2 -20 122 44
0000b0 bf 39 b5 1d bb cb 7f 5b e3 1f f4 f7 3b ed 1c 11
       -65 57 -75 29 -69 -53 127 91 -29 31 -12 -9 59 -19 28 17
0000c0 b7 0f fe ad 65 3c 3c c6 71 00 ec f7 c6 58 a7 c2
       -73 15 -2 -83 101 60 60 -58 113 0 -20 -9 -58 88 -89 -62
0000d0 30 56 9e 81 6c 12 14 c6 e6 02 96 4c 15 02 3a c5
       48 86 -98 -127 108 18 20 -58 -26 2 -106 76 21 2 58 -59
0000e0 1b 46 b2 15 a0 8a 54 1e 78 4c 5c 8f 40 43 bf 69
       27 70 -78 21 -96 -118 84 30 120 76 92 -113 64 67 -65 105
0000f0 77 84 6c 06 20 f2 b2 af fb 2d e5 94 b0 81 97 14
       119 -124 108 6 32 -14 -78 -81 -5 45 -27 -108 -80 -127 -105 20

tfl.pseudo_qconst21 i1 [1, 5, 1, 32]
000000 7f b8 81 cd 71 19 cb 74 7f dd fc b5 7f 14 94 07
       127 -72 -127 -51 113 25 -53 116 127 -35 -4 -75 127 20 -108 7
000010 5d de 81 7f 58 f7 87 c0 18 8d bd 83 89 49 9a 88
       93 -34 -127 127 88 -9 -121 -64 24 -115 -67 -125 -119 73 -102 -120
000020 2d 47 f9 d4 7f 8f 70 6e 52 00 7f 07 2d 86 19 b2
       45 71 -7 -44 127 -113 112 110 82 0 127 7 45 -122 25 -78
000030 fc f8 e6 84 05 1d a5 29 99 6c a7 a5 c2 6c 87 81
       -4 -8 -26 -124 5 29 -91 41 -103 108 -89 -91 -62 108 -121 -127
000040 99 9d 9a 1f 0a 23 ab 23 25 99 87 da b2 81 a4 81
       -103 -99 -102 31 10 35 -85 35 37 -103 -121 -38 -78 -127 -92 -127
000050 bc 4e fd 03 20 99 65 1c 42 16 81 cd 23 7f 41 be
       -68 78 -3 3 32 -103 101 28 66 22 -127 -51 35 127 65 -66
000060 2c a6 49 0a e4 7f 63 81 69 81 27 7f 6b c2 5f 77
       44 -90 73 10 -28 127 99 -127 105 -127 39 127 107 -62 95 119
000070 ee 7f 6f 88 39 fc 36 7f a8 bb 07 7f 81 c2 32 b1
       -18 127 111 -120 57 -4 54 127 -88 -69 7 127 -127 -62 50 -79
000080 3f 7f 55 7f 91 0e 7f e0 6d 08 a4 48 28 e4 7f dd
       63 127 85 127 -111 14 127 -32 109 8 -92 72 40 -28 127 -35
000090 81 e4 7f af 81 81 7f f0 7f 81 1b c0 19 62 7f 43
       -127 -28 127 -81 -127 -127 127 -16 127 -127 27 -64 25 98 127 67

tfl.pseudo_qconst23 i1 [32, 5, 1, 40]
000000 ef 1c 06 a6 7c 1e fc a7 04 65 31 9f ac 64 ce 26
       -17 28 6 -90 124 30 -4 -89 4 101 49 -97 -84 100 -50 38
000010 bc a8 ae 81 31 98 2d 1e 12 09 66 8e 29 51 cf 2a
       -68 -88 -82 -127 49 -104 45 30 18 9 102 -114 41 81 -49 42
000020 dc a8 05 92 f1 32 27 68 4d 0e 4d 56 c3 07 43 52
       -36 -88 5 -110 -15 50 39 104 77 14 77 86 -61 7 67 82
000030 db 03 a6 3e 63 c4 69 69 01 dd 4e 59 55 31 35 11
       -37 3 -90 62 99 -60 105 105 1 -35 78 89 85 49 53 17
000040 d9 bf 0a 56 a7 60 f0 00 2d bb 04 4c a0 b9 48 5a
       -39 -65 10 86 -89 96 -16 0 45 -69 4 76 -96 -71 72 90
000050 4d 2b 6c 22 09 6f e6 66 f8 fc 51 d8 27 31 07 c7
       77 43 108 34 9 111 -26 102 -8 -4 81 -40 39 49 7 -57
000060 c5 dc 04 da 1f 9d 66 3b 0a 15 d7 13 36 df d4 fe
       -59 -36 4 -38 31 -99 102 59 10 21 -41 19 54 -33 -44 -2
000070 3d 1d d0 10 f1 99 51 c3 ed 33 7b 3d 74 f6 f6 ac
       61 29 -48 16 -15 -103 81 -61 -19 51 123 61 116 -10 -10 -84
000080 51 39 e6 d9 4c 5b b7 4e c9 d0 b6 23 51 b1 66 51
       81 57 -26 -39 76 91 -73 78 -55 -48 -74 35 81 -79 102 81
000090 0d 99 14 d9 2b 43 e8 8e 27 bf be 71 e9 23 39 95
       13 -103 20 -39 43 67 -24 -114 39 -65 -66 113 -23 35 57 -107
0000a0 07 fb a2 b7 e9 66 7a aa 4a 30 f2 3f 51 a7 0c a7
       7 -5 -94 -73 -23 102 122 -86 74 48 -14 63 81 -89 12 -89
0000b0 be dc 13 1a d9 de 16 69 ed 16 45 f0 4e e5 08 a2
       -66 -36 19 26 -39 -34 22 105 -19 22 69 -16 78 -27 8 -94
0000c0 e4 cc d3 51 c6 53 a3 cb 71 1d 50 d7 36 3a 18 93
       -28 -52 -45 81 -58 83 -93 -53 113 29 80 -41 54 58 24 -109
0000d0 cb 91 c2 86 2b b6 db ac 74 3d 4f a5 3b b1 37 d3
       -53 -111 -62 -122 43 -74 -37 -84 116 61 79 -91 59 -79 55 -45
0000e0 9b c7 12 b7 63 ce 02 ef 61 02 3b e9 10 d0 ff cc
       -101 -57 18 -73 99 -50 2 -17 97 2 59 -23 16 -48 -1 -52
0000f0 73 a4 ae 9e 43 11 1f 96 96 67 9e a2 73 b7 a4 d6
       115 -92 -82 -98 67 17 31 -106 -106 103 -98 -94 115 -73 -92 -42

tfl.pseudo_qconst24 i1 [1, 22, 1, 64] scale=0.023810655 zero_point=-128
000000 80 80 80 80 80 80 80 80 80 80 80 80 80 80 80 80
       0.0 0.0 0.0 0.0 0.0 0.0 0.0 0.0 0.0 0.0 0.0 0.0 0.0 0.0 0.0 0.0
000010 80 80 80 80 80 80 80 80 80 80 80 80 80 80 80 80
       0.0 0.0 0.0 0.0 0.0 0.0 0.0 0.0 0.0 0.0 0.0 0.0 0.0 0.0 0.0 0.0
000020 80 80 80 80 80 80 80 80 80 80 80 80 80 80 80 80
       0.0 0.0 0.0 0.0 0.0 0.0 0.0 0.0 0.0 0.0 0.0 0.0 0.0 0.0 0.0 0.0
000030 80 80 80 80 80 80 80 80 80 80 80 80 80 80 80 80
       0.0 0.0 0.0 0.0 0.0 0.0 0.0 0.0 0.0 0.0 0.0 0.0 0.0 0.0 0.0 0.0
000040 80 80 80 80 80 80 80 80 80 80 80 80 80 80 80 80
       0.0 0.0 0.0 0.0 0.0 0.0 0.0 0.0 0.0 0.0 0.0 0.0 0.0 0.0 0.0 0.0
000050 80 80 80 80 80 80 80 80 80 80 80 80 80 80 80 80
       0.0 0.0 0.0 0.0 0.0 0.0 0.0 0.0 0.0 0.0 0.0 0.0 0.0 0.0 0.0 0.0
000060 80 80 80 80 80 80 80 80 80 80 80 80 80 80 80 80
       0.0 0.0 0.0 0.0 0.0 0.0 0.0 0.0 0.0 0.0 0.0 0.0 0.0 0.0 0.0 0.0
000070 80 80 80 80 80 80 80 80 80 80 80 80 80 80 80 80
       0.0 0.0 0.0 0.0 0.0 0.0 0.0 0.0 0.0 0.0 0.0 0.0 0.0 0.0 0.0 0.0
000080 80 80 80 80 80 80 80 80 80 80 80 80 80 80 80 80
       0.0 0.0 0.0 0.0 0.0 0.0 0.0 0.0 0.0 0.0 0.0 0.0 0.0 0.0 0.0 0.0
000090 80 80 80 80 80 80 80 80 80 80 80 80 80 80 80 80
       0.0 0.0 0.0 0.0 0.0 0.0 0.0 0.0 0.0 0.0 0.0 0.0 0.0 0.0 0.0 0.0
0000a0 80 80 80 80 80 80 80 80 80 80 80 80 80 80 80 80
       0.0 0.0 0.0 0.0 0.0 0.0 0.0 0.0 0.0 0.0 0.0 0.0 0.0 0.0 0.0 0.0
0000b0 80 80 80 80 80 80 80 80 80 80 80 80 80 80 80 80
       0.0 0.0 0.0 0.0 0.0 0.0 0.0 0.0 0.0 0.0 0.0 0.0 0.0 0.0 0.0 0.0
0000c0 80 80 80 80 80 80 80 80 80 80 80 80 80 80 80 80
       0.0 0.0 0.0 0.0 0.0 0.0 0.0 0.0 0.0 0.0 0.0 0.0 0.0 0.0 0.0 0.0
0000d0 80 80 80 80 80 80 80 80 80 80 80 80 80 80 80 80
       0.0 0.0 0.0 0.0 0.0 0.0 0.0 0.0 0.0 0.0 0.0 0.0 0.0 0.0 0.0 0.0
0000e0 80 80 80 80 80 80 80 80 80 80 80 80 80 80 80 80
       0.0 0.0 0.0 0.0 0.0 0.0 0.0 0.0 0.0 0.0 0.0 0.0 0.0 0.0 0.0 0.0
0000f0 80 80 80 80 80 80 80 80 80 80 80 80 80 80 80 80
       0.0 0.0 0.0 0.0 0.0 0.0 0.0 0.0 0.0 0.0 0.0 0.0 0.0 0.0 0.0 0.0

tfl.pseudo_qconst25 i1 [1, 16, 1, 64] scale=0.01850126 zero_point=-128
000000 80 80 80 80 80 80 80 80 80 80 80 80 80 80 80 80
       0.0 0.0 0.0 0.0 0.0 0.0 0.0 0.0 0.0 0.0 0.0 0.0 0.0 0.0 0.0 0.0
000010 80 80 80 80 80 80 80 80 80 80 80 80 80 80 80 80
       0.0 0.0 0.0 0.0 0.0 0.0 0.0 0.0 0.0 0.0 0.0 0.0 0.0 0.0 0.0 0.0
000020 80 80 80 80 80 80 80 80 80 80 80 80 80 80 80 80
       0.0 0.0 0.0 0.0 0.0 0.0 0.0 0.0 0.0 0.0 0.0 0.0 0.0 0.0 0.0 0.0
000030 80 80 80 80 80 80 80 80 80 80 80 80 80 80 80 80
       0.0 0.0 0.0 0.0 0.0 0.0 0.0 0.0 0.0 0.0 0.0 0.0 0.0 0.0 0.0 0.0
000040 80 80 80 80 80 80 80 80 80 80 80 80 80 80 80 80
       0.0 0.0 0.0 0.0 0.0 0.0 0.0 0.0 0.0 0.0 0.0 0.0 0.0 0.0 0.0 0.0
000050 80 80 80 80 80 80 80 80 80 80 80 80 80 80 80 80
       0.0 0.0 0.0 0.0 0.0 0.0 0.0 0.0 0.0 0.0 0.0 0.0 0.0 0.0 0.0 0.0
000060 80 80 80 80 80 80 80 80 80 80 80 80 80 80 80 80
       0.0 0.0 0.0 0.0 0.0 0.0 0.0 0.0 0.0 0.0 0.0 0.0 0.0 0.0 0.0 0.0
000070 80 80 80 80 80 80 80 80 80 80 80 80 80 80 80 80
       0.0 0.0 0.0 0.0 0.0 0.0 0.0 0.0 0.0 0.0 0.0 0.0 0.0 0.0 0.0 0.0
000080 80 80 80 80 80 80 80 80 80 80 80 80 80 80 80 80
       0.0 0.0 0.0 0.0 0.0 0.0 0.0 0.0 0.0 0.0 0.0 0.0 0.0 0.0 0.0 0.0
000090 80 80 80 80 80 80 80 80 80 80 80 80 80 80 80 80
       0.0 0.0 0.0 0.0 0.0 0.0 0.0 0.0 0.0 0.0 0.0 0.0 0.0 0.0 0.0 0.0
0000a0 80 80 80 80 80 80 80 80 80 80 80 80 80 80 80 80
       0.0 0.0 0.0 0.0 0.0 0.0 0.0 0.0 0.0 0.0 0.0 0.0 0.0 0.0 0.0 0.0
0000b0 80 80 80 80 80 80 80 80 80 80 80 80 80 80 80 80
       0.0 0.0 0.0 0.0 0.0 0.0 0.0 0.0 0.0 0.0 0.0 0.0 0.0 0.0 0.0 0.0
0000c0 80 80 80 80 80 80 80 80 80 80 80 80 80 80 80 80
       0.0 0.0 0.0 0.0 0.0 0.0 0.0 0.0 0.0 0.0 0.0 0.0 0.0 0.0 0.0 0.0
0000d0 80 80 80 80 80 80 80 80 80 80 80 80 80 80 80 80
       0.0 0.0 0.0 0.0 0.0 0.0 0.0 0.0 0.0 0.0 0.0 0.0 0.0 0.0 0.0 0.0
0000e0 80 80 80 80 80 80 80 80 80 80 80 80 80 80 80 80
       0.0 0.0 0.0 0.0 0.0 0.0 0.0 0.0 0.0 0.0 0.0 0.0 0.0 0.0 0.0 0.0
0000f0 80 80 80 80 80 80 80 80 80 80 80 80 80 80 80 80
       0.0 0.0 0.0 0.0 0.0 0.0 0.0 0.0 0.0 0.0 0.0 0.0 0.0 0.0 0.0 0.0

tfl.pseudo_qconst26 i1 [1, 2, 1, 40] scale=0.101960786 zero_point=-128
000000 80 80 80 80 80 80 80 80 80 80 80 80 80 80 80 80
       0.0 0.0 0.0 0.0 0.0 0.0 0.0 0.0 0.0 0.0 0.0 0.0 0.0 0.0 0.0 0.0
000010 80 80 80 80 80 80 80 80 80 80 80 80 80 80 80 80
       0.0 0.0 0.0 0.0 0.0 0.0 0.0 0.0 0.0 0.0 0.0 0.0 0.0 0.0 0.0 0.0
000020 80 80 80 80 80 80 80 80 80 80 80 80 80 80 80 80
       0.0 0.0 0.0 0.0 0.0 0.0 0.0 0.0 0.0 0.0 0.0 0.0 0.0 0.0 0.0 0.0
000030 80 80 80 80 80 80 80 80 80 80 80 80 80 80 80 80
       0.0 0.0 0.0 0.0 0.0 0.0 0.0 0.0 0.0 0.0 0.0 0.0 0.0 0.0 0.0 0.0
000040 80 80 80 80 80 80 80 80 80 80 80 80 80 80 80 80
       0.0 0.0 0.0 0.0 0.0 0.0 0.0 0.0 0.0 0.0 0.0 0.0 0.0 0.0 0.0 0.0

tfl.pseudo_qconst27 i1 [1, 4, 1, 32] scale=0.28899372 zero_point=-128
000000 80 80 80 80 80 80 80 80 80 80 80 80 80 80 80 80
       0.0 0.0 0.0 0.0 0.0 0.0 0.0 0.0 0.0 0.0 0.0 0.0 0.0 0.0 0.0 0.0
000010 80 80 80 80 80 80 80 80 80 80 80 80 80 80 80 80
       0.0 0.0 0.0 0.0 0.0 0.0 0.0 0.0 0.0 0.0 0.0 0.0 0.0 0.0 0.0 0.0
000020 80 80 80 80 80 80 80 80 80 80 80 80 80 80 80 80
       0.0 0.0 0.0 0.0 0.0 0.0 0.0 0.0 0.0 0.0 0.0 0.0 0.0 0.0 0.0 0.0
000030 80 80 80 80 80 80 80 80 80 80 80 80 80 80 80 80
       0.0 0.0 0.0 0.0 0.0 0.0 0.0 0.0 0.0 0.0 0.0 0.0 0.0 0.0 0.0 0.0
000040 80 80 80 80 80 80 80 80 80 80 80 80 80 80 80 80
       0.0 0.0 0.0 0.0 0.0 0.0 0.0 0.0 0.0 0.0 0.0 0.0 0.0 0.0 0.0 0.0
000050 80 80 80 80 80 80 80 80 80 80 80 80 80 80 80 80
       0.0 0.0 0.0 0.0 0.0 0.0 0.0 0.0 0.0 0.0 0.0 0.0 0.0 0.0 0.0 0.0
000060 80 80 80 80 80 80 80 80 80 80 80 80 80 80 80 80
       0.0 0.0 0.0 0.0 0.0 0.0 0.0 0.0 0.0 0.0 0.0 0.0 0.0 0.0 0.0 0.0
000070 80 80 80 80 80 80 80 80 80 80 80 80 80 80 80 80
       0.0 0.0 0.0 0.0 0.0 0.0 0.0 0.0 0.0 0.0 0.0 0.0 0.0 0.0 0.0 0.0

tfl.pseudo_qconst28 i1 [1, 10, 1, 64] scale=0.025406409 zero_point=-128
000000 80 80 80 80 80 80 80 80 80 80 80 80 80 80 80 80
       0.0 0.0 0.0 0.0 0.0 0.0 0.0 0.0 0.0 0.0 0.0 0.0 0.0 0.0 0.0 0.0
000010 80 80 80 80 80 80 80 80 80 80 80 80 80 80 80 80
       0.0 0.0 0.0 0.0 0.0 0.0 0.0 0.0 0.0 0.0 0.0 0.0 0.0 0.0 0.0 0.0
000020 80 80 80 80 80 80 80 80 80 80 80 80 80 80 80 80
       0.0 0.0 0.0 0.0 0.0 0.0 0.0 0.0 0.0 0.0 0.0 0.0 0.0 0.0 0.0 0.0
000030 80 80 80 80 80 80 80 80 80 80 80 80 80 80 80 80
       0.0 0.0 0.0 0.0 0.0 0.0 0.0 0.0 0.0 0.0 0.0 0.0 0.0 0.0 0.0 0.0
000040 80 80 80 80 80 80 80 80 80 80 80 80 80 80 80 80
       0.0 0.0 0.0 0.0 0.0 0.0 0.0 0.0 0.0 0.0 0.0 0.0 0.0 0.0 0.0 0.0
000050 80 80 80 80 80 80 80 80 80 80 80 80 80 80 80 80
       0.0 0.0 0.0 0.0 0.0 0.0 0.0 0.0 0.0 0.0 0.0 0.0 0.0 0.0 0.0 0.0
000060 80 80 80 80 80 80 80 80 80 80 80 80 80 80 80 80
       0.0 0.0 0.0 0.0 0.0 0.0 0.0 0.0 0.0 0.0 0.0 0.0 0.0 0.0 0.0 0.0
000070 80 80 80 80 80 80 80 80 80 80 80 80 80 80 80 80
       0.0 0.0 0.0 0.0 0.0 0.0 0.0 0.0 0.0 0.0 0.0 0.0 0.0 0.0 0.0 0.0
000080 80 80 80 80 80 80 80 80 80 80 80 80 80 80 80 80
       0.0 0.0 0.0 0.0 0.0 0.0 0.0 0.0 0.0 0.0 0.0 0.0 0.0 0.0 0.0 0.0
000090 80 80 80 80 80 80 80 80 80 80 80 80 80 80 80 80
       0.0 0.0 0.0 0.0 0.0 0.0 0.0 0.0 0.0 0.0 0.0 0.0 0.0 0.0 0.0 0.0
0000a0 80 80 80 80 80 80 80 80 80 80 80 80 80 80 80 80
       0.0 0.0 0.0 0.0 0.0 0.0 0.0 0.0 0.0 0.0 0.0 0.0 0.0 0.0 0.0 0.0
0000b0 80 80 80 80 80 80 80 80 80 80 80 80 80 80 80 80
       0.0 0.0 0.0 0.0 0.0 0.0 0.0 0.0 0.0 0.0 0.0 0.0 0.0 0.0 0.0 0.0
0000c0 80 80 80 80 80 80 80 80 80 80 80 80 80 80 80 80
       0.0 0.0 0.0 0.0 0.0 0.0 0.0 0.0 0.0 0.0 0.0 0.0 0.0 0.0 0.0 0.0
0000d0 80 80 80 80 80 80 80 80 80 80 80 80 80 80 80 80
       0.0 0.0 0.0 0.0 0.0 0.0 0.0 0.0 0.0 0.0 0.0 0.0 0.0 0.0 0.0 0.0
0000e0 80 80 80 80 80 80 80 80 80 80 80 80 80 80 80 80
       0.0 0.0 0.0 0.0 0.0 0.0 0.0 0.0 0.0 0.0 0.0 0.0 0.0 0.0 0.0 0.0
0000f0 80 80 80 80 80 80 80 80 80 80 80 80 80 80 80 80
       0.0 0.0 0.0 0.0 0.0 0.0 0.0 0.0 0.0 0.0 0.0 0.0 0.0 0.0 0.0 0.0

tfl.pseudo_qconst29 i1 [1, 14, 1, 64] scale=0.028246079 zero_point=-128
000000 80 80 80 80 80 80 80 80 80 80 80 80 80 80 80 80
       0.0 0.0 0.0 0.0 0.0 0.0 0.0 0.0 0.0 0.0 0.0 0.0 0.0 0.0 0.0 0.0
000010 80 80 80 80 80 80 80 80 80 80 80 80 80 80 80 80
       0.0 0.0 0.0 0.0 0.0 0.0 0.0 0.0 0.0 0.0 0.0 0.0 0.0 0.0 0.0 0.0
000020 80 80 80 80 80 80 80 80 80 80 80 80 80 80 80 80
       0.0 0.0 0.0 0.0 0.0 0.0 0.0 0.0 0.0 0.0 0.0 0.0 0.0 0.0 0.0 0.0
000030 80 80 80 80 80 80 80 80 80 80 80 80 80 80 80 80
       0.0 0.0 0.0 0.0 0.0 0.0 0.0 0.0 0.0 0.0 0.0 0.0 0.0 0.0 0.0 0.0
000040 80 80 80 80 80 80 80 80 80 80 80 80 80 80 80 80
       0.0 0.0 0.0 0.0 0.0 0.0 0.0 0.0 0.0 0.0 0.0 0.0 0.0 0.0 0.0 0.0
000050 80 80 80 80 80 80 80 80 80 80 80 80 80 80 80 80
       0.0 0.0 0.0 0.0 0.0 0.0 0.0 0.0 0.0 0.0 0.0 0.0 0.0 0.0 0.0 0.0
000060 80 80 80 80 80 80 80 80 80 80 80 80 80 80 80 80
       0.0 0.0 0.0 0.0 0.0 0.0 0.0 0.0 0.0 0.0 0.0 0.0 0.0 0.0 0.0 0.0
000070 80 80 80 80 80 80 80 80 80 80 80 80 80 80 80 80
       0.0 0.0 0.0 0.0 0.0 0.0 0.0 0.0 0.0 0.0 0.0 0.0 0.0 0.0 0.0 0.0
000080 80 80 80 80 80 80 80 80 80 80 80 80 80 80 80 80
       0.0 0.0 0.0 0.0 0.0 0.0 0.0 0.0 0.0 0.0 0.0 0.0 0.0 0.0 0.0 0.0
000090 80 80 80 80 80 80 80 80 80 80 80 80 80 80 80 80
       0.0 0.0 0.0 0.0 0.0 0.0 0.0 0.0 0.0 0.0 0.0 0.0 0.0 0.0 0.0 0.0
0000a0 80 80 80 80 80 80 80 80 80 80 80 80 80 80 80 80
       0.0 0.0 0.0 0.0 0.0 0.0 0.0 0.0 0.0 0.0 0.0 0.0 0.0 0.0 0.0 0.0
0000b0 80 80 80 80 80 80 80 80 80 80 80 80 80 80 80 80
       0.0 0.0 0.0 0.0 0.0 0.0 0.0 0.0 0.0 0.0 0.0 0.0 0.0 0.0 0.0 0.0
0000c0 80 80 80 80 80 80 80 80 80 80 80 80 80 80 80 80
       0.0 0.0 0.0 0.0 0.0 0.0 0.0 0.0 0.0 0.0 0.0 0.0 0.0 0.0 0.0 0.0
0000d0 80 80 80 80 80 80 80 80 80 80 80 80 80 80 80 80
       0.0 0.0 0.0 0.0 0.0 0.0 0.0 0.0 0.0 0.0 0.0 0.0 0.0 0.0 0.0 0.0
0000e0 80 80 80 80 80 80 80 80 80 80 80 80 80 80 80 80
       0.0 0.0 0.0 0.0 0.0 0.0 0.0 0.0 0.0 0.0 0.0 0.0 0.0 0.0 0.0 0.0
0000f0 80 80 80 80 80 80 80 80 80 80 80 80 80 80 80 80
       0.0 0.0 0.0 0.0 0.0 0.0 0.0 0.0 0.0 0.0 0.0 0.0 0.0 0.0 0.0 0.0
